<?xml version="1.0" ?>
<net name="text-recognition-0012" version="10">
	<layers>
		<layer id="0" name="Placeholder" type="Parameter" version="opset1">
			<data element_type="f16" shape="1,1,32,120"/>
			<output>
				<port id="0" names="Placeholder:0" precision="FP16">
					<dim>1</dim>
					<dim>1</dim>
					<dim>32</dim>
					<dim>120</dim>
				</port>
			</output>
		</layer>
		<layer id="1" name="data_mul_46534742/EltwiseUnsqueeze4765_const94_const" type="Const" version="opset1">
			<data element_type="f16" offset="0" shape="1,1,1,1" size="2"/>
			<output>
				<port id="0" precision="FP16">
					<dim>1</dim>
					<dim>1</dim>
					<dim>1</dim>
					<dim>1</dim>
				</port>
			</output>
		</layer>
		<layer id="2" name="shadow/BatchNorm/FusedBatchNorm/mean/Fused_Mul_" type="Multiply" version="opset1">
			<data auto_broadcast="numpy"/>
			<input>
				<port id="0">
					<dim>1</dim>
					<dim>1</dim>
					<dim>32</dim>
					<dim>120</dim>
				</port>
				<port id="1">
					<dim>1</dim>
					<dim>1</dim>
					<dim>1</dim>
					<dim>1</dim>
				</port>
			</input>
			<output>
				<port id="2" precision="FP16">
					<dim>1</dim>
					<dim>1</dim>
					<dim>32</dim>
					<dim>120</dim>
				</port>
			</output>
		</layer>
		<layer id="3" name="data_add_46554743/EltwiseUnsqueeze4769_const96_const" type="Const" version="opset1">
			<data element_type="f16" offset="2" shape="1,1,1,1" size="2"/>
			<output>
				<port id="0" precision="FP16">
					<dim>1</dim>
					<dim>1</dim>
					<dim>1</dim>
					<dim>1</dim>
				</port>
			</output>
		</layer>
		<layer id="4" name="shadow/BatchNorm/FusedBatchNorm/variance/Fused_Add_" type="Add" version="opset1">
			<data auto_broadcast="numpy"/>
			<input>
				<port id="0">
					<dim>1</dim>
					<dim>1</dim>
					<dim>32</dim>
					<dim>120</dim>
				</port>
				<port id="1">
					<dim>1</dim>
					<dim>1</dim>
					<dim>1</dim>
					<dim>1</dim>
				</port>
			</input>
			<output>
				<port id="2" names="shadow/Dropout/Identity:0,shadow/BatchNorm/FusedBatchNorm:0" precision="FP16">
					<dim>1</dim>
					<dim>1</dim>
					<dim>32</dim>
					<dim>120</dim>
				</port>
			</output>
		</layer>
		<layer id="5" name="348352_const" type="Const" version="opset1">
			<data element_type="f16" offset="4" shape="" size="2"/>
			<output>
				<port id="0" precision="FP16"/>
			</output>
		</layer>
		<layer id="6" name="349353_const" type="Const" version="opset1">
			<data element_type="f16" offset="6" shape="" size="2"/>
			<output>
				<port id="0" precision="FP16"/>
			</output>
		</layer>
		<layer id="7" name="350354_const" type="Const" version="opset1">
			<data element_type="f16" offset="4" shape="" size="2"/>
			<output>
				<port id="0" precision="FP16"/>
			</output>
		</layer>
		<layer id="8" name="351355_const" type="Const" version="opset1">
			<data element_type="f16" offset="6" shape="" size="2"/>
			<output>
				<port id="0" precision="FP16"/>
			</output>
		</layer>
		<layer id="9" name="shadow/Conv/Conv2D/fq_input_0" type="FakeQuantize" version="opset1">
			<data auto_broadcast="numpy" levels="256"/>
			<input>
				<port id="0">
					<dim>1</dim>
					<dim>1</dim>
					<dim>32</dim>
					<dim>120</dim>
				</port>
				<port id="1"/>
				<port id="2"/>
				<port id="3"/>
				<port id="4"/>
			</input>
			<output>
				<port id="5" precision="FP16">
					<dim>1</dim>
					<dim>1</dim>
					<dim>32</dim>
					<dim>120</dim>
				</port>
			</output>
		</layer>
		<layer id="10" name="shadow/Conv/Conv2D/Transpose5364_const98862/quantized976_const" type="Const" version="opset1">
			<data element_type="i8" offset="8" shape="64,1,3,3" size="576"/>
			<output>
				<port id="0" precision="I8">
					<dim>64</dim>
					<dim>1</dim>
					<dim>3</dim>
					<dim>3</dim>
				</port>
			</output>
		</layer>
		<layer id="11" name="shadow/Conv/Conv2D/Transpose5364_const98862/quantized/to_f16" type="Convert" version="opset1">
			<data destination_type="f16"/>
			<input>
				<port id="0">
					<dim>64</dim>
					<dim>1</dim>
					<dim>3</dim>
					<dim>3</dim>
				</port>
			</input>
			<output>
				<port id="1" precision="FP16">
					<dim>64</dim>
					<dim>1</dim>
					<dim>3</dim>
					<dim>3</dim>
				</port>
			</output>
		</layer>
		<layer id="12" name="shadow/Conv/Conv2D/fq_weights_1/zero_point989_const" type="Const" version="opset1">
			<data element_type="f16" offset="584" shape="64,1,1,1" size="128"/>
			<output>
				<port id="0" precision="FP16">
					<dim>64</dim>
					<dim>1</dim>
					<dim>1</dim>
					<dim>1</dim>
				</port>
			</output>
		</layer>
		<layer id="13" name="shadow/Conv/Conv2D/fq_weights_1/minus_zp" type="Subtract" version="opset1">
			<data auto_broadcast="numpy"/>
			<input>
				<port id="0">
					<dim>64</dim>
					<dim>1</dim>
					<dim>3</dim>
					<dim>3</dim>
				</port>
				<port id="1">
					<dim>64</dim>
					<dim>1</dim>
					<dim>1</dim>
					<dim>1</dim>
				</port>
			</input>
			<output>
				<port id="2" precision="FP16">
					<dim>64</dim>
					<dim>1</dim>
					<dim>3</dim>
					<dim>3</dim>
				</port>
			</output>
		</layer>
		<layer id="14" name="shadow/Conv/Conv2D/fq_weights_1/scale984_const" type="Const" version="opset1">
			<data element_type="f16" offset="712" shape="64,1,1,1" size="128"/>
			<output>
				<port id="0" precision="FP16">
					<dim>64</dim>
					<dim>1</dim>
					<dim>1</dim>
					<dim>1</dim>
				</port>
			</output>
		</layer>
		<layer id="15" name="shadow/Conv/Conv2D/fq_weights_1/mulpiply_by_scale" type="Multiply" version="opset1">
			<data auto_broadcast="numpy"/>
			<input>
				<port id="0">
					<dim>64</dim>
					<dim>1</dim>
					<dim>3</dim>
					<dim>3</dim>
				</port>
				<port id="1">
					<dim>64</dim>
					<dim>1</dim>
					<dim>1</dim>
					<dim>1</dim>
				</port>
			</input>
			<output>
				<port id="2" precision="FP16">
					<dim>64</dim>
					<dim>1</dim>
					<dim>3</dim>
					<dim>3</dim>
				</port>
			</output>
		</layer>
		<layer id="16" name="shadow/Conv/Conv2D" type="Convolution" version="opset1">
			<data auto_pad="same_upper" dilations="1,1" pads_begin="0,0" pads_end="0,0" strides="1,1"/>
			<input>
				<port id="0">
					<dim>1</dim>
					<dim>1</dim>
					<dim>32</dim>
					<dim>120</dim>
				</port>
				<port id="1">
					<dim>64</dim>
					<dim>1</dim>
					<dim>3</dim>
					<dim>3</dim>
				</port>
			</input>
			<output>
				<port id="2" precision="FP16">
					<dim>1</dim>
					<dim>64</dim>
					<dim>32</dim>
					<dim>120</dim>
				</port>
			</output>
		</layer>
		<layer id="17" name="data_add_465846634745/EltwiseUnsqueeze4777_const100_const" type="Const" version="opset1">
			<data element_type="f16" offset="840" shape="1,64,1,1" size="128"/>
			<output>
				<port id="0" precision="FP16">
					<dim>1</dim>
					<dim>64</dim>
					<dim>1</dim>
					<dim>1</dim>
				</port>
			</output>
		</layer>
		<layer id="18" name="shadow/BatchNorm_1/FusedBatchNorm/variance/Fused_Add_" type="Add" version="opset1">
			<data auto_broadcast="numpy"/>
			<input>
				<port id="0">
					<dim>1</dim>
					<dim>64</dim>
					<dim>32</dim>
					<dim>120</dim>
				</port>
				<port id="1">
					<dim>1</dim>
					<dim>64</dim>
					<dim>1</dim>
					<dim>1</dim>
				</port>
			</input>
			<output>
				<port id="2" names="shadow/BatchNorm_1/FusedBatchNorm:0" precision="FP16">
					<dim>1</dim>
					<dim>64</dim>
					<dim>32</dim>
					<dim>120</dim>
				</port>
			</output>
		</layer>
		<layer id="19" name="shadow/BatchNorm_1/Relu" type="ReLU" version="opset1">
			<input>
				<port id="0">
					<dim>1</dim>
					<dim>64</dim>
					<dim>32</dim>
					<dim>120</dim>
				</port>
			</input>
			<output>
				<port id="1" names="shadow/BatchNorm_1/Relu:0" precision="FP16">
					<dim>1</dim>
					<dim>64</dim>
					<dim>32</dim>
					<dim>120</dim>
				</port>
			</output>
		</layer>
		<layer id="20" name="573577_const" type="Const" version="opset1">
			<data element_type="f16" offset="968" shape="" size="2"/>
			<output>
				<port id="0" precision="FP16"/>
			</output>
		</layer>
		<layer id="21" name="574578_const" type="Const" version="opset1">
			<data element_type="f16" offset="970" shape="" size="2"/>
			<output>
				<port id="0" precision="FP16"/>
			</output>
		</layer>
		<layer id="22" name="575579_const" type="Const" version="opset1">
			<data element_type="f16" offset="968" shape="" size="2"/>
			<output>
				<port id="0" precision="FP16"/>
			</output>
		</layer>
		<layer id="23" name="576580_const" type="Const" version="opset1">
			<data element_type="f16" offset="970" shape="" size="2"/>
			<output>
				<port id="0" precision="FP16"/>
			</output>
		</layer>
		<layer id="24" name="shadow/MaxPool2D/MaxPool/fq_input_0" type="FakeQuantize" version="opset1">
			<data auto_broadcast="numpy" levels="256"/>
			<input>
				<port id="0">
					<dim>1</dim>
					<dim>64</dim>
					<dim>32</dim>
					<dim>120</dim>
				</port>
				<port id="1"/>
				<port id="2"/>
				<port id="3"/>
				<port id="4"/>
			</input>
			<output>
				<port id="5" precision="FP16">
					<dim>1</dim>
					<dim>64</dim>
					<dim>32</dim>
					<dim>120</dim>
				</port>
			</output>
		</layer>
		<layer id="25" name="shadow/MaxPool2D/MaxPool" type="MaxPool" version="opset1">
			<data auto_pad="valid" kernel="2,2" pads_begin="0,0" pads_end="0,0" strides="2,2"/>
			<input>
				<port id="0">
					<dim>1</dim>
					<dim>64</dim>
					<dim>32</dim>
					<dim>120</dim>
				</port>
			</input>
			<output>
				<port id="1" names="shadow/Dropout_1/Identity:0,shadow/MaxPool2D/MaxPool:0" precision="FP16">
					<dim>1</dim>
					<dim>64</dim>
					<dim>16</dim>
					<dim>60</dim>
				</port>
			</output>
		</layer>
		<layer id="26" name="shadow/Conv_1/Conv2D/Transpose5368_const104864/quantized1072_const" type="Const" version="opset1">
			<data element_type="i8" offset="972" shape="128,64,3,3" size="73728"/>
			<output>
				<port id="0" precision="I8">
					<dim>128</dim>
					<dim>64</dim>
					<dim>3</dim>
					<dim>3</dim>
				</port>
			</output>
		</layer>
		<layer id="27" name="shadow/Conv_1/Conv2D/Transpose5368_const104864/quantized/to_f16" type="Convert" version="opset1">
			<data destination_type="f16"/>
			<input>
				<port id="0">
					<dim>128</dim>
					<dim>64</dim>
					<dim>3</dim>
					<dim>3</dim>
				</port>
			</input>
			<output>
				<port id="1" precision="FP16">
					<dim>128</dim>
					<dim>64</dim>
					<dim>3</dim>
					<dim>3</dim>
				</port>
			</output>
		</layer>
		<layer id="28" name="shadow/Conv_1/Conv2D/fq_weights_1/zero_point1085_const" type="Const" version="opset1">
			<data element_type="f16" offset="74700" shape="128,1,1,1" size="256"/>
			<output>
				<port id="0" precision="FP16">
					<dim>128</dim>
					<dim>1</dim>
					<dim>1</dim>
					<dim>1</dim>
				</port>
			</output>
		</layer>
		<layer id="29" name="shadow/Conv_1/Conv2D/fq_weights_1/minus_zp" type="Subtract" version="opset1">
			<data auto_broadcast="numpy"/>
			<input>
				<port id="0">
					<dim>128</dim>
					<dim>64</dim>
					<dim>3</dim>
					<dim>3</dim>
				</port>
				<port id="1">
					<dim>128</dim>
					<dim>1</dim>
					<dim>1</dim>
					<dim>1</dim>
				</port>
			</input>
			<output>
				<port id="2" precision="FP16">
					<dim>128</dim>
					<dim>64</dim>
					<dim>3</dim>
					<dim>3</dim>
				</port>
			</output>
		</layer>
		<layer id="30" name="shadow/Conv_1/Conv2D/fq_weights_1/scale1080_const" type="Const" version="opset1">
			<data element_type="f16" offset="74956" shape="128,1,1,1" size="256"/>
			<output>
				<port id="0" precision="FP16">
					<dim>128</dim>
					<dim>1</dim>
					<dim>1</dim>
					<dim>1</dim>
				</port>
			</output>
		</layer>
		<layer id="31" name="shadow/Conv_1/Conv2D/fq_weights_1/mulpiply_by_scale" type="Multiply" version="opset1">
			<data auto_broadcast="numpy"/>
			<input>
				<port id="0">
					<dim>128</dim>
					<dim>64</dim>
					<dim>3</dim>
					<dim>3</dim>
				</port>
				<port id="1">
					<dim>128</dim>
					<dim>1</dim>
					<dim>1</dim>
					<dim>1</dim>
				</port>
			</input>
			<output>
				<port id="2" precision="FP16">
					<dim>128</dim>
					<dim>64</dim>
					<dim>3</dim>
					<dim>3</dim>
				</port>
			</output>
		</layer>
		<layer id="32" name="shadow/Conv_1/Conv2D" type="Convolution" version="opset1">
			<data auto_pad="same_upper" dilations="1,1" pads_begin="0,0" pads_end="0,0" strides="1,1"/>
			<input>
				<port id="0">
					<dim>1</dim>
					<dim>64</dim>
					<dim>16</dim>
					<dim>60</dim>
				</port>
				<port id="1">
					<dim>128</dim>
					<dim>64</dim>
					<dim>3</dim>
					<dim>3</dim>
				</port>
			</input>
			<output>
				<port id="2" precision="FP16">
					<dim>1</dim>
					<dim>128</dim>
					<dim>16</dim>
					<dim>60</dim>
				</port>
			</output>
		</layer>
		<layer id="33" name="data_add_466646714747/EltwiseUnsqueeze4785_const106_const" type="Const" version="opset1">
			<data element_type="f16" offset="75212" shape="1,128,1,1" size="256"/>
			<output>
				<port id="0" precision="FP16">
					<dim>1</dim>
					<dim>128</dim>
					<dim>1</dim>
					<dim>1</dim>
				</port>
			</output>
		</layer>
		<layer id="34" name="shadow/BatchNorm_2/FusedBatchNorm/variance/Fused_Add_" type="Add" version="opset1">
			<data auto_broadcast="numpy"/>
			<input>
				<port id="0">
					<dim>1</dim>
					<dim>128</dim>
					<dim>16</dim>
					<dim>60</dim>
				</port>
				<port id="1">
					<dim>1</dim>
					<dim>128</dim>
					<dim>1</dim>
					<dim>1</dim>
				</port>
			</input>
			<output>
				<port id="2" names="shadow/BatchNorm_2/FusedBatchNorm:0" precision="FP16">
					<dim>1</dim>
					<dim>128</dim>
					<dim>16</dim>
					<dim>60</dim>
				</port>
			</output>
		</layer>
		<layer id="35" name="shadow/BatchNorm_2/Relu" type="ReLU" version="opset1">
			<input>
				<port id="0">
					<dim>1</dim>
					<dim>128</dim>
					<dim>16</dim>
					<dim>60</dim>
				</port>
			</input>
			<output>
				<port id="1" names="shadow/BatchNorm_2/Relu:0" precision="FP16">
					<dim>1</dim>
					<dim>128</dim>
					<dim>16</dim>
					<dim>60</dim>
				</port>
			</output>
		</layer>
		<layer id="36" name="583587_const" type="Const" version="opset1">
			<data element_type="f16" offset="968" shape="" size="2"/>
			<output>
				<port id="0" precision="FP16"/>
			</output>
		</layer>
		<layer id="37" name="584588_const" type="Const" version="opset1">
			<data element_type="f16" offset="75468" shape="" size="2"/>
			<output>
				<port id="0" precision="FP16"/>
			</output>
		</layer>
		<layer id="38" name="585589_const" type="Const" version="opset1">
			<data element_type="f16" offset="968" shape="" size="2"/>
			<output>
				<port id="0" precision="FP16"/>
			</output>
		</layer>
		<layer id="39" name="586590_const" type="Const" version="opset1">
			<data element_type="f16" offset="75468" shape="" size="2"/>
			<output>
				<port id="0" precision="FP16"/>
			</output>
		</layer>
		<layer id="40" name="shadow/MaxPool2D_1/MaxPool/fq_input_0" type="FakeQuantize" version="opset1">
			<data auto_broadcast="numpy" levels="256"/>
			<input>
				<port id="0">
					<dim>1</dim>
					<dim>128</dim>
					<dim>16</dim>
					<dim>60</dim>
				</port>
				<port id="1"/>
				<port id="2"/>
				<port id="3"/>
				<port id="4"/>
			</input>
			<output>
				<port id="5" precision="FP16">
					<dim>1</dim>
					<dim>128</dim>
					<dim>16</dim>
					<dim>60</dim>
				</port>
			</output>
		</layer>
		<layer id="41" name="shadow/MaxPool2D_1/MaxPool" type="MaxPool" version="opset1">
			<data auto_pad="valid" kernel="2,2" pads_begin="0,0" pads_end="0,0" strides="2,2"/>
			<input>
				<port id="0">
					<dim>1</dim>
					<dim>128</dim>
					<dim>16</dim>
					<dim>60</dim>
				</port>
			</input>
			<output>
				<port id="1" names="shadow/Dropout_2/Identity:0,shadow/MaxPool2D_1/MaxPool:0" precision="FP16">
					<dim>1</dim>
					<dim>128</dim>
					<dim>8</dim>
					<dim>30</dim>
				</port>
			</output>
		</layer>
		<layer id="42" name="shadow/Conv_2/Conv2D/Transpose5372_const110866/quantized1120_const" type="Const" version="opset1">
			<data element_type="i8" offset="75470" shape="256,128,3,3" size="294912"/>
			<output>
				<port id="0" precision="I8">
					<dim>256</dim>
					<dim>128</dim>
					<dim>3</dim>
					<dim>3</dim>
				</port>
			</output>
		</layer>
		<layer id="43" name="shadow/Conv_2/Conv2D/Transpose5372_const110866/quantized/to_f16" type="Convert" version="opset1">
			<data destination_type="f16"/>
			<input>
				<port id="0">
					<dim>256</dim>
					<dim>128</dim>
					<dim>3</dim>
					<dim>3</dim>
				</port>
			</input>
			<output>
				<port id="1" precision="FP16">
					<dim>256</dim>
					<dim>128</dim>
					<dim>3</dim>
					<dim>3</dim>
				</port>
			</output>
		</layer>
		<layer id="44" name="shadow/Conv_2/Conv2D/fq_weights_1/zero_point1133_const" type="Const" version="opset1">
			<data element_type="f16" offset="370382" shape="256,1,1,1" size="512"/>
			<output>
				<port id="0" precision="FP16">
					<dim>256</dim>
					<dim>1</dim>
					<dim>1</dim>
					<dim>1</dim>
				</port>
			</output>
		</layer>
		<layer id="45" name="shadow/Conv_2/Conv2D/fq_weights_1/minus_zp" type="Subtract" version="opset1">
			<data auto_broadcast="numpy"/>
			<input>
				<port id="0">
					<dim>256</dim>
					<dim>128</dim>
					<dim>3</dim>
					<dim>3</dim>
				</port>
				<port id="1">
					<dim>256</dim>
					<dim>1</dim>
					<dim>1</dim>
					<dim>1</dim>
				</port>
			</input>
			<output>
				<port id="2" precision="FP16">
					<dim>256</dim>
					<dim>128</dim>
					<dim>3</dim>
					<dim>3</dim>
				</port>
			</output>
		</layer>
		<layer id="46" name="shadow/Conv_2/Conv2D/fq_weights_1/scale1128_const" type="Const" version="opset1">
			<data element_type="f16" offset="370894" shape="256,1,1,1" size="512"/>
			<output>
				<port id="0" precision="FP16">
					<dim>256</dim>
					<dim>1</dim>
					<dim>1</dim>
					<dim>1</dim>
				</port>
			</output>
		</layer>
		<layer id="47" name="shadow/Conv_2/Conv2D/fq_weights_1/mulpiply_by_scale" type="Multiply" version="opset1">
			<data auto_broadcast="numpy"/>
			<input>
				<port id="0">
					<dim>256</dim>
					<dim>128</dim>
					<dim>3</dim>
					<dim>3</dim>
				</port>
				<port id="1">
					<dim>256</dim>
					<dim>1</dim>
					<dim>1</dim>
					<dim>1</dim>
				</port>
			</input>
			<output>
				<port id="2" precision="FP16">
					<dim>256</dim>
					<dim>128</dim>
					<dim>3</dim>
					<dim>3</dim>
				</port>
			</output>
		</layer>
		<layer id="48" name="shadow/Conv_2/Conv2D" type="Convolution" version="opset1">
			<data auto_pad="same_upper" dilations="1,1" pads_begin="0,0" pads_end="0,0" strides="1,1"/>
			<input>
				<port id="0">
					<dim>1</dim>
					<dim>128</dim>
					<dim>8</dim>
					<dim>30</dim>
				</port>
				<port id="1">
					<dim>256</dim>
					<dim>128</dim>
					<dim>3</dim>
					<dim>3</dim>
				</port>
			</input>
			<output>
				<port id="2" precision="FP16">
					<dim>1</dim>
					<dim>256</dim>
					<dim>8</dim>
					<dim>30</dim>
				</port>
			</output>
		</layer>
		<layer id="49" name="data_add_467446794749/EltwiseUnsqueeze4793_const112_const" type="Const" version="opset1">
			<data element_type="f16" offset="371406" shape="1,256,1,1" size="512"/>
			<output>
				<port id="0" precision="FP16">
					<dim>1</dim>
					<dim>256</dim>
					<dim>1</dim>
					<dim>1</dim>
				</port>
			</output>
		</layer>
		<layer id="50" name="shadow/BatchNorm_3/FusedBatchNorm/variance/Fused_Add_" type="Add" version="opset1">
			<data auto_broadcast="numpy"/>
			<input>
				<port id="0">
					<dim>1</dim>
					<dim>256</dim>
					<dim>8</dim>
					<dim>30</dim>
				</port>
				<port id="1">
					<dim>1</dim>
					<dim>256</dim>
					<dim>1</dim>
					<dim>1</dim>
				</port>
			</input>
			<output>
				<port id="2" names="shadow/BatchNorm_3/FusedBatchNorm:0" precision="FP16">
					<dim>1</dim>
					<dim>256</dim>
					<dim>8</dim>
					<dim>30</dim>
				</port>
			</output>
		</layer>
		<layer id="51" name="shadow/BatchNorm_3/Relu" type="ReLU" version="opset1">
			<input>
				<port id="0">
					<dim>1</dim>
					<dim>256</dim>
					<dim>8</dim>
					<dim>30</dim>
				</port>
			</input>
			<output>
				<port id="1" names="shadow/Dropout_3/Identity:0,shadow/BatchNorm_3/Relu:0" precision="FP16">
					<dim>1</dim>
					<dim>256</dim>
					<dim>8</dim>
					<dim>30</dim>
				</port>
			</output>
		</layer>
		<layer id="52" name="328332_const" type="Const" version="opset1">
			<data element_type="f16" offset="968" shape="" size="2"/>
			<output>
				<port id="0" precision="FP16"/>
			</output>
		</layer>
		<layer id="53" name="329333_const" type="Const" version="opset1">
			<data element_type="f16" offset="371918" shape="" size="2"/>
			<output>
				<port id="0" precision="FP16"/>
			</output>
		</layer>
		<layer id="54" name="330334_const" type="Const" version="opset1">
			<data element_type="f16" offset="968" shape="" size="2"/>
			<output>
				<port id="0" precision="FP16"/>
			</output>
		</layer>
		<layer id="55" name="331335_const" type="Const" version="opset1">
			<data element_type="f16" offset="371918" shape="" size="2"/>
			<output>
				<port id="0" precision="FP16"/>
			</output>
		</layer>
		<layer id="56" name="shadow/Conv_3/Conv2D/fq_input_0" type="FakeQuantize" version="opset1">
			<data auto_broadcast="numpy" levels="256"/>
			<input>
				<port id="0">
					<dim>1</dim>
					<dim>256</dim>
					<dim>8</dim>
					<dim>30</dim>
				</port>
				<port id="1"/>
				<port id="2"/>
				<port id="3"/>
				<port id="4"/>
			</input>
			<output>
				<port id="5" precision="FP16">
					<dim>1</dim>
					<dim>256</dim>
					<dim>8</dim>
					<dim>30</dim>
				</port>
			</output>
		</layer>
		<layer id="57" name="shadow/Conv_3/Conv2D/Transpose5376_const115868/quantized1096_const" type="Const" version="opset1">
			<data element_type="i8" offset="371920" shape="256,256,3,3" size="589824"/>
			<output>
				<port id="0" precision="I8">
					<dim>256</dim>
					<dim>256</dim>
					<dim>3</dim>
					<dim>3</dim>
				</port>
			</output>
		</layer>
		<layer id="58" name="shadow/Conv_3/Conv2D/Transpose5376_const115868/quantized/to_f16" type="Convert" version="opset1">
			<data destination_type="f16"/>
			<input>
				<port id="0">
					<dim>256</dim>
					<dim>256</dim>
					<dim>3</dim>
					<dim>3</dim>
				</port>
			</input>
			<output>
				<port id="1" precision="FP16">
					<dim>256</dim>
					<dim>256</dim>
					<dim>3</dim>
					<dim>3</dim>
				</port>
			</output>
		</layer>
		<layer id="59" name="shadow/Conv_3/Conv2D/fq_weights_1/zero_point1109_const" type="Const" version="opset1">
			<data element_type="f16" offset="961744" shape="256,1,1,1" size="512"/>
			<output>
				<port id="0" precision="FP16">
					<dim>256</dim>
					<dim>1</dim>
					<dim>1</dim>
					<dim>1</dim>
				</port>
			</output>
		</layer>
		<layer id="60" name="shadow/Conv_3/Conv2D/fq_weights_1/minus_zp" type="Subtract" version="opset1">
			<data auto_broadcast="numpy"/>
			<input>
				<port id="0">
					<dim>256</dim>
					<dim>256</dim>
					<dim>3</dim>
					<dim>3</dim>
				</port>
				<port id="1">
					<dim>256</dim>
					<dim>1</dim>
					<dim>1</dim>
					<dim>1</dim>
				</port>
			</input>
			<output>
				<port id="2" precision="FP16">
					<dim>256</dim>
					<dim>256</dim>
					<dim>3</dim>
					<dim>3</dim>
				</port>
			</output>
		</layer>
		<layer id="61" name="shadow/Conv_3/Conv2D/fq_weights_1/scale1104_const" type="Const" version="opset1">
			<data element_type="f16" offset="962256" shape="256,1,1,1" size="512"/>
			<output>
				<port id="0" precision="FP16">
					<dim>256</dim>
					<dim>1</dim>
					<dim>1</dim>
					<dim>1</dim>
				</port>
			</output>
		</layer>
		<layer id="62" name="shadow/Conv_3/Conv2D/fq_weights_1/mulpiply_by_scale" type="Multiply" version="opset1">
			<data auto_broadcast="numpy"/>
			<input>
				<port id="0">
					<dim>256</dim>
					<dim>256</dim>
					<dim>3</dim>
					<dim>3</dim>
				</port>
				<port id="1">
					<dim>256</dim>
					<dim>1</dim>
					<dim>1</dim>
					<dim>1</dim>
				</port>
			</input>
			<output>
				<port id="2" precision="FP16">
					<dim>256</dim>
					<dim>256</dim>
					<dim>3</dim>
					<dim>3</dim>
				</port>
			</output>
		</layer>
		<layer id="63" name="shadow/Conv_3/Conv2D" type="Convolution" version="opset1">
			<data auto_pad="same_upper" dilations="1,1" pads_begin="0,0" pads_end="0,0" strides="1,1"/>
			<input>
				<port id="0">
					<dim>1</dim>
					<dim>256</dim>
					<dim>8</dim>
					<dim>30</dim>
				</port>
				<port id="1">
					<dim>256</dim>
					<dim>256</dim>
					<dim>3</dim>
					<dim>3</dim>
				</port>
			</input>
			<output>
				<port id="2" precision="FP16">
					<dim>1</dim>
					<dim>256</dim>
					<dim>8</dim>
					<dim>30</dim>
				</port>
			</output>
		</layer>
		<layer id="64" name="data_add_468246874751/EltwiseUnsqueeze4801_const117_const" type="Const" version="opset1">
			<data element_type="f16" offset="962768" shape="1,256,1,1" size="512"/>
			<output>
				<port id="0" precision="FP16">
					<dim>1</dim>
					<dim>256</dim>
					<dim>1</dim>
					<dim>1</dim>
				</port>
			</output>
		</layer>
		<layer id="65" name="shadow/BatchNorm_4/FusedBatchNorm/variance/Fused_Add_" type="Add" version="opset1">
			<data auto_broadcast="numpy"/>
			<input>
				<port id="0">
					<dim>1</dim>
					<dim>256</dim>
					<dim>8</dim>
					<dim>30</dim>
				</port>
				<port id="1">
					<dim>1</dim>
					<dim>256</dim>
					<dim>1</dim>
					<dim>1</dim>
				</port>
			</input>
			<output>
				<port id="2" names="shadow/BatchNorm_4/FusedBatchNorm:0" precision="FP16">
					<dim>1</dim>
					<dim>256</dim>
					<dim>8</dim>
					<dim>30</dim>
				</port>
			</output>
		</layer>
		<layer id="66" name="shadow/BatchNorm_4/Relu" type="ReLU" version="opset1">
			<input>
				<port id="0">
					<dim>1</dim>
					<dim>256</dim>
					<dim>8</dim>
					<dim>30</dim>
				</port>
			</input>
			<output>
				<port id="1" names="shadow/BatchNorm_4/Relu:0" precision="FP16">
					<dim>1</dim>
					<dim>256</dim>
					<dim>8</dim>
					<dim>30</dim>
				</port>
			</output>
		</layer>
		<layer id="67" name="593597_const" type="Const" version="opset1">
			<data element_type="f16" offset="968" shape="" size="2"/>
			<output>
				<port id="0" precision="FP16"/>
			</output>
		</layer>
		<layer id="68" name="594598_const" type="Const" version="opset1">
			<data element_type="f16" offset="963280" shape="" size="2"/>
			<output>
				<port id="0" precision="FP16"/>
			</output>
		</layer>
		<layer id="69" name="595599_const" type="Const" version="opset1">
			<data element_type="f16" offset="968" shape="" size="2"/>
			<output>
				<port id="0" precision="FP16"/>
			</output>
		</layer>
		<layer id="70" name="596600_const" type="Const" version="opset1">
			<data element_type="f16" offset="963280" shape="" size="2"/>
			<output>
				<port id="0" precision="FP16"/>
			</output>
		</layer>
		<layer id="71" name="shadow/MaxPool2D_2/MaxPool/fq_input_0" type="FakeQuantize" version="opset1">
			<data auto_broadcast="numpy" levels="256"/>
			<input>
				<port id="0">
					<dim>1</dim>
					<dim>256</dim>
					<dim>8</dim>
					<dim>30</dim>
				</port>
				<port id="1"/>
				<port id="2"/>
				<port id="3"/>
				<port id="4"/>
			</input>
			<output>
				<port id="5" precision="FP16">
					<dim>1</dim>
					<dim>256</dim>
					<dim>8</dim>
					<dim>30</dim>
				</port>
			</output>
		</layer>
		<layer id="72" name="shadow/MaxPool2D_2/MaxPool" type="MaxPool" version="opset1">
			<data auto_pad="valid" kernel="2,1" pads_begin="0,0" pads_end="0,0" strides="2,1"/>
			<input>
				<port id="0">
					<dim>1</dim>
					<dim>256</dim>
					<dim>8</dim>
					<dim>30</dim>
				</port>
			</input>
			<output>
				<port id="1" names="shadow/Dropout_4/Identity:0,shadow/MaxPool2D_2/MaxPool:0" precision="FP16">
					<dim>1</dim>
					<dim>256</dim>
					<dim>4</dim>
					<dim>30</dim>
				</port>
			</output>
		</layer>
		<layer id="73" name="shadow/Conv_4/Conv2D/Transpose5380_const121870/quantized1024_const" type="Const" version="opset1">
			<data element_type="i8" offset="963282" shape="512,256,3,3" size="1179648"/>
			<output>
				<port id="0" precision="I8">
					<dim>512</dim>
					<dim>256</dim>
					<dim>3</dim>
					<dim>3</dim>
				</port>
			</output>
		</layer>
		<layer id="74" name="shadow/Conv_4/Conv2D/Transpose5380_const121870/quantized/to_f16" type="Convert" version="opset1">
			<data destination_type="f16"/>
			<input>
				<port id="0">
					<dim>512</dim>
					<dim>256</dim>
					<dim>3</dim>
					<dim>3</dim>
				</port>
			</input>
			<output>
				<port id="1" precision="FP16">
					<dim>512</dim>
					<dim>256</dim>
					<dim>3</dim>
					<dim>3</dim>
				</port>
			</output>
		</layer>
		<layer id="75" name="shadow/Conv_4/Conv2D/fq_weights_1/zero_point1037_const" type="Const" version="opset1">
			<data element_type="f16" offset="2142930" shape="512,1,1,1" size="1024"/>
			<output>
				<port id="0" precision="FP16">
					<dim>512</dim>
					<dim>1</dim>
					<dim>1</dim>
					<dim>1</dim>
				</port>
			</output>
		</layer>
		<layer id="76" name="shadow/Conv_4/Conv2D/fq_weights_1/minus_zp" type="Subtract" version="opset1">
			<data auto_broadcast="numpy"/>
			<input>
				<port id="0">
					<dim>512</dim>
					<dim>256</dim>
					<dim>3</dim>
					<dim>3</dim>
				</port>
				<port id="1">
					<dim>512</dim>
					<dim>1</dim>
					<dim>1</dim>
					<dim>1</dim>
				</port>
			</input>
			<output>
				<port id="2" precision="FP16">
					<dim>512</dim>
					<dim>256</dim>
					<dim>3</dim>
					<dim>3</dim>
				</port>
			</output>
		</layer>
		<layer id="77" name="shadow/Conv_4/Conv2D/fq_weights_1/scale1032_const" type="Const" version="opset1">
			<data element_type="f16" offset="2143954" shape="512,1,1,1" size="1024"/>
			<output>
				<port id="0" precision="FP16">
					<dim>512</dim>
					<dim>1</dim>
					<dim>1</dim>
					<dim>1</dim>
				</port>
			</output>
		</layer>
		<layer id="78" name="shadow/Conv_4/Conv2D/fq_weights_1/mulpiply_by_scale" type="Multiply" version="opset1">
			<data auto_broadcast="numpy"/>
			<input>
				<port id="0">
					<dim>512</dim>
					<dim>256</dim>
					<dim>3</dim>
					<dim>3</dim>
				</port>
				<port id="1">
					<dim>512</dim>
					<dim>1</dim>
					<dim>1</dim>
					<dim>1</dim>
				</port>
			</input>
			<output>
				<port id="2" precision="FP16">
					<dim>512</dim>
					<dim>256</dim>
					<dim>3</dim>
					<dim>3</dim>
				</port>
			</output>
		</layer>
		<layer id="79" name="shadow/Conv_4/Conv2D" type="Convolution" version="opset1">
			<data auto_pad="same_upper" dilations="1,1" pads_begin="0,0" pads_end="0,0" strides="1,1"/>
			<input>
				<port id="0">
					<dim>1</dim>
					<dim>256</dim>
					<dim>4</dim>
					<dim>30</dim>
				</port>
				<port id="1">
					<dim>512</dim>
					<dim>256</dim>
					<dim>3</dim>
					<dim>3</dim>
				</port>
			</input>
			<output>
				<port id="2" precision="FP16">
					<dim>1</dim>
					<dim>512</dim>
					<dim>4</dim>
					<dim>30</dim>
				</port>
			</output>
		</layer>
		<layer id="80" name="data_add_469046954753/EltwiseUnsqueeze4809_const123_const" type="Const" version="opset1">
			<data element_type="f16" offset="2144978" shape="1,512,1,1" size="1024"/>
			<output>
				<port id="0" precision="FP16">
					<dim>1</dim>
					<dim>512</dim>
					<dim>1</dim>
					<dim>1</dim>
				</port>
			</output>
		</layer>
		<layer id="81" name="shadow/BatchNorm_5/FusedBatchNorm/variance/Fused_Add_" type="Add" version="opset1">
			<data auto_broadcast="numpy"/>
			<input>
				<port id="0">
					<dim>1</dim>
					<dim>512</dim>
					<dim>4</dim>
					<dim>30</dim>
				</port>
				<port id="1">
					<dim>1</dim>
					<dim>512</dim>
					<dim>1</dim>
					<dim>1</dim>
				</port>
			</input>
			<output>
				<port id="2" names="shadow/BatchNorm_5/FusedBatchNorm:0" precision="FP16">
					<dim>1</dim>
					<dim>512</dim>
					<dim>4</dim>
					<dim>30</dim>
				</port>
			</output>
		</layer>
		<layer id="82" name="shadow/BatchNorm_5/Relu" type="ReLU" version="opset1">
			<input>
				<port id="0">
					<dim>1</dim>
					<dim>512</dim>
					<dim>4</dim>
					<dim>30</dim>
				</port>
			</input>
			<output>
				<port id="1" names="shadow/Dropout_5/Identity:0,shadow/BatchNorm_5/Relu:0" precision="FP16">
					<dim>1</dim>
					<dim>512</dim>
					<dim>4</dim>
					<dim>30</dim>
				</port>
			</output>
		</layer>
		<layer id="83" name="308312_const" type="Const" version="opset1">
			<data element_type="f16" offset="968" shape="" size="2"/>
			<output>
				<port id="0" precision="FP16"/>
			</output>
		</layer>
		<layer id="84" name="309313_const" type="Const" version="opset1">
			<data element_type="f16" offset="2146002" shape="" size="2"/>
			<output>
				<port id="0" precision="FP16"/>
			</output>
		</layer>
		<layer id="85" name="310314_const" type="Const" version="opset1">
			<data element_type="f16" offset="968" shape="" size="2"/>
			<output>
				<port id="0" precision="FP16"/>
			</output>
		</layer>
		<layer id="86" name="311315_const" type="Const" version="opset1">
			<data element_type="f16" offset="2146002" shape="" size="2"/>
			<output>
				<port id="0" precision="FP16"/>
			</output>
		</layer>
		<layer id="87" name="shadow/Conv_5/Conv2D/fq_input_0" type="FakeQuantize" version="opset1">
			<data auto_broadcast="numpy" levels="256"/>
			<input>
				<port id="0">
					<dim>1</dim>
					<dim>512</dim>
					<dim>4</dim>
					<dim>30</dim>
				</port>
				<port id="1"/>
				<port id="2"/>
				<port id="3"/>
				<port id="4"/>
			</input>
			<output>
				<port id="5" precision="FP16">
					<dim>1</dim>
					<dim>512</dim>
					<dim>4</dim>
					<dim>30</dim>
				</port>
			</output>
		</layer>
		<layer id="88" name="shadow/Conv_5/Conv2D/Transpose5384_const126872/quantized1000_const" type="Const" version="opset1">
			<data element_type="i8" offset="2146004" shape="512,512,3,3" size="2359296"/>
			<output>
				<port id="0" precision="I8">
					<dim>512</dim>
					<dim>512</dim>
					<dim>3</dim>
					<dim>3</dim>
				</port>
			</output>
		</layer>
		<layer id="89" name="shadow/Conv_5/Conv2D/Transpose5384_const126872/quantized/to_f16" type="Convert" version="opset1">
			<data destination_type="f16"/>
			<input>
				<port id="0">
					<dim>512</dim>
					<dim>512</dim>
					<dim>3</dim>
					<dim>3</dim>
				</port>
			</input>
			<output>
				<port id="1" precision="FP16">
					<dim>512</dim>
					<dim>512</dim>
					<dim>3</dim>
					<dim>3</dim>
				</port>
			</output>
		</layer>
		<layer id="90" name="shadow/Conv_5/Conv2D/fq_weights_1/zero_point1013_const" type="Const" version="opset1">
			<data element_type="f16" offset="4505300" shape="512,1,1,1" size="1024"/>
			<output>
				<port id="0" precision="FP16">
					<dim>512</dim>
					<dim>1</dim>
					<dim>1</dim>
					<dim>1</dim>
				</port>
			</output>
		</layer>
		<layer id="91" name="shadow/Conv_5/Conv2D/fq_weights_1/minus_zp" type="Subtract" version="opset1">
			<data auto_broadcast="numpy"/>
			<input>
				<port id="0">
					<dim>512</dim>
					<dim>512</dim>
					<dim>3</dim>
					<dim>3</dim>
				</port>
				<port id="1">
					<dim>512</dim>
					<dim>1</dim>
					<dim>1</dim>
					<dim>1</dim>
				</port>
			</input>
			<output>
				<port id="2" precision="FP16">
					<dim>512</dim>
					<dim>512</dim>
					<dim>3</dim>
					<dim>3</dim>
				</port>
			</output>
		</layer>
		<layer id="92" name="shadow/Conv_5/Conv2D/fq_weights_1/scale1008_const" type="Const" version="opset1">
			<data element_type="f16" offset="4506324" shape="512,1,1,1" size="1024"/>
			<output>
				<port id="0" precision="FP16">
					<dim>512</dim>
					<dim>1</dim>
					<dim>1</dim>
					<dim>1</dim>
				</port>
			</output>
		</layer>
		<layer id="93" name="shadow/Conv_5/Conv2D/fq_weights_1/mulpiply_by_scale" type="Multiply" version="opset1">
			<data auto_broadcast="numpy"/>
			<input>
				<port id="0">
					<dim>512</dim>
					<dim>512</dim>
					<dim>3</dim>
					<dim>3</dim>
				</port>
				<port id="1">
					<dim>512</dim>
					<dim>1</dim>
					<dim>1</dim>
					<dim>1</dim>
				</port>
			</input>
			<output>
				<port id="2" precision="FP16">
					<dim>512</dim>
					<dim>512</dim>
					<dim>3</dim>
					<dim>3</dim>
				</port>
			</output>
		</layer>
		<layer id="94" name="shadow/Conv_5/Conv2D" type="Convolution" version="opset1">
			<data auto_pad="same_upper" dilations="1,1" pads_begin="0,0" pads_end="0,0" strides="1,1"/>
			<input>
				<port id="0">
					<dim>1</dim>
					<dim>512</dim>
					<dim>4</dim>
					<dim>30</dim>
				</port>
				<port id="1">
					<dim>512</dim>
					<dim>512</dim>
					<dim>3</dim>
					<dim>3</dim>
				</port>
			</input>
			<output>
				<port id="2" precision="FP16">
					<dim>1</dim>
					<dim>512</dim>
					<dim>4</dim>
					<dim>30</dim>
				</port>
			</output>
		</layer>
		<layer id="95" name="data_add_469847034755/EltwiseUnsqueeze4817_const128_const" type="Const" version="opset1">
			<data element_type="f16" offset="4507348" shape="1,512,1,1" size="1024"/>
			<output>
				<port id="0" precision="FP16">
					<dim>1</dim>
					<dim>512</dim>
					<dim>1</dim>
					<dim>1</dim>
				</port>
			</output>
		</layer>
		<layer id="96" name="shadow/BatchNorm_6/FusedBatchNorm/variance/Fused_Add_" type="Add" version="opset1">
			<data auto_broadcast="numpy"/>
			<input>
				<port id="0">
					<dim>1</dim>
					<dim>512</dim>
					<dim>4</dim>
					<dim>30</dim>
				</port>
				<port id="1">
					<dim>1</dim>
					<dim>512</dim>
					<dim>1</dim>
					<dim>1</dim>
				</port>
			</input>
			<output>
				<port id="2" names="shadow/BatchNorm_6/FusedBatchNorm:0" precision="FP16">
					<dim>1</dim>
					<dim>512</dim>
					<dim>4</dim>
					<dim>30</dim>
				</port>
			</output>
		</layer>
		<layer id="97" name="shadow/BatchNorm_6/Relu" type="ReLU" version="opset1">
			<input>
				<port id="0">
					<dim>1</dim>
					<dim>512</dim>
					<dim>4</dim>
					<dim>30</dim>
				</port>
			</input>
			<output>
				<port id="1" names="shadow/BatchNorm_6/Relu:0" precision="FP16">
					<dim>1</dim>
					<dim>512</dim>
					<dim>4</dim>
					<dim>30</dim>
				</port>
			</output>
		</layer>
		<layer id="98" name="603607_const" type="Const" version="opset1">
			<data element_type="f16" offset="968" shape="" size="2"/>
			<output>
				<port id="0" precision="FP16"/>
			</output>
		</layer>
		<layer id="99" name="604608_const" type="Const" version="opset1">
			<data element_type="f16" offset="4508372" shape="" size="2"/>
			<output>
				<port id="0" precision="FP16"/>
			</output>
		</layer>
		<layer id="100" name="605609_const" type="Const" version="opset1">
			<data element_type="f16" offset="968" shape="" size="2"/>
			<output>
				<port id="0" precision="FP16"/>
			</output>
		</layer>
		<layer id="101" name="606610_const" type="Const" version="opset1">
			<data element_type="f16" offset="4508372" shape="" size="2"/>
			<output>
				<port id="0" precision="FP16"/>
			</output>
		</layer>
		<layer id="102" name="shadow/MaxPool2D_3/MaxPool/fq_input_0" type="FakeQuantize" version="opset1">
			<data auto_broadcast="numpy" levels="256"/>
			<input>
				<port id="0">
					<dim>1</dim>
					<dim>512</dim>
					<dim>4</dim>
					<dim>30</dim>
				</port>
				<port id="1"/>
				<port id="2"/>
				<port id="3"/>
				<port id="4"/>
			</input>
			<output>
				<port id="5" precision="FP16">
					<dim>1</dim>
					<dim>512</dim>
					<dim>4</dim>
					<dim>30</dim>
				</port>
			</output>
		</layer>
		<layer id="103" name="shadow/MaxPool2D_3/MaxPool" type="MaxPool" version="opset1">
			<data auto_pad="valid" kernel="2,1" pads_begin="0,0" pads_end="0,0" strides="2,1"/>
			<input>
				<port id="0">
					<dim>1</dim>
					<dim>512</dim>
					<dim>4</dim>
					<dim>30</dim>
				</port>
			</input>
			<output>
				<port id="1" names="shadow/Dropout_6/Identity:0,shadow/MaxPool2D_3/MaxPool:0" precision="FP16">
					<dim>1</dim>
					<dim>512</dim>
					<dim>2</dim>
					<dim>30</dim>
				</port>
			</output>
		</layer>
		<layer id="104" name="shadow/Conv_6/Conv2D/Transpose5388_const132874/quantized1048_const" type="Const" version="opset1">
			<data element_type="i8" offset="4508374" shape="512,512,2,2" size="1048576"/>
			<output>
				<port id="0" precision="I8">
					<dim>512</dim>
					<dim>512</dim>
					<dim>2</dim>
					<dim>2</dim>
				</port>
			</output>
		</layer>
		<layer id="105" name="shadow/Conv_6/Conv2D/Transpose5388_const132874/quantized/to_f16" type="Convert" version="opset1">
			<data destination_type="f16"/>
			<input>
				<port id="0">
					<dim>512</dim>
					<dim>512</dim>
					<dim>2</dim>
					<dim>2</dim>
				</port>
			</input>
			<output>
				<port id="1" precision="FP16">
					<dim>512</dim>
					<dim>512</dim>
					<dim>2</dim>
					<dim>2</dim>
				</port>
			</output>
		</layer>
		<layer id="106" name="shadow/Conv_6/Conv2D/fq_weights_1/zero_point1061_const" type="Const" version="opset1">
			<data element_type="f16" offset="5556950" shape="512,1,1,1" size="1024"/>
			<output>
				<port id="0" precision="FP16">
					<dim>512</dim>
					<dim>1</dim>
					<dim>1</dim>
					<dim>1</dim>
				</port>
			</output>
		</layer>
		<layer id="107" name="shadow/Conv_6/Conv2D/fq_weights_1/minus_zp" type="Subtract" version="opset1">
			<data auto_broadcast="numpy"/>
			<input>
				<port id="0">
					<dim>512</dim>
					<dim>512</dim>
					<dim>2</dim>
					<dim>2</dim>
				</port>
				<port id="1">
					<dim>512</dim>
					<dim>1</dim>
					<dim>1</dim>
					<dim>1</dim>
				</port>
			</input>
			<output>
				<port id="2" precision="FP16">
					<dim>512</dim>
					<dim>512</dim>
					<dim>2</dim>
					<dim>2</dim>
				</port>
			</output>
		</layer>
		<layer id="108" name="shadow/Conv_6/Conv2D/fq_weights_1/scale1056_const" type="Const" version="opset1">
			<data element_type="f16" offset="5557974" shape="512,1,1,1" size="1024"/>
			<output>
				<port id="0" precision="FP16">
					<dim>512</dim>
					<dim>1</dim>
					<dim>1</dim>
					<dim>1</dim>
				</port>
			</output>
		</layer>
		<layer id="109" name="shadow/Conv_6/Conv2D/fq_weights_1/mulpiply_by_scale" type="Multiply" version="opset1">
			<data auto_broadcast="numpy"/>
			<input>
				<port id="0">
					<dim>512</dim>
					<dim>512</dim>
					<dim>2</dim>
					<dim>2</dim>
				</port>
				<port id="1">
					<dim>512</dim>
					<dim>1</dim>
					<dim>1</dim>
					<dim>1</dim>
				</port>
			</input>
			<output>
				<port id="2" precision="FP16">
					<dim>512</dim>
					<dim>512</dim>
					<dim>2</dim>
					<dim>2</dim>
				</port>
			</output>
		</layer>
		<layer id="110" name="shadow/Conv_6/Conv2D" type="Convolution" version="opset1">
			<data auto_pad="same_upper" dilations="1,1" pads_begin="0,0" pads_end="0,0" strides="2,1"/>
			<input>
				<port id="0">
					<dim>1</dim>
					<dim>512</dim>
					<dim>2</dim>
					<dim>30</dim>
				</port>
				<port id="1">
					<dim>512</dim>
					<dim>512</dim>
					<dim>2</dim>
					<dim>2</dim>
				</port>
			</input>
			<output>
				<port id="2" precision="FP16">
					<dim>1</dim>
					<dim>512</dim>
					<dim>1</dim>
					<dim>30</dim>
				</port>
			</output>
		</layer>
		<layer id="111" name="data_add_470647114757/EltwiseUnsqueeze4825_const134_const" type="Const" version="opset1">
			<data element_type="f16" offset="5558998" shape="1,512,1,1" size="1024"/>
			<output>
				<port id="0" precision="FP16">
					<dim>1</dim>
					<dim>512</dim>
					<dim>1</dim>
					<dim>1</dim>
				</port>
			</output>
		</layer>
		<layer id="112" name="shadow/BatchNorm_7/FusedBatchNorm/variance/Fused_Add_" type="Add" version="opset1">
			<data auto_broadcast="numpy"/>
			<input>
				<port id="0">
					<dim>1</dim>
					<dim>512</dim>
					<dim>1</dim>
					<dim>30</dim>
				</port>
				<port id="1">
					<dim>1</dim>
					<dim>512</dim>
					<dim>1</dim>
					<dim>1</dim>
				</port>
			</input>
			<output>
				<port id="2" names="shadow/BatchNorm_7/FusedBatchNorm:0" precision="FP16">
					<dim>1</dim>
					<dim>512</dim>
					<dim>1</dim>
					<dim>30</dim>
				</port>
			</output>
		</layer>
		<layer id="113" name="shadow/BatchNorm_7/Relu" type="ReLU" version="opset1">
			<input>
				<port id="0">
					<dim>1</dim>
					<dim>512</dim>
					<dim>1</dim>
					<dim>30</dim>
				</port>
			</input>
			<output>
				<port id="1" precision="FP16">
					<dim>1</dim>
					<dim>512</dim>
					<dim>1</dim>
					<dim>30</dim>
				</port>
			</output>
		</layer>
		<layer id="114" name="shadow/BatchNorm_7/Relu/Transpose/Cast_11262_const" type="Const" version="opset1">
			<data element_type="i64" offset="5560022" shape="4" size="32"/>
			<output>
				<port id="0" precision="I64">
					<dim>4</dim>
				</port>
			</output>
		</layer>
		<layer id="115" name="shadow/BatchNorm_7/Relu/Transpose" type="Transpose" version="opset1">
			<input>
				<port id="0">
					<dim>1</dim>
					<dim>512</dim>
					<dim>1</dim>
					<dim>30</dim>
				</port>
				<port id="1">
					<dim>4</dim>
				</port>
			</input>
			<output>
				<port id="2" names="shadow/BatchNorm_7/Relu:0" precision="FP16">
					<dim>1</dim>
					<dim>1</dim>
					<dim>30</dim>
					<dim>512</dim>
				</port>
			</output>
		</layer>
		<layer id="116" name="shadow/Squeeze/Dims/Output_0/Data__const139_const" type="Const" version="opset1">
			<data element_type="i64" offset="5560054" shape="1" size="8"/>
			<output>
				<port id="0" precision="I64">
					<dim>1</dim>
				</port>
			</output>
		</layer>
		<layer id="117" name="shadow/Squeeze" type="Squeeze" version="opset1">
			<input>
				<port id="0">
					<dim>1</dim>
					<dim>1</dim>
					<dim>30</dim>
					<dim>512</dim>
				</port>
				<port id="1">
					<dim>1</dim>
				</port>
			</input>
			<output>
				<port id="2" names="shadow/LSTMLayers/encoder/stack_bidirectional_rnn/cell_0/bidirectional_rnn/bw/bw/transpose:0,shadow/LSTMLayers/encoder/stack_bidirectional_rnn/cell_0/bidirectional_rnn/bw/ReverseV2:0,shadow/LSTMLayers/encoder/stack_bidirectional_rnn/cell_0/bidirectional_rnn/fw/fw/transpose:0,shadow/Squeeze:0" precision="FP16">
					<dim>1</dim>
					<dim>30</dim>
					<dim>512</dim>
				</port>
			</output>
		</layer>
		<layer id="118" name="shadow/LSTMLayers/encoder/stack_bidirectional_rnn/cell_0/bidirectional_rnn/fw/fw/while/Enter_4/Output_0/Data__const141_const" type="Const" version="opset1">
			<data element_type="f16" offset="5560062" shape="1,256" size="512"/>
			<output>
				<port id="0" names="shadow/LSTMLayers/encoder/stack_bidirectional_rnn/cell_0/bidirectional_rnn/fw/fw/while/Enter_4:0" precision="FP16">
					<dim>1</dim>
					<dim>256</dim>
				</port>
			</output>
		</layer>
		<layer id="119" name="shadow/LSTMLayers/encoder/stack_bidirectional_rnn/cell_0/bidirectional_rnn/fw/fw/while/Enter_3/Output_0/Data__const142_const" type="Const" version="opset1">
			<data element_type="f16" offset="5560062" shape="1,256" size="512"/>
			<output>
				<port id="0" names="shadow/LSTMLayers/encoder/stack_bidirectional_rnn/cell_0/bidirectional_rnn/fw/fw/while/Enter_3:0" precision="FP16">
					<dim>1</dim>
					<dim>256</dim>
				</port>
			</output>
		</layer>
		<layer id="120" name="shadow/LSTMLayers/encoder/stack_bidirectional_rnn/cell_0/bidirectional_rnn/fw/fw/while/LoopCond/TensorIteratorCondition_/TensorIterator" type="TensorIterator" version="opset1">
			<input>
				<port id="0">
					<dim>1</dim>
					<dim>30</dim>
					<dim>512</dim>
				</port>
				<port id="1">
					<dim>1</dim>
					<dim>256</dim>
				</port>
				<port id="2">
					<dim>1</dim>
					<dim>256</dim>
				</port>
			</input>
			<output>
				<port id="3" names="shadow/LSTMLayers/encoder/stack_bidirectional_rnn/cell_0/bidirectional_rnn/fw/fw/transpose_1:0,shadow/LSTMLayers/encoder/stack_bidirectional_rnn/cell_0/bidirectional_rnn/fw/fw/TensorArrayStack/TensorArrayGatherV3:0" precision="FP16">
					<dim>1</dim>
					<dim>30</dim>
					<dim>256</dim>
				</port>
			</output>
			<port_map>
				<input axis="1" external_port_id="0" internal_layer_id="0" start="0"/>
				<input external_port_id="1" internal_layer_id="3"/>
				<input external_port_id="2" internal_layer_id="4"/>
				<output axis="1" external_port_id="3" internal_layer_id="13"/>
			</port_map>
			<back_edges>
				<edge from-layer="9" to-layer="4"/>
				<edge from-layer="10" to-layer="3"/>
			</back_edges>
			<body>
				<layers>
					<layer id="0" name="32" type="Parameter" version="opset1">
						<data element_type="f16" shape="1,1,512"/>
						<output>
							<port id="0" precision="FP16">
								<dim>1</dim>
								<dim>1</dim>
								<dim>512</dim>
							</port>
						</output>
					</layer>
					<layer id="1" name="25_const16_const" type="Const" version="opset1">
						<data element_type="i64" offset="5560054" shape="1" size="8"/>
						<output>
							<port id="0" precision="I64">
								<dim>1</dim>
							</port>
						</output>
					</layer>
					<layer id="2" name="shadow/LSTMLayers/encoder/stack_bidirectional_rnn/cell_0/bidirectional_rnn/fw/fw/while/TensorArrayReadV3/Output_0/Data_/InputSqueeze" type="Squeeze" version="opset1">
						<input>
							<port id="0">
								<dim>1</dim>
								<dim>1</dim>
								<dim>512</dim>
							</port>
							<port id="1">
								<dim>1</dim>
							</port>
						</input>
						<output>
							<port id="2" names="shadow/LSTMLayers/encoder/stack_bidirectional_rnn/cell_0/bidirectional_rnn/fw/fw/while/TensorArrayReadV3:0" precision="FP16">
								<dim>1</dim>
								<dim>512</dim>
							</port>
						</output>
					</layer>
					<layer id="3" name="34" type="Parameter" version="opset1">
						<data element_type="f16" shape="1,256"/>
						<output>
							<port id="0" precision="FP16">
								<dim>1</dim>
								<dim>256</dim>
							</port>
						</output>
					</layer>
					<layer id="4" name="36" type="Parameter" version="opset1">
						<data element_type="f16" shape="1,256"/>
						<output>
							<port id="0" precision="FP16">
								<dim>1</dim>
								<dim>256</dim>
							</port>
						</output>
					</layer>
					<layer id="5" name="shadow/LSTMLayers/encoder/stack_bidirectional_rnn/cell_0/bidirectional_rnn/fw/fw/while/lstm_cell/concat/LSTMCell/Split322_const20_const" type="Const" version="opset1">
						<data element_type="f16" offset="5617704" shape="1024,512" size="1048576"/>
						<output>
							<port id="0" precision="FP16">
								<dim>1024</dim>
								<dim>512</dim>
							</port>
						</output>
					</layer>
					<layer id="6" name="shadow/LSTMLayers/encoder/stack_bidirectional_rnn/cell_0/bidirectional_rnn/fw/fw/while/lstm_cell/concat/LSTMCell/Split323_const21_const" type="Const" version="opset1">
						<data element_type="f16" offset="6666280" shape="1024,256" size="524288"/>
						<output>
							<port id="0" precision="FP16">
								<dim>1024</dim>
								<dim>256</dim>
							</port>
						</output>
					</layer>
					<layer id="7" name="shadow/LSTMLayers/encoder/stack_bidirectional_rnn/cell_0/bidirectional_rnn/fw/fw/while/lstm_cell/BiasAdd/Enter/Output_0/Data__const22_const" type="Const" version="opset1">
						<data element_type="f16" offset="7190568" shape="1024" size="2048"/>
						<output>
							<port id="0" names="shadow/LSTMLayers/encoder/stack_bidirectional_rnn/cell_0/bidirectional_rnn/fw/fw/while/lstm_cell/BiasAdd/Enter:0" precision="FP16">
								<dim>1024</dim>
							</port>
						</output>
					</layer>
					<layer id="8" name="shadow/LSTMLayers/encoder/stack_bidirectional_rnn/cell_0/bidirectional_rnn/fw/fw/while/lstm_cell/concat/LSTMCell" type="LSTMCell" version="opset4">
						<data hidden_size="256"/>
						<input>
							<port id="0">
								<dim>1</dim>
								<dim>512</dim>
							</port>
							<port id="1">
								<dim>1</dim>
								<dim>256</dim>
							</port>
							<port id="2">
								<dim>1</dim>
								<dim>256</dim>
							</port>
							<port id="3">
								<dim>1024</dim>
								<dim>512</dim>
							</port>
							<port id="4">
								<dim>1024</dim>
								<dim>256</dim>
							</port>
							<port id="5">
								<dim>1024</dim>
							</port>
						</input>
						<output>
							<port id="6" names="shadow/LSTMLayers/encoder/stack_bidirectional_rnn/cell_0/bidirectional_rnn/fw/fw/while/lstm_cell/mul_2:0" precision="FP16">
								<dim>1</dim>
								<dim>256</dim>
							</port>
							<port id="7" names="shadow/LSTMLayers/encoder/stack_bidirectional_rnn/cell_0/bidirectional_rnn/fw/fw/while/lstm_cell/add_1:0" precision="FP16">
								<dim>1</dim>
								<dim>256</dim>
							</port>
						</output>
					</layer>
					<layer id="9" name="shadow/LSTMLayers/encoder/stack_bidirectional_rnn/cell_0/bidirectional_rnn/fw/fw/while/lstm_cell/concat/LSTMCell/Output_1/Data_/sink_port_0" type="Result" version="opset1">
						<input>
							<port id="0">
								<dim>1</dim>
								<dim>256</dim>
							</port>
						</input>
					</layer>
					<layer id="10" name="shadow/LSTMLayers/encoder/stack_bidirectional_rnn/cell_0/bidirectional_rnn/fw/fw/while/lstm_cell/concat/LSTMCell/Output_0/Data_/sink_port_0" type="Result" version="opset1">
						<input>
							<port id="0">
								<dim>1</dim>
								<dim>256</dim>
							</port>
						</input>
					</layer>
					<layer id="11" name="28_const25_const" type="Const" version="opset1">
						<data element_type="i64" offset="5560054" shape="1" size="8"/>
						<output>
							<port id="0" precision="I64">
								<dim>1</dim>
							</port>
						</output>
					</layer>
					<layer id="12" name="shadow/LSTMLayers/encoder/stack_bidirectional_rnn/cell_0/bidirectional_rnn/fw/fw/while/lstm_cell/concat/LSTMCell/Output_0/Data_/OutputUnsqueeze" type="Unsqueeze" version="opset1">
						<input>
							<port id="0">
								<dim>1</dim>
								<dim>256</dim>
							</port>
							<port id="1">
								<dim>1</dim>
							</port>
						</input>
						<output>
							<port id="2" precision="FP16">
								<dim>1</dim>
								<dim>1</dim>
								<dim>256</dim>
							</port>
						</output>
					</layer>
					<layer id="13" name="30/sink_port_0" type="Result" version="opset1">
						<input>
							<port id="0">
								<dim>1</dim>
								<dim>1</dim>
								<dim>256</dim>
							</port>
						</input>
					</layer>
				</layers>
				<edges>
					<edge from-layer="0" from-port="0" to-layer="2" to-port="0"/>
					<edge from-layer="1" from-port="0" to-layer="2" to-port="1"/>
					<edge from-layer="2" from-port="2" to-layer="8" to-port="0"/>
					<edge from-layer="3" from-port="0" to-layer="8" to-port="1"/>
					<edge from-layer="4" from-port="0" to-layer="8" to-port="2"/>
					<edge from-layer="5" from-port="0" to-layer="8" to-port="3"/>
					<edge from-layer="6" from-port="0" to-layer="8" to-port="4"/>
					<edge from-layer="7" from-port="0" to-layer="8" to-port="5"/>
					<edge from-layer="8" from-port="7" to-layer="9" to-port="0"/>
					<edge from-layer="8" from-port="6" to-layer="10" to-port="0"/>
					<edge from-layer="8" from-port="6" to-layer="12" to-port="0"/>
					<edge from-layer="11" from-port="0" to-layer="12" to-port="1"/>
					<edge from-layer="12" from-port="2" to-layer="13" to-port="0"/>
				</edges>
			</body>
		</layer>
		<layer id="121" name="shadow/LSTMLayers/encoder/stack_bidirectional_rnn/cell_0/bidirectional_rnn/bw/bw/while/Enter_4/Output_0/Data__const144_const" type="Const" version="opset1">
			<data element_type="f16" offset="5560062" shape="1,256" size="512"/>
			<output>
				<port id="0" names="shadow/LSTMLayers/encoder/stack_bidirectional_rnn/cell_0/bidirectional_rnn/bw/bw/while/Enter_4:0" precision="FP16">
					<dim>1</dim>
					<dim>256</dim>
				</port>
			</output>
		</layer>
		<layer id="122" name="shadow/LSTMLayers/encoder/stack_bidirectional_rnn/cell_0/bidirectional_rnn/bw/bw/while/Enter_3/Output_0/Data__const145_const" type="Const" version="opset1">
			<data element_type="f16" offset="5560062" shape="1,256" size="512"/>
			<output>
				<port id="0" names="shadow/LSTMLayers/encoder/stack_bidirectional_rnn/cell_0/bidirectional_rnn/bw/bw/while/Enter_3:0" precision="FP16">
					<dim>1</dim>
					<dim>256</dim>
				</port>
			</output>
		</layer>
		<layer id="123" name="shadow/LSTMLayers/encoder/stack_bidirectional_rnn/cell_0/bidirectional_rnn/bw/bw/while/LoopCond/TensorIteratorCondition_/TensorIterator" type="TensorIterator" version="opset1">
			<input>
				<port id="0">
					<dim>1</dim>
					<dim>30</dim>
					<dim>512</dim>
				</port>
				<port id="1">
					<dim>1</dim>
					<dim>256</dim>
				</port>
				<port id="2">
					<dim>1</dim>
					<dim>256</dim>
				</port>
			</input>
			<output>
				<port id="3" names="shadow/LSTMLayers/encoder/stack_bidirectional_rnn/cell_0/ReverseV2:0,shadow/LSTMLayers/encoder/stack_bidirectional_rnn/cell_0/bidirectional_rnn/bw/bw/transpose_1:0,shadow/LSTMLayers/encoder/stack_bidirectional_rnn/cell_0/bidirectional_rnn/bw/bw/TensorArrayStack/TensorArrayGatherV3:0" precision="FP16">
					<dim>1</dim>
					<dim>30</dim>
					<dim>256</dim>
				</port>
			</output>
			<port_map>
				<input axis="1" end="0" external_port_id="0" internal_layer_id="0" start="-1" stride="-1"/>
				<input external_port_id="1" internal_layer_id="3"/>
				<input external_port_id="2" internal_layer_id="4"/>
				<output axis="1" end="0" external_port_id="3" internal_layer_id="13" start="-1" stride="-1"/>
			</port_map>
			<back_edges>
				<edge from-layer="9" to-layer="4"/>
				<edge from-layer="10" to-layer="3"/>
			</back_edges>
			<body>
				<layers>
					<layer id="0" name="32" type="Parameter" version="opset1">
						<data element_type="f16" shape="1,1,512"/>
						<output>
							<port id="0" precision="FP16">
								<dim>1</dim>
								<dim>1</dim>
								<dim>512</dim>
							</port>
						</output>
					</layer>
					<layer id="1" name="25_const16_const" type="Const" version="opset1">
						<data element_type="i64" offset="5560054" shape="1" size="8"/>
						<output>
							<port id="0" precision="I64">
								<dim>1</dim>
							</port>
						</output>
					</layer>
					<layer id="2" name="shadow/LSTMLayers/encoder/stack_bidirectional_rnn/cell_0/bidirectional_rnn/bw/bw/while/TensorArrayReadV3/Output_0/Data_/InputSqueeze" type="Squeeze" version="opset1">
						<input>
							<port id="0">
								<dim>1</dim>
								<dim>1</dim>
								<dim>512</dim>
							</port>
							<port id="1">
								<dim>1</dim>
							</port>
						</input>
						<output>
							<port id="2" names="shadow/LSTMLayers/encoder/stack_bidirectional_rnn/cell_0/bidirectional_rnn/bw/bw/while/TensorArrayReadV3:0" precision="FP16">
								<dim>1</dim>
								<dim>512</dim>
							</port>
						</output>
					</layer>
					<layer id="3" name="34" type="Parameter" version="opset1">
						<data element_type="f16" shape="1,256"/>
						<output>
							<port id="0" precision="FP16">
								<dim>1</dim>
								<dim>256</dim>
							</port>
						</output>
					</layer>
					<layer id="4" name="36" type="Parameter" version="opset1">
						<data element_type="f16" shape="1,256"/>
						<output>
							<port id="0" precision="FP16">
								<dim>1</dim>
								<dim>256</dim>
							</port>
						</output>
					</layer>
					<layer id="5" name="shadow/LSTMLayers/encoder/stack_bidirectional_rnn/cell_0/bidirectional_rnn/bw/bw/while/lstm_cell/concat/LSTMCell/Split322_const20_const" type="Const" version="opset1">
						<data element_type="f16" offset="7192616" shape="1024,512" size="1048576"/>
						<output>
							<port id="0" precision="FP16">
								<dim>1024</dim>
								<dim>512</dim>
							</port>
						</output>
					</layer>
					<layer id="6" name="shadow/LSTMLayers/encoder/stack_bidirectional_rnn/cell_0/bidirectional_rnn/bw/bw/while/lstm_cell/concat/LSTMCell/Split323_const21_const" type="Const" version="opset1">
						<data element_type="f16" offset="8241192" shape="1024,256" size="524288"/>
						<output>
							<port id="0" precision="FP16">
								<dim>1024</dim>
								<dim>256</dim>
							</port>
						</output>
					</layer>
					<layer id="7" name="shadow/LSTMLayers/encoder/stack_bidirectional_rnn/cell_0/bidirectional_rnn/bw/bw/while/lstm_cell/BiasAdd/Enter/Output_0/Data__const22_const" type="Const" version="opset1">
						<data element_type="f16" offset="8765480" shape="1024" size="2048"/>
						<output>
							<port id="0" names="shadow/LSTMLayers/encoder/stack_bidirectional_rnn/cell_0/bidirectional_rnn/bw/bw/while/lstm_cell/BiasAdd/Enter:0" precision="FP16">
								<dim>1024</dim>
							</port>
						</output>
					</layer>
					<layer id="8" name="shadow/LSTMLayers/encoder/stack_bidirectional_rnn/cell_0/bidirectional_rnn/bw/bw/while/lstm_cell/concat/LSTMCell" type="LSTMCell" version="opset4">
						<data hidden_size="256"/>
						<input>
							<port id="0">
								<dim>1</dim>
								<dim>512</dim>
							</port>
							<port id="1">
								<dim>1</dim>
								<dim>256</dim>
							</port>
							<port id="2">
								<dim>1</dim>
								<dim>256</dim>
							</port>
							<port id="3">
								<dim>1024</dim>
								<dim>512</dim>
							</port>
							<port id="4">
								<dim>1024</dim>
								<dim>256</dim>
							</port>
							<port id="5">
								<dim>1024</dim>
							</port>
						</input>
						<output>
							<port id="6" names="shadow/LSTMLayers/encoder/stack_bidirectional_rnn/cell_0/bidirectional_rnn/bw/bw/while/lstm_cell/mul_2:0" precision="FP16">
								<dim>1</dim>
								<dim>256</dim>
							</port>
							<port id="7" names="shadow/LSTMLayers/encoder/stack_bidirectional_rnn/cell_0/bidirectional_rnn/bw/bw/while/lstm_cell/add_1:0" precision="FP16">
								<dim>1</dim>
								<dim>256</dim>
							</port>
						</output>
					</layer>
					<layer id="9" name="shadow/LSTMLayers/encoder/stack_bidirectional_rnn/cell_0/bidirectional_rnn/bw/bw/while/lstm_cell/concat/LSTMCell/Output_1/Data_/sink_port_0" type="Result" version="opset1">
						<input>
							<port id="0">
								<dim>1</dim>
								<dim>256</dim>
							</port>
						</input>
					</layer>
					<layer id="10" name="shadow/LSTMLayers/encoder/stack_bidirectional_rnn/cell_0/bidirectional_rnn/bw/bw/while/lstm_cell/concat/LSTMCell/Output_0/Data_/sink_port_0" type="Result" version="opset1">
						<input>
							<port id="0">
								<dim>1</dim>
								<dim>256</dim>
							</port>
						</input>
					</layer>
					<layer id="11" name="28_const25_const" type="Const" version="opset1">
						<data element_type="i64" offset="5560054" shape="1" size="8"/>
						<output>
							<port id="0" precision="I64">
								<dim>1</dim>
							</port>
						</output>
					</layer>
					<layer id="12" name="shadow/LSTMLayers/encoder/stack_bidirectional_rnn/cell_0/bidirectional_rnn/bw/bw/while/lstm_cell/concat/LSTMCell/Output_0/Data_/OutputUnsqueeze" type="Unsqueeze" version="opset1">
						<input>
							<port id="0">
								<dim>1</dim>
								<dim>256</dim>
							</port>
							<port id="1">
								<dim>1</dim>
							</port>
						</input>
						<output>
							<port id="2" precision="FP16">
								<dim>1</dim>
								<dim>1</dim>
								<dim>256</dim>
							</port>
						</output>
					</layer>
					<layer id="13" name="30/sink_port_0" type="Result" version="opset1">
						<input>
							<port id="0">
								<dim>1</dim>
								<dim>1</dim>
								<dim>256</dim>
							</port>
						</input>
					</layer>
				</layers>
				<edges>
					<edge from-layer="0" from-port="0" to-layer="2" to-port="0"/>
					<edge from-layer="1" from-port="0" to-layer="2" to-port="1"/>
					<edge from-layer="2" from-port="2" to-layer="8" to-port="0"/>
					<edge from-layer="3" from-port="0" to-layer="8" to-port="1"/>
					<edge from-layer="4" from-port="0" to-layer="8" to-port="2"/>
					<edge from-layer="5" from-port="0" to-layer="8" to-port="3"/>
					<edge from-layer="6" from-port="0" to-layer="8" to-port="4"/>
					<edge from-layer="7" from-port="0" to-layer="8" to-port="5"/>
					<edge from-layer="8" from-port="7" to-layer="9" to-port="0"/>
					<edge from-layer="8" from-port="6" to-layer="10" to-port="0"/>
					<edge from-layer="8" from-port="6" to-layer="12" to-port="0"/>
					<edge from-layer="11" from-port="0" to-layer="12" to-port="1"/>
					<edge from-layer="12" from-port="2" to-layer="13" to-port="0"/>
				</edges>
			</body>
		</layer>
		<layer id="124" name="shadow/LSTMLayers/encoder/stack_bidirectional_rnn/cell_0/concat" type="Concat" version="opset1">
			<data axis="2"/>
			<input>
				<port id="0">
					<dim>1</dim>
					<dim>30</dim>
					<dim>256</dim>
				</port>
				<port id="1">
					<dim>1</dim>
					<dim>30</dim>
					<dim>256</dim>
				</port>
			</input>
			<output>
				<port id="2" names="shadow/LSTMLayers/encoder/stack_bidirectional_rnn/cell_1/bidirectional_rnn/bw/bw/transpose:0,shadow/LSTMLayers/encoder/stack_bidirectional_rnn/cell_1/bidirectional_rnn/bw/ReverseV2:0,shadow/LSTMLayers/encoder/stack_bidirectional_rnn/cell_1/bidirectional_rnn/fw/fw/transpose:0,shadow/LSTMLayers/encoder/stack_bidirectional_rnn/cell_0/concat:0" precision="FP16">
					<dim>1</dim>
					<dim>30</dim>
					<dim>512</dim>
				</port>
			</output>
		</layer>
		<layer id="125" name="shadow/LSTMLayers/encoder/stack_bidirectional_rnn/cell_1/bidirectional_rnn/fw/fw/while/Enter_4/Output_0/Data__const148_const" type="Const" version="opset1">
			<data element_type="f16" offset="5560062" shape="1,256" size="512"/>
			<output>
				<port id="0" names="shadow/LSTMLayers/encoder/stack_bidirectional_rnn/cell_1/bidirectional_rnn/fw/fw/while/Enter_4:0" precision="FP16">
					<dim>1</dim>
					<dim>256</dim>
				</port>
			</output>
		</layer>
		<layer id="126" name="shadow/LSTMLayers/encoder/stack_bidirectional_rnn/cell_1/bidirectional_rnn/fw/fw/while/Enter_3/Output_0/Data__const149_const" type="Const" version="opset1">
			<data element_type="f16" offset="5560062" shape="1,256" size="512"/>
			<output>
				<port id="0" names="shadow/LSTMLayers/encoder/stack_bidirectional_rnn/cell_1/bidirectional_rnn/fw/fw/while/Enter_3:0" precision="FP16">
					<dim>1</dim>
					<dim>256</dim>
				</port>
			</output>
		</layer>
		<layer id="127" name="shadow/LSTMLayers/encoder/stack_bidirectional_rnn/cell_1/bidirectional_rnn/fw/fw/while/LoopCond/TensorIteratorCondition_/TensorIterator" type="TensorIterator" version="opset1">
			<input>
				<port id="0">
					<dim>1</dim>
					<dim>30</dim>
					<dim>512</dim>
				</port>
				<port id="1">
					<dim>1</dim>
					<dim>256</dim>
				</port>
				<port id="2">
					<dim>1</dim>
					<dim>256</dim>
				</port>
			</input>
			<output>
				<port id="3" names="shadow/LSTMLayers/encoder/stack_bidirectional_rnn/cell_1/bidirectional_rnn/fw/fw/transpose_1:0,shadow/LSTMLayers/encoder/stack_bidirectional_rnn/cell_1/bidirectional_rnn/fw/fw/TensorArrayStack/TensorArrayGatherV3:0" precision="FP16">
					<dim>1</dim>
					<dim>30</dim>
					<dim>256</dim>
				</port>
			</output>
			<port_map>
				<input axis="1" external_port_id="0" internal_layer_id="0" start="0"/>
				<input external_port_id="1" internal_layer_id="3"/>
				<input external_port_id="2" internal_layer_id="4"/>
				<output axis="1" external_port_id="3" internal_layer_id="13"/>
			</port_map>
			<back_edges>
				<edge from-layer="9" to-layer="4"/>
				<edge from-layer="10" to-layer="3"/>
			</back_edges>
			<body>
				<layers>
					<layer id="0" name="32" type="Parameter" version="opset1">
						<data element_type="f16" shape="1,1,512"/>
						<output>
							<port id="0" precision="FP16">
								<dim>1</dim>
								<dim>1</dim>
								<dim>512</dim>
							</port>
						</output>
					</layer>
					<layer id="1" name="25_const16_const" type="Const" version="opset1">
						<data element_type="i64" offset="5560054" shape="1" size="8"/>
						<output>
							<port id="0" precision="I64">
								<dim>1</dim>
							</port>
						</output>
					</layer>
					<layer id="2" name="shadow/LSTMLayers/encoder/stack_bidirectional_rnn/cell_1/bidirectional_rnn/fw/fw/while/TensorArrayReadV3/Output_0/Data_/InputSqueeze" type="Squeeze" version="opset1">
						<input>
							<port id="0">
								<dim>1</dim>
								<dim>1</dim>
								<dim>512</dim>
							</port>
							<port id="1">
								<dim>1</dim>
							</port>
						</input>
						<output>
							<port id="2" names="shadow/LSTMLayers/encoder/stack_bidirectional_rnn/cell_1/bidirectional_rnn/fw/fw/while/TensorArrayReadV3:0" precision="FP16">
								<dim>1</dim>
								<dim>512</dim>
							</port>
						</output>
					</layer>
					<layer id="3" name="34" type="Parameter" version="opset1">
						<data element_type="f16" shape="1,256"/>
						<output>
							<port id="0" precision="FP16">
								<dim>1</dim>
								<dim>256</dim>
							</port>
						</output>
					</layer>
					<layer id="4" name="36" type="Parameter" version="opset1">
						<data element_type="f16" shape="1,256"/>
						<output>
							<port id="0" precision="FP16">
								<dim>1</dim>
								<dim>256</dim>
							</port>
						</output>
					</layer>
					<layer id="5" name="shadow/LSTMLayers/encoder/stack_bidirectional_rnn/cell_1/bidirectional_rnn/fw/fw/while/lstm_cell/concat/LSTMCell/Split322_const20_const" type="Const" version="opset1">
						<data element_type="f16" offset="8767528" shape="1024,512" size="1048576"/>
						<output>
							<port id="0" precision="FP16">
								<dim>1024</dim>
								<dim>512</dim>
							</port>
						</output>
					</layer>
					<layer id="6" name="shadow/LSTMLayers/encoder/stack_bidirectional_rnn/cell_1/bidirectional_rnn/fw/fw/while/lstm_cell/concat/LSTMCell/Split323_const21_const" type="Const" version="opset1">
						<data element_type="f16" offset="9816104" shape="1024,256" size="524288"/>
						<output>
							<port id="0" precision="FP16">
								<dim>1024</dim>
								<dim>256</dim>
							</port>
						</output>
					</layer>
					<layer id="7" name="shadow/LSTMLayers/encoder/stack_bidirectional_rnn/cell_1/bidirectional_rnn/fw/fw/while/lstm_cell/BiasAdd/Enter/Output_0/Data__const22_const" type="Const" version="opset1">
						<data element_type="f16" offset="10340392" shape="1024" size="2048"/>
						<output>
							<port id="0" names="shadow/LSTMLayers/encoder/stack_bidirectional_rnn/cell_1/bidirectional_rnn/fw/fw/while/lstm_cell/BiasAdd/Enter:0" precision="FP16">
								<dim>1024</dim>
							</port>
						</output>
					</layer>
					<layer id="8" name="shadow/LSTMLayers/encoder/stack_bidirectional_rnn/cell_1/bidirectional_rnn/fw/fw/while/lstm_cell/concat/LSTMCell" type="LSTMCell" version="opset4">
						<data hidden_size="256"/>
						<input>
							<port id="0">
								<dim>1</dim>
								<dim>512</dim>
							</port>
							<port id="1">
								<dim>1</dim>
								<dim>256</dim>
							</port>
							<port id="2">
								<dim>1</dim>
								<dim>256</dim>
							</port>
							<port id="3">
								<dim>1024</dim>
								<dim>512</dim>
							</port>
							<port id="4">
								<dim>1024</dim>
								<dim>256</dim>
							</port>
							<port id="5">
								<dim>1024</dim>
							</port>
						</input>
						<output>
							<port id="6" names="shadow/LSTMLayers/encoder/stack_bidirectional_rnn/cell_1/bidirectional_rnn/fw/fw/while/lstm_cell/mul_2:0" precision="FP16">
								<dim>1</dim>
								<dim>256</dim>
							</port>
							<port id="7" names="shadow/LSTMLayers/encoder/stack_bidirectional_rnn/cell_1/bidirectional_rnn/fw/fw/while/lstm_cell/add_1:0" precision="FP16">
								<dim>1</dim>
								<dim>256</dim>
							</port>
						</output>
					</layer>
					<layer id="9" name="shadow/LSTMLayers/encoder/stack_bidirectional_rnn/cell_1/bidirectional_rnn/fw/fw/while/lstm_cell/concat/LSTMCell/Output_1/Data_/sink_port_0" type="Result" version="opset1">
						<input>
							<port id="0">
								<dim>1</dim>
								<dim>256</dim>
							</port>
						</input>
					</layer>
					<layer id="10" name="shadow/LSTMLayers/encoder/stack_bidirectional_rnn/cell_1/bidirectional_rnn/fw/fw/while/lstm_cell/concat/LSTMCell/Output_0/Data_/sink_port_0" type="Result" version="opset1">
						<input>
							<port id="0">
								<dim>1</dim>
								<dim>256</dim>
							</port>
						</input>
					</layer>
					<layer id="11" name="28_const25_const" type="Const" version="opset1">
						<data element_type="i64" offset="5560054" shape="1" size="8"/>
						<output>
							<port id="0" precision="I64">
								<dim>1</dim>
							</port>
						</output>
					</layer>
					<layer id="12" name="shadow/LSTMLayers/encoder/stack_bidirectional_rnn/cell_1/bidirectional_rnn/fw/fw/while/lstm_cell/concat/LSTMCell/Output_0/Data_/OutputUnsqueeze" type="Unsqueeze" version="opset1">
						<input>
							<port id="0">
								<dim>1</dim>
								<dim>256</dim>
							</port>
							<port id="1">
								<dim>1</dim>
							</port>
						</input>
						<output>
							<port id="2" precision="FP16">
								<dim>1</dim>
								<dim>1</dim>
								<dim>256</dim>
							</port>
						</output>
					</layer>
					<layer id="13" name="30/sink_port_0" type="Result" version="opset1">
						<input>
							<port id="0">
								<dim>1</dim>
								<dim>1</dim>
								<dim>256</dim>
							</port>
						</input>
					</layer>
				</layers>
				<edges>
					<edge from-layer="0" from-port="0" to-layer="2" to-port="0"/>
					<edge from-layer="1" from-port="0" to-layer="2" to-port="1"/>
					<edge from-layer="2" from-port="2" to-layer="8" to-port="0"/>
					<edge from-layer="3" from-port="0" to-layer="8" to-port="1"/>
					<edge from-layer="4" from-port="0" to-layer="8" to-port="2"/>
					<edge from-layer="5" from-port="0" to-layer="8" to-port="3"/>
					<edge from-layer="6" from-port="0" to-layer="8" to-port="4"/>
					<edge from-layer="7" from-port="0" to-layer="8" to-port="5"/>
					<edge from-layer="8" from-port="7" to-layer="9" to-port="0"/>
					<edge from-layer="8" from-port="6" to-layer="10" to-port="0"/>
					<edge from-layer="8" from-port="6" to-layer="12" to-port="0"/>
					<edge from-layer="11" from-port="0" to-layer="12" to-port="1"/>
					<edge from-layer="12" from-port="2" to-layer="13" to-port="0"/>
				</edges>
			</body>
		</layer>
		<layer id="128" name="shadow/LSTMLayers/encoder/stack_bidirectional_rnn/cell_1/bidirectional_rnn/bw/bw/while/Enter_4/Output_0/Data__const151_const" type="Const" version="opset1">
			<data element_type="f16" offset="5560062" shape="1,256" size="512"/>
			<output>
				<port id="0" names="shadow/LSTMLayers/encoder/stack_bidirectional_rnn/cell_1/bidirectional_rnn/bw/bw/while/Enter_4:0" precision="FP16">
					<dim>1</dim>
					<dim>256</dim>
				</port>
			</output>
		</layer>
		<layer id="129" name="shadow/LSTMLayers/encoder/stack_bidirectional_rnn/cell_1/bidirectional_rnn/bw/bw/while/Enter_3/Output_0/Data__const152_const" type="Const" version="opset1">
			<data element_type="f16" offset="5560062" shape="1,256" size="512"/>
			<output>
				<port id="0" names="shadow/LSTMLayers/encoder/stack_bidirectional_rnn/cell_1/bidirectional_rnn/bw/bw/while/Enter_3:0" precision="FP16">
					<dim>1</dim>
					<dim>256</dim>
				</port>
			</output>
		</layer>
		<layer id="130" name="shadow/LSTMLayers/encoder/stack_bidirectional_rnn/cell_1/bidirectional_rnn/bw/bw/while/LoopCond/TensorIteratorCondition_/TensorIterator" type="TensorIterator" version="opset1">
			<input>
				<port id="0">
					<dim>1</dim>
					<dim>30</dim>
					<dim>512</dim>
				</port>
				<port id="1">
					<dim>1</dim>
					<dim>256</dim>
				</port>
				<port id="2">
					<dim>1</dim>
					<dim>256</dim>
				</port>
			</input>
			<output>
				<port id="3" names="shadow/LSTMLayers/encoder/stack_bidirectional_rnn/cell_1/ReverseV2:0,shadow/LSTMLayers/encoder/stack_bidirectional_rnn/cell_1/bidirectional_rnn/bw/bw/transpose_1:0,shadow/LSTMLayers/encoder/stack_bidirectional_rnn/cell_1/bidirectional_rnn/bw/bw/TensorArrayStack/TensorArrayGatherV3:0" precision="FP16">
					<dim>1</dim>
					<dim>30</dim>
					<dim>256</dim>
				</port>
			</output>
			<port_map>
				<input axis="1" end="0" external_port_id="0" internal_layer_id="0" start="-1" stride="-1"/>
				<input external_port_id="1" internal_layer_id="3"/>
				<input external_port_id="2" internal_layer_id="4"/>
				<output axis="1" end="0" external_port_id="3" internal_layer_id="13" start="-1" stride="-1"/>
			</port_map>
			<back_edges>
				<edge from-layer="9" to-layer="4"/>
				<edge from-layer="10" to-layer="3"/>
			</back_edges>
			<body>
				<layers>
					<layer id="0" name="32" type="Parameter" version="opset1">
						<data element_type="f16" shape="1,1,512"/>
						<output>
							<port id="0" precision="FP16">
								<dim>1</dim>
								<dim>1</dim>
								<dim>512</dim>
							</port>
						</output>
					</layer>
					<layer id="1" name="25_const16_const" type="Const" version="opset1">
						<data element_type="i64" offset="5560054" shape="1" size="8"/>
						<output>
							<port id="0" precision="I64">
								<dim>1</dim>
							</port>
						</output>
					</layer>
					<layer id="2" name="shadow/LSTMLayers/encoder/stack_bidirectional_rnn/cell_1/bidirectional_rnn/bw/bw/while/TensorArrayReadV3/Output_0/Data_/InputSqueeze" type="Squeeze" version="opset1">
						<input>
							<port id="0">
								<dim>1</dim>
								<dim>1</dim>
								<dim>512</dim>
							</port>
							<port id="1">
								<dim>1</dim>
							</port>
						</input>
						<output>
							<port id="2" names="shadow/LSTMLayers/encoder/stack_bidirectional_rnn/cell_1/bidirectional_rnn/bw/bw/while/TensorArrayReadV3:0" precision="FP16">
								<dim>1</dim>
								<dim>512</dim>
							</port>
						</output>
					</layer>
					<layer id="3" name="34" type="Parameter" version="opset1">
						<data element_type="f16" shape="1,256"/>
						<output>
							<port id="0" precision="FP16">
								<dim>1</dim>
								<dim>256</dim>
							</port>
						</output>
					</layer>
					<layer id="4" name="36" type="Parameter" version="opset1">
						<data element_type="f16" shape="1,256"/>
						<output>
							<port id="0" precision="FP16">
								<dim>1</dim>
								<dim>256</dim>
							</port>
						</output>
					</layer>
					<layer id="5" name="shadow/LSTMLayers/encoder/stack_bidirectional_rnn/cell_1/bidirectional_rnn/bw/bw/while/lstm_cell/concat/LSTMCell/Split322_const20_const" type="Const" version="opset1">
						<data element_type="f16" offset="10342440" shape="1024,512" size="1048576"/>
						<output>
							<port id="0" precision="FP16">
								<dim>1024</dim>
								<dim>512</dim>
							</port>
						</output>
					</layer>
					<layer id="6" name="shadow/LSTMLayers/encoder/stack_bidirectional_rnn/cell_1/bidirectional_rnn/bw/bw/while/lstm_cell/concat/LSTMCell/Split323_const21_const" type="Const" version="opset1">
						<data element_type="f16" offset="11391016" shape="1024,256" size="524288"/>
						<output>
							<port id="0" precision="FP16">
								<dim>1024</dim>
								<dim>256</dim>
							</port>
						</output>
					</layer>
					<layer id="7" name="shadow/LSTMLayers/encoder/stack_bidirectional_rnn/cell_1/bidirectional_rnn/bw/bw/while/lstm_cell/BiasAdd/Enter/Output_0/Data__const22_const" type="Const" version="opset1">
						<data element_type="f16" offset="11915304" shape="1024" size="2048"/>
						<output>
							<port id="0" names="shadow/LSTMLayers/encoder/stack_bidirectional_rnn/cell_1/bidirectional_rnn/bw/bw/while/lstm_cell/BiasAdd/Enter:0" precision="FP16">
								<dim>1024</dim>
							</port>
						</output>
					</layer>
					<layer id="8" name="shadow/LSTMLayers/encoder/stack_bidirectional_rnn/cell_1/bidirectional_rnn/bw/bw/while/lstm_cell/concat/LSTMCell" type="LSTMCell" version="opset4">
						<data hidden_size="256"/>
						<input>
							<port id="0">
								<dim>1</dim>
								<dim>512</dim>
							</port>
							<port id="1">
								<dim>1</dim>
								<dim>256</dim>
							</port>
							<port id="2">
								<dim>1</dim>
								<dim>256</dim>
							</port>
							<port id="3">
								<dim>1024</dim>
								<dim>512</dim>
							</port>
							<port id="4">
								<dim>1024</dim>
								<dim>256</dim>
							</port>
							<port id="5">
								<dim>1024</dim>
							</port>
						</input>
						<output>
							<port id="6" names="shadow/LSTMLayers/encoder/stack_bidirectional_rnn/cell_1/bidirectional_rnn/bw/bw/while/lstm_cell/mul_2:0" precision="FP16">
								<dim>1</dim>
								<dim>256</dim>
							</port>
							<port id="7" names="shadow/LSTMLayers/encoder/stack_bidirectional_rnn/cell_1/bidirectional_rnn/bw/bw/while/lstm_cell/add_1:0" precision="FP16">
								<dim>1</dim>
								<dim>256</dim>
							</port>
						</output>
					</layer>
					<layer id="9" name="shadow/LSTMLayers/encoder/stack_bidirectional_rnn/cell_1/bidirectional_rnn/bw/bw/while/lstm_cell/concat/LSTMCell/Output_1/Data_/sink_port_0" type="Result" version="opset1">
						<input>
							<port id="0">
								<dim>1</dim>
								<dim>256</dim>
							</port>
						</input>
					</layer>
					<layer id="10" name="shadow/LSTMLayers/encoder/stack_bidirectional_rnn/cell_1/bidirectional_rnn/bw/bw/while/lstm_cell/concat/LSTMCell/Output_0/Data_/sink_port_0" type="Result" version="opset1">
						<input>
							<port id="0">
								<dim>1</dim>
								<dim>256</dim>
							</port>
						</input>
					</layer>
					<layer id="11" name="28_const25_const" type="Const" version="opset1">
						<data element_type="i64" offset="5560054" shape="1" size="8"/>
						<output>
							<port id="0" precision="I64">
								<dim>1</dim>
							</port>
						</output>
					</layer>
					<layer id="12" name="shadow/LSTMLayers/encoder/stack_bidirectional_rnn/cell_1/bidirectional_rnn/bw/bw/while/lstm_cell/concat/LSTMCell/Output_0/Data_/OutputUnsqueeze" type="Unsqueeze" version="opset1">
						<input>
							<port id="0">
								<dim>1</dim>
								<dim>256</dim>
							</port>
							<port id="1">
								<dim>1</dim>
							</port>
						</input>
						<output>
							<port id="2" precision="FP16">
								<dim>1</dim>
								<dim>1</dim>
								<dim>256</dim>
							</port>
						</output>
					</layer>
					<layer id="13" name="30/sink_port_0" type="Result" version="opset1">
						<input>
							<port id="0">
								<dim>1</dim>
								<dim>1</dim>
								<dim>256</dim>
							</port>
						</input>
					</layer>
				</layers>
				<edges>
					<edge from-layer="0" from-port="0" to-layer="2" to-port="0"/>
					<edge from-layer="1" from-port="0" to-layer="2" to-port="1"/>
					<edge from-layer="2" from-port="2" to-layer="8" to-port="0"/>
					<edge from-layer="3" from-port="0" to-layer="8" to-port="1"/>
					<edge from-layer="4" from-port="0" to-layer="8" to-port="2"/>
					<edge from-layer="5" from-port="0" to-layer="8" to-port="3"/>
					<edge from-layer="6" from-port="0" to-layer="8" to-port="4"/>
					<edge from-layer="7" from-port="0" to-layer="8" to-port="5"/>
					<edge from-layer="8" from-port="7" to-layer="9" to-port="0"/>
					<edge from-layer="8" from-port="6" to-layer="10" to-port="0"/>
					<edge from-layer="8" from-port="6" to-layer="12" to-port="0"/>
					<edge from-layer="11" from-port="0" to-layer="12" to-port="1"/>
					<edge from-layer="12" from-port="2" to-layer="13" to-port="0"/>
				</edges>
			</body>
		</layer>
		<layer id="131" name="shadow/LSTMLayers/encoder/stack_bidirectional_rnn/cell_1/concat" type="Concat" version="opset1">
			<data axis="2"/>
			<input>
				<port id="0">
					<dim>1</dim>
					<dim>30</dim>
					<dim>256</dim>
				</port>
				<port id="1">
					<dim>1</dim>
					<dim>30</dim>
					<dim>256</dim>
				</port>
			</input>
			<output>
				<port id="2" names="shadow/LSTMLayers/decoder/stack_bidirectional_rnn/cell_0/bidirectional_rnn/bw/bw/transpose:0,shadow/LSTMLayers/decoder/stack_bidirectional_rnn/cell_0/bidirectional_rnn/bw/ReverseV2:0,shadow/LSTMLayers/decoder/stack_bidirectional_rnn/cell_0/bidirectional_rnn/fw/fw/transpose:0,shadow/LSTMLayers/encoder/dropout/Identity:0,shadow/LSTMLayers/encoder/stack_bidirectional_rnn/cell_1/concat:0" precision="FP16">
					<dim>1</dim>
					<dim>30</dim>
					<dim>512</dim>
				</port>
			</output>
		</layer>
		<layer id="132" name="shadow/LSTMLayers/decoder/stack_bidirectional_rnn/cell_0/bidirectional_rnn/fw/fw/while/Enter_4/Output_0/Data__const155_const" type="Const" version="opset1">
			<data element_type="f16" offset="5560062" shape="1,256" size="512"/>
			<output>
				<port id="0" names="shadow/LSTMLayers/decoder/stack_bidirectional_rnn/cell_0/bidirectional_rnn/fw/fw/while/Enter_4:0" precision="FP16">
					<dim>1</dim>
					<dim>256</dim>
				</port>
			</output>
		</layer>
		<layer id="133" name="shadow/LSTMLayers/decoder/stack_bidirectional_rnn/cell_0/bidirectional_rnn/fw/fw/while/Enter_3/Output_0/Data__const156_const" type="Const" version="opset1">
			<data element_type="f16" offset="5560062" shape="1,256" size="512"/>
			<output>
				<port id="0" names="shadow/LSTMLayers/decoder/stack_bidirectional_rnn/cell_0/bidirectional_rnn/fw/fw/while/Enter_3:0" precision="FP16">
					<dim>1</dim>
					<dim>256</dim>
				</port>
			</output>
		</layer>
		<layer id="134" name="shadow/LSTMLayers/decoder/stack_bidirectional_rnn/cell_0/bidirectional_rnn/fw/fw/while/LoopCond/TensorIteratorCondition_/TensorIterator" type="TensorIterator" version="opset1">
			<input>
				<port id="0">
					<dim>1</dim>
					<dim>30</dim>
					<dim>512</dim>
				</port>
				<port id="1">
					<dim>1</dim>
					<dim>256</dim>
				</port>
				<port id="2">
					<dim>1</dim>
					<dim>256</dim>
				</port>
			</input>
			<output>
				<port id="3" names="shadow/LSTMLayers/decoder/stack_bidirectional_rnn/cell_0/bidirectional_rnn/fw/fw/transpose_1:0,shadow/LSTMLayers/decoder/stack_bidirectional_rnn/cell_0/bidirectional_rnn/fw/fw/TensorArrayStack/TensorArrayGatherV3:0" precision="FP16">
					<dim>1</dim>
					<dim>30</dim>
					<dim>256</dim>
				</port>
			</output>
			<port_map>
				<input axis="1" external_port_id="0" internal_layer_id="0" start="0"/>
				<input external_port_id="1" internal_layer_id="3"/>
				<input external_port_id="2" internal_layer_id="4"/>
				<output axis="1" external_port_id="3" internal_layer_id="13"/>
			</port_map>
			<back_edges>
				<edge from-layer="9" to-layer="4"/>
				<edge from-layer="10" to-layer="3"/>
			</back_edges>
			<body>
				<layers>
					<layer id="0" name="32" type="Parameter" version="opset1">
						<data element_type="f16" shape="1,1,512"/>
						<output>
							<port id="0" precision="FP16">
								<dim>1</dim>
								<dim>1</dim>
								<dim>512</dim>
							</port>
						</output>
					</layer>
					<layer id="1" name="25_const16_const" type="Const" version="opset1">
						<data element_type="i64" offset="5560054" shape="1" size="8"/>
						<output>
							<port id="0" precision="I64">
								<dim>1</dim>
							</port>
						</output>
					</layer>
					<layer id="2" name="shadow/LSTMLayers/decoder/stack_bidirectional_rnn/cell_0/bidirectional_rnn/fw/fw/while/TensorArrayReadV3/Output_0/Data_/InputSqueeze" type="Squeeze" version="opset1">
						<input>
							<port id="0">
								<dim>1</dim>
								<dim>1</dim>
								<dim>512</dim>
							</port>
							<port id="1">
								<dim>1</dim>
							</port>
						</input>
						<output>
							<port id="2" names="shadow/LSTMLayers/decoder/stack_bidirectional_rnn/cell_0/bidirectional_rnn/fw/fw/while/TensorArrayReadV3:0" precision="FP16">
								<dim>1</dim>
								<dim>512</dim>
							</port>
						</output>
					</layer>
					<layer id="3" name="34" type="Parameter" version="opset1">
						<data element_type="f16" shape="1,256"/>
						<output>
							<port id="0" precision="FP16">
								<dim>1</dim>
								<dim>256</dim>
							</port>
						</output>
					</layer>
					<layer id="4" name="36" type="Parameter" version="opset1">
						<data element_type="f16" shape="1,256"/>
						<output>
							<port id="0" precision="FP16">
								<dim>1</dim>
								<dim>256</dim>
							</port>
						</output>
					</layer>
					<layer id="5" name="shadow/LSTMLayers/decoder/stack_bidirectional_rnn/cell_0/bidirectional_rnn/fw/fw/while/lstm_cell/concat/LSTMCell/Split322_const20_const" type="Const" version="opset1">
						<data element_type="f16" offset="11917352" shape="1024,512" size="1048576"/>
						<output>
							<port id="0" precision="FP16">
								<dim>1024</dim>
								<dim>512</dim>
							</port>
						</output>
					</layer>
					<layer id="6" name="shadow/LSTMLayers/decoder/stack_bidirectional_rnn/cell_0/bidirectional_rnn/fw/fw/while/lstm_cell/concat/LSTMCell/Split323_const21_const" type="Const" version="opset1">
						<data element_type="f16" offset="12965928" shape="1024,256" size="524288"/>
						<output>
							<port id="0" precision="FP16">
								<dim>1024</dim>
								<dim>256</dim>
							</port>
						</output>
					</layer>
					<layer id="7" name="shadow/LSTMLayers/decoder/stack_bidirectional_rnn/cell_0/bidirectional_rnn/fw/fw/while/lstm_cell/BiasAdd/Enter/Output_0/Data__const22_const" type="Const" version="opset1">
						<data element_type="f16" offset="13490216" shape="1024" size="2048"/>
						<output>
							<port id="0" names="shadow/LSTMLayers/decoder/stack_bidirectional_rnn/cell_0/bidirectional_rnn/fw/fw/while/lstm_cell/BiasAdd/Enter:0" precision="FP16">
								<dim>1024</dim>
							</port>
						</output>
					</layer>
					<layer id="8" name="shadow/LSTMLayers/decoder/stack_bidirectional_rnn/cell_0/bidirectional_rnn/fw/fw/while/lstm_cell/concat/LSTMCell" type="LSTMCell" version="opset4">
						<data hidden_size="256"/>
						<input>
							<port id="0">
								<dim>1</dim>
								<dim>512</dim>
							</port>
							<port id="1">
								<dim>1</dim>
								<dim>256</dim>
							</port>
							<port id="2">
								<dim>1</dim>
								<dim>256</dim>
							</port>
							<port id="3">
								<dim>1024</dim>
								<dim>512</dim>
							</port>
							<port id="4">
								<dim>1024</dim>
								<dim>256</dim>
							</port>
							<port id="5">
								<dim>1024</dim>
							</port>
						</input>
						<output>
							<port id="6" names="shadow/LSTMLayers/decoder/stack_bidirectional_rnn/cell_0/bidirectional_rnn/fw/fw/while/lstm_cell/mul_2:0" precision="FP16">
								<dim>1</dim>
								<dim>256</dim>
							</port>
							<port id="7" names="shadow/LSTMLayers/decoder/stack_bidirectional_rnn/cell_0/bidirectional_rnn/fw/fw/while/lstm_cell/add_1:0" precision="FP16">
								<dim>1</dim>
								<dim>256</dim>
							</port>
						</output>
					</layer>
					<layer id="9" name="shadow/LSTMLayers/decoder/stack_bidirectional_rnn/cell_0/bidirectional_rnn/fw/fw/while/lstm_cell/concat/LSTMCell/Output_1/Data_/sink_port_0" type="Result" version="opset1">
						<input>
							<port id="0">
								<dim>1</dim>
								<dim>256</dim>
							</port>
						</input>
					</layer>
					<layer id="10" name="shadow/LSTMLayers/decoder/stack_bidirectional_rnn/cell_0/bidirectional_rnn/fw/fw/while/lstm_cell/concat/LSTMCell/Output_0/Data_/sink_port_0" type="Result" version="opset1">
						<input>
							<port id="0">
								<dim>1</dim>
								<dim>256</dim>
							</port>
						</input>
					</layer>
					<layer id="11" name="28_const25_const" type="Const" version="opset1">
						<data element_type="i64" offset="5560054" shape="1" size="8"/>
						<output>
							<port id="0" precision="I64">
								<dim>1</dim>
							</port>
						</output>
					</layer>
					<layer id="12" name="shadow/LSTMLayers/decoder/stack_bidirectional_rnn/cell_0/bidirectional_rnn/fw/fw/while/lstm_cell/concat/LSTMCell/Output_0/Data_/OutputUnsqueeze" type="Unsqueeze" version="opset1">
						<input>
							<port id="0">
								<dim>1</dim>
								<dim>256</dim>
							</port>
							<port id="1">
								<dim>1</dim>
							</port>
						</input>
						<output>
							<port id="2" precision="FP16">
								<dim>1</dim>
								<dim>1</dim>
								<dim>256</dim>
							</port>
						</output>
					</layer>
					<layer id="13" name="30/sink_port_0" type="Result" version="opset1">
						<input>
							<port id="0">
								<dim>1</dim>
								<dim>1</dim>
								<dim>256</dim>
							</port>
						</input>
					</layer>
				</layers>
				<edges>
					<edge from-layer="0" from-port="0" to-layer="2" to-port="0"/>
					<edge from-layer="1" from-port="0" to-layer="2" to-port="1"/>
					<edge from-layer="2" from-port="2" to-layer="8" to-port="0"/>
					<edge from-layer="3" from-port="0" to-layer="8" to-port="1"/>
					<edge from-layer="4" from-port="0" to-layer="8" to-port="2"/>
					<edge from-layer="5" from-port="0" to-layer="8" to-port="3"/>
					<edge from-layer="6" from-port="0" to-layer="8" to-port="4"/>
					<edge from-layer="7" from-port="0" to-layer="8" to-port="5"/>
					<edge from-layer="8" from-port="7" to-layer="9" to-port="0"/>
					<edge from-layer="8" from-port="6" to-layer="10" to-port="0"/>
					<edge from-layer="8" from-port="6" to-layer="12" to-port="0"/>
					<edge from-layer="11" from-port="0" to-layer="12" to-port="1"/>
					<edge from-layer="12" from-port="2" to-layer="13" to-port="0"/>
				</edges>
			</body>
		</layer>
		<layer id="135" name="shadow/LSTMLayers/decoder/stack_bidirectional_rnn/cell_0/bidirectional_rnn/bw/bw/while/Enter_4/Output_0/Data__const158_const" type="Const" version="opset1">
			<data element_type="f16" offset="5560062" shape="1,256" size="512"/>
			<output>
				<port id="0" names="shadow/LSTMLayers/decoder/stack_bidirectional_rnn/cell_0/bidirectional_rnn/bw/bw/while/Enter_4:0" precision="FP16">
					<dim>1</dim>
					<dim>256</dim>
				</port>
			</output>
		</layer>
		<layer id="136" name="shadow/LSTMLayers/decoder/stack_bidirectional_rnn/cell_0/bidirectional_rnn/bw/bw/while/Enter_3/Output_0/Data__const159_const" type="Const" version="opset1">
			<data element_type="f16" offset="5560062" shape="1,256" size="512"/>
			<output>
				<port id="0" names="shadow/LSTMLayers/decoder/stack_bidirectional_rnn/cell_0/bidirectional_rnn/bw/bw/while/Enter_3:0" precision="FP16">
					<dim>1</dim>
					<dim>256</dim>
				</port>
			</output>
		</layer>
		<layer id="137" name="shadow/LSTMLayers/decoder/stack_bidirectional_rnn/cell_0/bidirectional_rnn/bw/bw/while/LoopCond/TensorIteratorCondition_/TensorIterator" type="TensorIterator" version="opset1">
			<input>
				<port id="0">
					<dim>1</dim>
					<dim>30</dim>
					<dim>512</dim>
				</port>
				<port id="1">
					<dim>1</dim>
					<dim>256</dim>
				</port>
				<port id="2">
					<dim>1</dim>
					<dim>256</dim>
				</port>
			</input>
			<output>
				<port id="3" names="shadow/LSTMLayers/decoder/stack_bidirectional_rnn/cell_0/ReverseV2:0,shadow/LSTMLayers/decoder/stack_bidirectional_rnn/cell_0/bidirectional_rnn/bw/bw/transpose_1:0,shadow/LSTMLayers/decoder/stack_bidirectional_rnn/cell_0/bidirectional_rnn/bw/bw/TensorArrayStack/TensorArrayGatherV3:0" precision="FP16">
					<dim>1</dim>
					<dim>30</dim>
					<dim>256</dim>
				</port>
			</output>
			<port_map>
				<input axis="1" end="0" external_port_id="0" internal_layer_id="0" start="-1" stride="-1"/>
				<input external_port_id="1" internal_layer_id="3"/>
				<input external_port_id="2" internal_layer_id="4"/>
				<output axis="1" end="0" external_port_id="3" internal_layer_id="13" start="-1" stride="-1"/>
			</port_map>
			<back_edges>
				<edge from-layer="9" to-layer="4"/>
				<edge from-layer="10" to-layer="3"/>
			</back_edges>
			<body>
				<layers>
					<layer id="0" name="32" type="Parameter" version="opset1">
						<data element_type="f16" shape="1,1,512"/>
						<output>
							<port id="0" precision="FP16">
								<dim>1</dim>
								<dim>1</dim>
								<dim>512</dim>
							</port>
						</output>
					</layer>
					<layer id="1" name="25_const16_const" type="Const" version="opset1">
						<data element_type="i64" offset="5560054" shape="1" size="8"/>
						<output>
							<port id="0" precision="I64">
								<dim>1</dim>
							</port>
						</output>
					</layer>
					<layer id="2" name="shadow/LSTMLayers/decoder/stack_bidirectional_rnn/cell_0/bidirectional_rnn/bw/bw/while/TensorArrayReadV3/Output_0/Data_/InputSqueeze" type="Squeeze" version="opset1">
						<input>
							<port id="0">
								<dim>1</dim>
								<dim>1</dim>
								<dim>512</dim>
							</port>
							<port id="1">
								<dim>1</dim>
							</port>
						</input>
						<output>
							<port id="2" names="shadow/LSTMLayers/decoder/stack_bidirectional_rnn/cell_0/bidirectional_rnn/bw/bw/while/TensorArrayReadV3:0" precision="FP16">
								<dim>1</dim>
								<dim>512</dim>
							</port>
						</output>
					</layer>
					<layer id="3" name="34" type="Parameter" version="opset1">
						<data element_type="f16" shape="1,256"/>
						<output>
							<port id="0" precision="FP16">
								<dim>1</dim>
								<dim>256</dim>
							</port>
						</output>
					</layer>
					<layer id="4" name="36" type="Parameter" version="opset1">
						<data element_type="f16" shape="1,256"/>
						<output>
							<port id="0" precision="FP16">
								<dim>1</dim>
								<dim>256</dim>
							</port>
						</output>
					</layer>
					<layer id="5" name="shadow/LSTMLayers/decoder/stack_bidirectional_rnn/cell_0/bidirectional_rnn/bw/bw/while/lstm_cell/concat/LSTMCell/Split322_const20_const" type="Const" version="opset1">
						<data element_type="f16" offset="13492264" shape="1024,512" size="1048576"/>
						<output>
							<port id="0" precision="FP16">
								<dim>1024</dim>
								<dim>512</dim>
							</port>
						</output>
					</layer>
					<layer id="6" name="shadow/LSTMLayers/decoder/stack_bidirectional_rnn/cell_0/bidirectional_rnn/bw/bw/while/lstm_cell/concat/LSTMCell/Split323_const21_const" type="Const" version="opset1">
						<data element_type="f16" offset="14540840" shape="1024,256" size="524288"/>
						<output>
							<port id="0" precision="FP16">
								<dim>1024</dim>
								<dim>256</dim>
							</port>
						</output>
					</layer>
					<layer id="7" name="shadow/LSTMLayers/decoder/stack_bidirectional_rnn/cell_0/bidirectional_rnn/bw/bw/while/lstm_cell/BiasAdd/Enter/Output_0/Data__const22_const" type="Const" version="opset1">
						<data element_type="f16" offset="15065128" shape="1024" size="2048"/>
						<output>
							<port id="0" names="shadow/LSTMLayers/decoder/stack_bidirectional_rnn/cell_0/bidirectional_rnn/bw/bw/while/lstm_cell/BiasAdd/Enter:0" precision="FP16">
								<dim>1024</dim>
							</port>
						</output>
					</layer>
					<layer id="8" name="shadow/LSTMLayers/decoder/stack_bidirectional_rnn/cell_0/bidirectional_rnn/bw/bw/while/lstm_cell/concat/LSTMCell" type="LSTMCell" version="opset4">
						<data hidden_size="256"/>
						<input>
							<port id="0">
								<dim>1</dim>
								<dim>512</dim>
							</port>
							<port id="1">
								<dim>1</dim>
								<dim>256</dim>
							</port>
							<port id="2">
								<dim>1</dim>
								<dim>256</dim>
							</port>
							<port id="3">
								<dim>1024</dim>
								<dim>512</dim>
							</port>
							<port id="4">
								<dim>1024</dim>
								<dim>256</dim>
							</port>
							<port id="5">
								<dim>1024</dim>
							</port>
						</input>
						<output>
							<port id="6" names="shadow/LSTMLayers/decoder/stack_bidirectional_rnn/cell_0/bidirectional_rnn/bw/bw/while/lstm_cell/mul_2:0" precision="FP16">
								<dim>1</dim>
								<dim>256</dim>
							</port>
							<port id="7" names="shadow/LSTMLayers/decoder/stack_bidirectional_rnn/cell_0/bidirectional_rnn/bw/bw/while/lstm_cell/add_1:0" precision="FP16">
								<dim>1</dim>
								<dim>256</dim>
							</port>
						</output>
					</layer>
					<layer id="9" name="shadow/LSTMLayers/decoder/stack_bidirectional_rnn/cell_0/bidirectional_rnn/bw/bw/while/lstm_cell/concat/LSTMCell/Output_1/Data_/sink_port_0" type="Result" version="opset1">
						<input>
							<port id="0">
								<dim>1</dim>
								<dim>256</dim>
							</port>
						</input>
					</layer>
					<layer id="10" name="shadow/LSTMLayers/decoder/stack_bidirectional_rnn/cell_0/bidirectional_rnn/bw/bw/while/lstm_cell/concat/LSTMCell/Output_0/Data_/sink_port_0" type="Result" version="opset1">
						<input>
							<port id="0">
								<dim>1</dim>
								<dim>256</dim>
							</port>
						</input>
					</layer>
					<layer id="11" name="28_const25_const" type="Const" version="opset1">
						<data element_type="i64" offset="5560054" shape="1" size="8"/>
						<output>
							<port id="0" precision="I64">
								<dim>1</dim>
							</port>
						</output>
					</layer>
					<layer id="12" name="shadow/LSTMLayers/decoder/stack_bidirectional_rnn/cell_0/bidirectional_rnn/bw/bw/while/lstm_cell/concat/LSTMCell/Output_0/Data_/OutputUnsqueeze" type="Unsqueeze" version="opset1">
						<input>
							<port id="0">
								<dim>1</dim>
								<dim>256</dim>
							</port>
							<port id="1">
								<dim>1</dim>
							</port>
						</input>
						<output>
							<port id="2" precision="FP16">
								<dim>1</dim>
								<dim>1</dim>
								<dim>256</dim>
							</port>
						</output>
					</layer>
					<layer id="13" name="30/sink_port_0" type="Result" version="opset1">
						<input>
							<port id="0">
								<dim>1</dim>
								<dim>1</dim>
								<dim>256</dim>
							</port>
						</input>
					</layer>
				</layers>
				<edges>
					<edge from-layer="0" from-port="0" to-layer="2" to-port="0"/>
					<edge from-layer="1" from-port="0" to-layer="2" to-port="1"/>
					<edge from-layer="2" from-port="2" to-layer="8" to-port="0"/>
					<edge from-layer="3" from-port="0" to-layer="8" to-port="1"/>
					<edge from-layer="4" from-port="0" to-layer="8" to-port="2"/>
					<edge from-layer="5" from-port="0" to-layer="8" to-port="3"/>
					<edge from-layer="6" from-port="0" to-layer="8" to-port="4"/>
					<edge from-layer="7" from-port="0" to-layer="8" to-port="5"/>
					<edge from-layer="8" from-port="7" to-layer="9" to-port="0"/>
					<edge from-layer="8" from-port="6" to-layer="10" to-port="0"/>
					<edge from-layer="8" from-port="6" to-layer="12" to-port="0"/>
					<edge from-layer="11" from-port="0" to-layer="12" to-port="1"/>
					<edge from-layer="12" from-port="2" to-layer="13" to-port="0"/>
				</edges>
			</body>
		</layer>
		<layer id="138" name="shadow/LSTMLayers/decoder/stack_bidirectional_rnn/cell_0/concat" type="Concat" version="opset1">
			<data axis="2"/>
			<input>
				<port id="0">
					<dim>1</dim>
					<dim>30</dim>
					<dim>256</dim>
				</port>
				<port id="1">
					<dim>1</dim>
					<dim>30</dim>
					<dim>256</dim>
				</port>
			</input>
			<output>
				<port id="2" names="shadow/LSTMLayers/decoder/stack_bidirectional_rnn/cell_1/bidirectional_rnn/bw/bw/transpose:0,shadow/LSTMLayers/decoder/stack_bidirectional_rnn/cell_1/bidirectional_rnn/bw/ReverseV2:0,shadow/LSTMLayers/decoder/stack_bidirectional_rnn/cell_1/bidirectional_rnn/fw/fw/transpose:0,shadow/LSTMLayers/decoder/stack_bidirectional_rnn/cell_0/concat:0" precision="FP16">
					<dim>1</dim>
					<dim>30</dim>
					<dim>512</dim>
				</port>
			</output>
		</layer>
		<layer id="139" name="shadow/LSTMLayers/decoder/stack_bidirectional_rnn/cell_1/bidirectional_rnn/fw/fw/while/Enter_4/Output_0/Data__const162_const" type="Const" version="opset1">
			<data element_type="f16" offset="5560062" shape="1,256" size="512"/>
			<output>
				<port id="0" names="shadow/LSTMLayers/decoder/stack_bidirectional_rnn/cell_1/bidirectional_rnn/fw/fw/while/Enter_4:0" precision="FP16">
					<dim>1</dim>
					<dim>256</dim>
				</port>
			</output>
		</layer>
		<layer id="140" name="shadow/LSTMLayers/decoder/stack_bidirectional_rnn/cell_1/bidirectional_rnn/fw/fw/while/Enter_3/Output_0/Data__const163_const" type="Const" version="opset1">
			<data element_type="f16" offset="5560062" shape="1,256" size="512"/>
			<output>
				<port id="0" names="shadow/LSTMLayers/decoder/stack_bidirectional_rnn/cell_1/bidirectional_rnn/fw/fw/while/Enter_3:0" precision="FP16">
					<dim>1</dim>
					<dim>256</dim>
				</port>
			</output>
		</layer>
		<layer id="141" name="shadow/LSTMLayers/decoder/stack_bidirectional_rnn/cell_1/bidirectional_rnn/fw/fw/while/LoopCond/TensorIteratorCondition_/TensorIterator" type="TensorIterator" version="opset1">
			<input>
				<port id="0">
					<dim>1</dim>
					<dim>30</dim>
					<dim>512</dim>
				</port>
				<port id="1">
					<dim>1</dim>
					<dim>256</dim>
				</port>
				<port id="2">
					<dim>1</dim>
					<dim>256</dim>
				</port>
			</input>
			<output>
				<port id="3" names="shadow/LSTMLayers/decoder/stack_bidirectional_rnn/cell_1/bidirectional_rnn/fw/fw/transpose_1:0,shadow/LSTMLayers/decoder/stack_bidirectional_rnn/cell_1/bidirectional_rnn/fw/fw/TensorArrayStack/TensorArrayGatherV3:0" precision="FP16">
					<dim>1</dim>
					<dim>30</dim>
					<dim>256</dim>
				</port>
			</output>
			<port_map>
				<input axis="1" external_port_id="0" internal_layer_id="0" start="0"/>
				<input external_port_id="1" internal_layer_id="3"/>
				<input external_port_id="2" internal_layer_id="4"/>
				<output axis="1" external_port_id="3" internal_layer_id="13"/>
			</port_map>
			<back_edges>
				<edge from-layer="10" to-layer="3"/>
				<edge from-layer="9" to-layer="4"/>
			</back_edges>
			<body>
				<layers>
					<layer id="0" name="32" type="Parameter" version="opset1">
						<data element_type="f16" shape="1,1,512"/>
						<output>
							<port id="0" precision="FP16">
								<dim>1</dim>
								<dim>1</dim>
								<dim>512</dim>
							</port>
						</output>
					</layer>
					<layer id="1" name="25_const16_const" type="Const" version="opset1">
						<data element_type="i64" offset="5560054" shape="1" size="8"/>
						<output>
							<port id="0" precision="I64">
								<dim>1</dim>
							</port>
						</output>
					</layer>
					<layer id="2" name="shadow/LSTMLayers/decoder/stack_bidirectional_rnn/cell_1/bidirectional_rnn/fw/fw/while/TensorArrayReadV3/Output_0/Data_/InputSqueeze" type="Squeeze" version="opset1">
						<input>
							<port id="0">
								<dim>1</dim>
								<dim>1</dim>
								<dim>512</dim>
							</port>
							<port id="1">
								<dim>1</dim>
							</port>
						</input>
						<output>
							<port id="2" names="shadow/LSTMLayers/decoder/stack_bidirectional_rnn/cell_1/bidirectional_rnn/fw/fw/while/TensorArrayReadV3:0" precision="FP16">
								<dim>1</dim>
								<dim>512</dim>
							</port>
						</output>
					</layer>
					<layer id="3" name="34" type="Parameter" version="opset1">
						<data element_type="f16" shape="1,256"/>
						<output>
							<port id="0" precision="FP16">
								<dim>1</dim>
								<dim>256</dim>
							</port>
						</output>
					</layer>
					<layer id="4" name="36" type="Parameter" version="opset1">
						<data element_type="f16" shape="1,256"/>
						<output>
							<port id="0" precision="FP16">
								<dim>1</dim>
								<dim>256</dim>
							</port>
						</output>
					</layer>
					<layer id="5" name="shadow/LSTMLayers/decoder/stack_bidirectional_rnn/cell_1/bidirectional_rnn/fw/fw/while/lstm_cell/concat/LSTMCell/Split322_const20_const" type="Const" version="opset1">
						<data element_type="f16" offset="15067176" shape="1024,512" size="1048576"/>
						<output>
							<port id="0" precision="FP16">
								<dim>1024</dim>
								<dim>512</dim>
							</port>
						</output>
					</layer>
					<layer id="6" name="shadow/LSTMLayers/decoder/stack_bidirectional_rnn/cell_1/bidirectional_rnn/fw/fw/while/lstm_cell/concat/LSTMCell/Split323_const21_const" type="Const" version="opset1">
						<data element_type="f16" offset="16115752" shape="1024,256" size="524288"/>
						<output>
							<port id="0" precision="FP16">
								<dim>1024</dim>
								<dim>256</dim>
							</port>
						</output>
					</layer>
					<layer id="7" name="shadow/LSTMLayers/decoder/stack_bidirectional_rnn/cell_1/bidirectional_rnn/fw/fw/while/lstm_cell/BiasAdd/Enter/Output_0/Data__const22_const" type="Const" version="opset1">
						<data element_type="f16" offset="16640040" shape="1024" size="2048"/>
						<output>
							<port id="0" names="shadow/LSTMLayers/decoder/stack_bidirectional_rnn/cell_1/bidirectional_rnn/fw/fw/while/lstm_cell/BiasAdd/Enter:0" precision="FP16">
								<dim>1024</dim>
							</port>
						</output>
					</layer>
					<layer id="8" name="shadow/LSTMLayers/decoder/stack_bidirectional_rnn/cell_1/bidirectional_rnn/fw/fw/while/lstm_cell/concat/LSTMCell" type="LSTMCell" version="opset4">
						<data hidden_size="256"/>
						<input>
							<port id="0">
								<dim>1</dim>
								<dim>512</dim>
							</port>
							<port id="1">
								<dim>1</dim>
								<dim>256</dim>
							</port>
							<port id="2">
								<dim>1</dim>
								<dim>256</dim>
							</port>
							<port id="3">
								<dim>1024</dim>
								<dim>512</dim>
							</port>
							<port id="4">
								<dim>1024</dim>
								<dim>256</dim>
							</port>
							<port id="5">
								<dim>1024</dim>
							</port>
						</input>
						<output>
							<port id="6" names="shadow/LSTMLayers/decoder/stack_bidirectional_rnn/cell_1/bidirectional_rnn/fw/fw/while/lstm_cell/mul_2:0" precision="FP16">
								<dim>1</dim>
								<dim>256</dim>
							</port>
							<port id="7" names="shadow/LSTMLayers/decoder/stack_bidirectional_rnn/cell_1/bidirectional_rnn/fw/fw/while/lstm_cell/add_1:0" precision="FP16">
								<dim>1</dim>
								<dim>256</dim>
							</port>
						</output>
					</layer>
					<layer id="9" name="shadow/LSTMLayers/decoder/stack_bidirectional_rnn/cell_1/bidirectional_rnn/fw/fw/while/lstm_cell/concat/LSTMCell/Output_1/Data_/sink_port_0" type="Result" version="opset1">
						<input>
							<port id="0">
								<dim>1</dim>
								<dim>256</dim>
							</port>
						</input>
					</layer>
					<layer id="10" name="shadow/LSTMLayers/decoder/stack_bidirectional_rnn/cell_1/bidirectional_rnn/fw/fw/while/lstm_cell/concat/LSTMCell/Output_0/Data_/sink_port_0" type="Result" version="opset1">
						<input>
							<port id="0">
								<dim>1</dim>
								<dim>256</dim>
							</port>
						</input>
					</layer>
					<layer id="11" name="28_const25_const" type="Const" version="opset1">
						<data element_type="i64" offset="5560054" shape="1" size="8"/>
						<output>
							<port id="0" precision="I64">
								<dim>1</dim>
							</port>
						</output>
					</layer>
					<layer id="12" name="shadow/LSTMLayers/decoder/stack_bidirectional_rnn/cell_1/bidirectional_rnn/fw/fw/while/lstm_cell/concat/LSTMCell/Output_0/Data_/OutputUnsqueeze" type="Unsqueeze" version="opset1">
						<input>
							<port id="0">
								<dim>1</dim>
								<dim>256</dim>
							</port>
							<port id="1">
								<dim>1</dim>
							</port>
						</input>
						<output>
							<port id="2" precision="FP16">
								<dim>1</dim>
								<dim>1</dim>
								<dim>256</dim>
							</port>
						</output>
					</layer>
					<layer id="13" name="30/sink_port_0" type="Result" version="opset1">
						<input>
							<port id="0">
								<dim>1</dim>
								<dim>1</dim>
								<dim>256</dim>
							</port>
						</input>
					</layer>
				</layers>
				<edges>
					<edge from-layer="0" from-port="0" to-layer="2" to-port="0"/>
					<edge from-layer="1" from-port="0" to-layer="2" to-port="1"/>
					<edge from-layer="2" from-port="2" to-layer="8" to-port="0"/>
					<edge from-layer="3" from-port="0" to-layer="8" to-port="1"/>
					<edge from-layer="4" from-port="0" to-layer="8" to-port="2"/>
					<edge from-layer="5" from-port="0" to-layer="8" to-port="3"/>
					<edge from-layer="6" from-port="0" to-layer="8" to-port="4"/>
					<edge from-layer="7" from-port="0" to-layer="8" to-port="5"/>
					<edge from-layer="8" from-port="7" to-layer="9" to-port="0"/>
					<edge from-layer="8" from-port="6" to-layer="10" to-port="0"/>
					<edge from-layer="8" from-port="6" to-layer="12" to-port="0"/>
					<edge from-layer="11" from-port="0" to-layer="12" to-port="1"/>
					<edge from-layer="12" from-port="2" to-layer="13" to-port="0"/>
				</edges>
			</body>
		</layer>
		<layer id="142" name="623627_const" type="Const" version="opset1">
			<data element_type="f16" offset="5560574" shape="" size="2"/>
			<output>
				<port id="0" precision="FP16"/>
			</output>
		</layer>
		<layer id="143" name="624628_const" type="Const" version="opset1">
			<data element_type="f16" offset="5560576" shape="" size="2"/>
			<output>
				<port id="0" precision="FP16"/>
			</output>
		</layer>
		<layer id="144" name="625629_const" type="Const" version="opset1">
			<data element_type="f16" offset="5560574" shape="" size="2"/>
			<output>
				<port id="0" precision="FP16"/>
			</output>
		</layer>
		<layer id="145" name="626630_const" type="Const" version="opset1">
			<data element_type="f16" offset="5560576" shape="" size="2"/>
			<output>
				<port id="0" precision="FP16"/>
			</output>
		</layer>
		<layer id="146" name="shadow/LSTMLayers/decoder/stack_bidirectional_rnn/cell_1/concat/fq_input_0" type="FakeQuantize" version="opset1">
			<data auto_broadcast="numpy" levels="256"/>
			<input>
				<port id="0">
					<dim>1</dim>
					<dim>30</dim>
					<dim>256</dim>
				</port>
				<port id="1"/>
				<port id="2"/>
				<port id="3"/>
				<port id="4"/>
			</input>
			<output>
				<port id="5" precision="FP16">
					<dim>1</dim>
					<dim>30</dim>
					<dim>256</dim>
				</port>
			</output>
		</layer>
		<layer id="147" name="shadow/LSTMLayers/decoder/stack_bidirectional_rnn/cell_1/bidirectional_rnn/bw/bw/while/Enter_4/Output_0/Data__const165_const" type="Const" version="opset1">
			<data element_type="f16" offset="5560062" shape="1,256" size="512"/>
			<output>
				<port id="0" names="shadow/LSTMLayers/decoder/stack_bidirectional_rnn/cell_1/bidirectional_rnn/bw/bw/while/Enter_4:0" precision="FP16">
					<dim>1</dim>
					<dim>256</dim>
				</port>
			</output>
		</layer>
		<layer id="148" name="shadow/LSTMLayers/decoder/stack_bidirectional_rnn/cell_1/bidirectional_rnn/bw/bw/while/Enter_3/Output_0/Data__const166_const" type="Const" version="opset1">
			<data element_type="f16" offset="5560062" shape="1,256" size="512"/>
			<output>
				<port id="0" names="shadow/LSTMLayers/decoder/stack_bidirectional_rnn/cell_1/bidirectional_rnn/bw/bw/while/Enter_3:0" precision="FP16">
					<dim>1</dim>
					<dim>256</dim>
				</port>
			</output>
		</layer>
		<layer id="149" name="shadow/LSTMLayers/decoder/stack_bidirectional_rnn/cell_1/bidirectional_rnn/bw/bw/while/LoopCond/TensorIteratorCondition_/TensorIterator" type="TensorIterator" version="opset1">
			<input>
				<port id="0">
					<dim>1</dim>
					<dim>30</dim>
					<dim>512</dim>
				</port>
				<port id="1">
					<dim>1</dim>
					<dim>256</dim>
				</port>
				<port id="2">
					<dim>1</dim>
					<dim>256</dim>
				</port>
			</input>
			<output>
				<port id="3" names="shadow/LSTMLayers/decoder/stack_bidirectional_rnn/cell_1/ReverseV2:0,shadow/LSTMLayers/decoder/stack_bidirectional_rnn/cell_1/bidirectional_rnn/bw/bw/transpose_1:0,shadow/LSTMLayers/decoder/stack_bidirectional_rnn/cell_1/bidirectional_rnn/bw/bw/TensorArrayStack/TensorArrayGatherV3:0" precision="FP16">
					<dim>1</dim>
					<dim>30</dim>
					<dim>256</dim>
				</port>
			</output>
			<port_map>
				<input axis="1" end="0" external_port_id="0" internal_layer_id="0" start="-1" stride="-1"/>
				<input external_port_id="1" internal_layer_id="3"/>
				<input external_port_id="2" internal_layer_id="4"/>
				<output axis="1" end="0" external_port_id="3" internal_layer_id="13" start="-1" stride="-1"/>
			</port_map>
			<back_edges>
				<edge from-layer="9" to-layer="4"/>
				<edge from-layer="10" to-layer="3"/>
			</back_edges>
			<body>
				<layers>
					<layer id="0" name="32" type="Parameter" version="opset1">
						<data element_type="f16" shape="1,1,512"/>
						<output>
							<port id="0" precision="FP16">
								<dim>1</dim>
								<dim>1</dim>
								<dim>512</dim>
							</port>
						</output>
					</layer>
					<layer id="1" name="25_const16_const" type="Const" version="opset1">
						<data element_type="i64" offset="5560054" shape="1" size="8"/>
						<output>
							<port id="0" precision="I64">
								<dim>1</dim>
							</port>
						</output>
					</layer>
					<layer id="2" name="shadow/LSTMLayers/decoder/stack_bidirectional_rnn/cell_1/bidirectional_rnn/bw/bw/while/TensorArrayReadV3/Output_0/Data_/InputSqueeze" type="Squeeze" version="opset1">
						<input>
							<port id="0">
								<dim>1</dim>
								<dim>1</dim>
								<dim>512</dim>
							</port>
							<port id="1">
								<dim>1</dim>
							</port>
						</input>
						<output>
							<port id="2" names="shadow/LSTMLayers/decoder/stack_bidirectional_rnn/cell_1/bidirectional_rnn/bw/bw/while/TensorArrayReadV3:0" precision="FP16">
								<dim>1</dim>
								<dim>512</dim>
							</port>
						</output>
					</layer>
					<layer id="3" name="34" type="Parameter" version="opset1">
						<data element_type="f16" shape="1,256"/>
						<output>
							<port id="0" precision="FP16">
								<dim>1</dim>
								<dim>256</dim>
							</port>
						</output>
					</layer>
					<layer id="4" name="36" type="Parameter" version="opset1">
						<data element_type="f16" shape="1,256"/>
						<output>
							<port id="0" precision="FP16">
								<dim>1</dim>
								<dim>256</dim>
							</port>
						</output>
					</layer>
					<layer id="5" name="shadow/LSTMLayers/decoder/stack_bidirectional_rnn/cell_1/bidirectional_rnn/bw/bw/while/lstm_cell/concat/LSTMCell/Split322_const20_const" type="Const" version="opset1">
						<data element_type="f16" offset="16642088" shape="1024,512" size="1048576"/>
						<output>
							<port id="0" precision="FP16">
								<dim>1024</dim>
								<dim>512</dim>
							</port>
						</output>
					</layer>
					<layer id="6" name="shadow/LSTMLayers/decoder/stack_bidirectional_rnn/cell_1/bidirectional_rnn/bw/bw/while/lstm_cell/concat/LSTMCell/Split323_const21_const" type="Const" version="opset1">
						<data element_type="f16" offset="17690664" shape="1024,256" size="524288"/>
						<output>
							<port id="0" precision="FP16">
								<dim>1024</dim>
								<dim>256</dim>
							</port>
						</output>
					</layer>
					<layer id="7" name="shadow/LSTMLayers/decoder/stack_bidirectional_rnn/cell_1/bidirectional_rnn/bw/bw/while/lstm_cell/BiasAdd/Enter/Output_0/Data__const22_const" type="Const" version="opset1">
						<data element_type="f16" offset="18214952" shape="1024" size="2048"/>
						<output>
							<port id="0" names="shadow/LSTMLayers/decoder/stack_bidirectional_rnn/cell_1/bidirectional_rnn/bw/bw/while/lstm_cell/BiasAdd/Enter:0" precision="FP16">
								<dim>1024</dim>
							</port>
						</output>
					</layer>
					<layer id="8" name="shadow/LSTMLayers/decoder/stack_bidirectional_rnn/cell_1/bidirectional_rnn/bw/bw/while/lstm_cell/concat/LSTMCell" type="LSTMCell" version="opset4">
						<data hidden_size="256"/>
						<input>
							<port id="0">
								<dim>1</dim>
								<dim>512</dim>
							</port>
							<port id="1">
								<dim>1</dim>
								<dim>256</dim>
							</port>
							<port id="2">
								<dim>1</dim>
								<dim>256</dim>
							</port>
							<port id="3">
								<dim>1024</dim>
								<dim>512</dim>
							</port>
							<port id="4">
								<dim>1024</dim>
								<dim>256</dim>
							</port>
							<port id="5">
								<dim>1024</dim>
							</port>
						</input>
						<output>
							<port id="6" names="shadow/LSTMLayers/decoder/stack_bidirectional_rnn/cell_1/bidirectional_rnn/bw/bw/while/lstm_cell/mul_2:0" precision="FP16">
								<dim>1</dim>
								<dim>256</dim>
							</port>
							<port id="7" names="shadow/LSTMLayers/decoder/stack_bidirectional_rnn/cell_1/bidirectional_rnn/bw/bw/while/lstm_cell/add_1:0" precision="FP16">
								<dim>1</dim>
								<dim>256</dim>
							</port>
						</output>
					</layer>
					<layer id="9" name="shadow/LSTMLayers/decoder/stack_bidirectional_rnn/cell_1/bidirectional_rnn/bw/bw/while/lstm_cell/concat/LSTMCell/Output_1/Data_/sink_port_0" type="Result" version="opset1">
						<input>
							<port id="0">
								<dim>1</dim>
								<dim>256</dim>
							</port>
						</input>
					</layer>
					<layer id="10" name="shadow/LSTMLayers/decoder/stack_bidirectional_rnn/cell_1/bidirectional_rnn/bw/bw/while/lstm_cell/concat/LSTMCell/Output_0/Data_/sink_port_0" type="Result" version="opset1">
						<input>
							<port id="0">
								<dim>1</dim>
								<dim>256</dim>
							</port>
						</input>
					</layer>
					<layer id="11" name="28_const25_const" type="Const" version="opset1">
						<data element_type="i64" offset="5560054" shape="1" size="8"/>
						<output>
							<port id="0" precision="I64">
								<dim>1</dim>
							</port>
						</output>
					</layer>
					<layer id="12" name="shadow/LSTMLayers/decoder/stack_bidirectional_rnn/cell_1/bidirectional_rnn/bw/bw/while/lstm_cell/concat/LSTMCell/Output_0/Data_/OutputUnsqueeze" type="Unsqueeze" version="opset1">
						<input>
							<port id="0">
								<dim>1</dim>
								<dim>256</dim>
							</port>
							<port id="1">
								<dim>1</dim>
							</port>
						</input>
						<output>
							<port id="2" precision="FP16">
								<dim>1</dim>
								<dim>1</dim>
								<dim>256</dim>
							</port>
						</output>
					</layer>
					<layer id="13" name="30/sink_port_0" type="Result" version="opset1">
						<input>
							<port id="0">
								<dim>1</dim>
								<dim>1</dim>
								<dim>256</dim>
							</port>
						</input>
					</layer>
				</layers>
				<edges>
					<edge from-layer="0" from-port="0" to-layer="2" to-port="0"/>
					<edge from-layer="1" from-port="0" to-layer="2" to-port="1"/>
					<edge from-layer="2" from-port="2" to-layer="8" to-port="0"/>
					<edge from-layer="3" from-port="0" to-layer="8" to-port="1"/>
					<edge from-layer="4" from-port="0" to-layer="8" to-port="2"/>
					<edge from-layer="5" from-port="0" to-layer="8" to-port="3"/>
					<edge from-layer="6" from-port="0" to-layer="8" to-port="4"/>
					<edge from-layer="7" from-port="0" to-layer="8" to-port="5"/>
					<edge from-layer="8" from-port="7" to-layer="9" to-port="0"/>
					<edge from-layer="8" from-port="6" to-layer="10" to-port="0"/>
					<edge from-layer="8" from-port="6" to-layer="12" to-port="0"/>
					<edge from-layer="11" from-port="0" to-layer="12" to-port="1"/>
					<edge from-layer="12" from-port="2" to-layer="13" to-port="0"/>
				</edges>
			</body>
		</layer>
		<layer id="150" name="633637_const" type="Const" version="opset1">
			<data element_type="f16" offset="5560578" shape="" size="2"/>
			<output>
				<port id="0" precision="FP16"/>
			</output>
		</layer>
		<layer id="151" name="634638_const" type="Const" version="opset1">
			<data element_type="f16" offset="5560580" shape="" size="2"/>
			<output>
				<port id="0" precision="FP16"/>
			</output>
		</layer>
		<layer id="152" name="635639_const" type="Const" version="opset1">
			<data element_type="f16" offset="5560578" shape="" size="2"/>
			<output>
				<port id="0" precision="FP16"/>
			</output>
		</layer>
		<layer id="153" name="636640_const" type="Const" version="opset1">
			<data element_type="f16" offset="5560580" shape="" size="2"/>
			<output>
				<port id="0" precision="FP16"/>
			</output>
		</layer>
		<layer id="154" name="shadow/LSTMLayers/decoder/stack_bidirectional_rnn/cell_1/concat/fq_input_1" type="FakeQuantize" version="opset1">
			<data auto_broadcast="numpy" levels="256"/>
			<input>
				<port id="0">
					<dim>1</dim>
					<dim>30</dim>
					<dim>256</dim>
				</port>
				<port id="1"/>
				<port id="2"/>
				<port id="3"/>
				<port id="4"/>
			</input>
			<output>
				<port id="5" precision="FP16">
					<dim>1</dim>
					<dim>30</dim>
					<dim>256</dim>
				</port>
			</output>
		</layer>
		<layer id="155" name="shadow/LSTMLayers/decoder/stack_bidirectional_rnn/cell_1/concat" type="Concat" version="opset1">
			<data axis="2"/>
			<input>
				<port id="0">
					<dim>1</dim>
					<dim>30</dim>
					<dim>256</dim>
				</port>
				<port id="1">
					<dim>1</dim>
					<dim>30</dim>
					<dim>256</dim>
				</port>
			</input>
			<output>
				<port id="2" names="shadow/LSTMLayers/decoder/stack_bidirectional_rnn/cell_1/concat:0" precision="FP16">
					<dim>1</dim>
					<dim>30</dim>
					<dim>512</dim>
				</port>
			</output>
		</layer>
		<layer id="156" name="shadow/LSTMLayers/fully_connected/weights/read/MinusOne5636_const169_const" type="Const" version="opset1">
			<data element_type="i64" offset="5560582" shape="1" size="8"/>
			<output>
				<port id="0" precision="I64">
					<dim>1</dim>
				</port>
			</output>
		</layer>
		<layer id="157" name="shadow/LSTMLayers/fully_connected/MatMul/1_port_transpose5587_const170_const" type="Const" version="opset1">
			<data element_type="f16" offset="5560590" shape="37,512" size="37888"/>
			<output>
				<port id="0" names="shadow/LSTMLayers/fully_connected/weights/read:0" precision="FP16">
					<dim>37</dim>
					<dim>512</dim>
				</port>
			</output>
		</layer>
		<layer id="158" name="shadow/LSTMLayers/fully_connected/weights/read/Shape" type="ShapeOf" version="opset3">
			<data output_type="i64"/>
			<input>
				<port id="0">
					<dim>37</dim>
					<dim>512</dim>
				</port>
			</input>
			<output>
				<port id="1" precision="I64">
					<dim>2</dim>
				</port>
			</output>
		</layer>
		<layer id="159" name="shadow/LSTMLayers/fully_connected/weights/read/Shape/Gather/Cast_11258_const" type="Const" version="opset1">
			<data element_type="i32" offset="5598478" shape="1" size="4"/>
			<output>
				<port id="0" precision="I32">
					<dim>1</dim>
				</port>
			</output>
		</layer>
		<layer id="160" name="shadow/LSTMLayers/fully_connected/weights/read/Shape/Gather/Cast_21260_const" type="Const" version="opset1">
			<data element_type="i64" offset="5598482" shape="" size="8"/>
			<output>
				<port id="0" precision="I64"/>
			</output>
		</layer>
		<layer id="161" name="shadow/LSTMLayers/fully_connected/weights/read/Shape/Gather" type="Gather" version="opset1">
			<input>
				<port id="0">
					<dim>2</dim>
				</port>
				<port id="1">
					<dim>1</dim>
				</port>
				<port id="2"/>
			</input>
			<output>
				<port id="3" precision="I64">
					<dim>1</dim>
				</port>
			</output>
		</layer>
		<layer id="162" name="shadow/LSTMLayers/fully_connected/weights/read/MinusOne/shapes_concat" type="Concat" version="opset1">
			<data axis="0"/>
			<input>
				<port id="0">
					<dim>1</dim>
				</port>
				<port id="1">
					<dim>1</dim>
				</port>
			</input>
			<output>
				<port id="2" names="shadow/LSTMLayers/Reshape/shape:0" precision="I64">
					<dim>2</dim>
				</port>
			</output>
		</layer>
		<layer id="163" name="shadow/LSTMLayers/Reshape" type="Reshape" version="opset1">
			<data special_zero="false"/>
			<input>
				<port id="0">
					<dim>1</dim>
					<dim>30</dim>
					<dim>512</dim>
				</port>
				<port id="1">
					<dim>2</dim>
				</port>
			</input>
			<output>
				<port id="2" names="shadow/LSTMLayers/Reshape:0" precision="FP16">
					<dim>30</dim>
					<dim>512</dim>
				</port>
			</output>
		</layer>
		<layer id="164" name="shadow/LSTMLayers/fully_connected/MatMul/1_port_transpose5587_const170895/quantized1144_const" type="Const" version="opset1">
			<data element_type="i8" offset="5598490" shape="37,512" size="18944"/>
			<output>
				<port id="0" precision="I8">
					<dim>37</dim>
					<dim>512</dim>
				</port>
			</output>
		</layer>
		<layer id="165" name="shadow/LSTMLayers/fully_connected/MatMul/1_port_transpose5587_const170895/quantized/to_f16" type="Convert" version="opset1">
			<data destination_type="f16"/>
			<input>
				<port id="0">
					<dim>37</dim>
					<dim>512</dim>
				</port>
			</input>
			<output>
				<port id="1" precision="FP16">
					<dim>37</dim>
					<dim>512</dim>
				</port>
			</output>
		</layer>
		<layer id="166" name="shadow/LSTMLayers/fully_connected/MatMul/fq_weights_1/zero_point1157_const" type="Const" version="opset1">
			<data element_type="f16" offset="5617434" shape="37,1" size="74"/>
			<output>
				<port id="0" precision="FP16">
					<dim>37</dim>
					<dim>1</dim>
				</port>
			</output>
		</layer>
		<layer id="167" name="shadow/LSTMLayers/fully_connected/MatMul/fq_weights_1/minus_zp" type="Subtract" version="opset1">
			<data auto_broadcast="numpy"/>
			<input>
				<port id="0">
					<dim>37</dim>
					<dim>512</dim>
				</port>
				<port id="1">
					<dim>37</dim>
					<dim>1</dim>
				</port>
			</input>
			<output>
				<port id="2" precision="FP16">
					<dim>37</dim>
					<dim>512</dim>
				</port>
			</output>
		</layer>
		<layer id="168" name="shadow/LSTMLayers/fully_connected/MatMul/fq_weights_1/scale1152_const" type="Const" version="opset1">
			<data element_type="f16" offset="5617508" shape="37,1" size="74"/>
			<output>
				<port id="0" precision="FP16">
					<dim>37</dim>
					<dim>1</dim>
				</port>
			</output>
		</layer>
		<layer id="169" name="shadow/LSTMLayers/fully_connected/MatMul/fq_weights_1/mulpiply_by_scale" type="Multiply" version="opset1">
			<data auto_broadcast="numpy"/>
			<input>
				<port id="0">
					<dim>37</dim>
					<dim>512</dim>
				</port>
				<port id="1">
					<dim>37</dim>
					<dim>1</dim>
				</port>
			</input>
			<output>
				<port id="2" precision="FP16">
					<dim>37</dim>
					<dim>512</dim>
				</port>
			</output>
		</layer>
		<layer id="170" name="shadow/LSTMLayers/fully_connected/MatMul" type="MatMul" version="opset1">
			<data transpose_a="false" transpose_b="true"/>
			<input>
				<port id="0">
					<dim>30</dim>
					<dim>512</dim>
				</port>
				<port id="1">
					<dim>37</dim>
					<dim>512</dim>
				</port>
			</input>
			<output>
				<port id="2" names="shadow/LSTMLayers/fully_connected/MatMul:0" precision="FP16">
					<dim>30</dim>
					<dim>37</dim>
				</port>
			</output>
		</layer>
		<layer id="171" name="shadow/LSTMLayers/fully_connected/biases/read/EltwiseUnsqueeze4761_const178_const" type="Const" version="opset1">
			<data element_type="f16" offset="5617582" shape="1,37" size="74"/>
			<output>
				<port id="0" names="shadow/LSTMLayers/fully_connected/biases/read:0" precision="FP16">
					<dim>1</dim>
					<dim>37</dim>
				</port>
			</output>
		</layer>
		<layer id="172" name="shadow/LSTMLayers/fully_connected/BiasAdd/Add" type="Add" version="opset1">
			<data auto_broadcast="numpy"/>
			<input>
				<port id="0">
					<dim>30</dim>
					<dim>37</dim>
				</port>
				<port id="1">
					<dim>1</dim>
					<dim>37</dim>
				</port>
			</input>
			<output>
				<port id="2" names="shadow/LSTMLayers/fully_connected/BiasAdd:0" precision="FP16">
					<dim>30</dim>
					<dim>37</dim>
				</port>
			</output>
		</layer>
		<layer id="173" name="shadow/LSTMLayers/Reshape_1/Cast_16589_const180_const" type="Const" version="opset1">
			<data element_type="i64" offset="5617656" shape="3" size="24"/>
			<output>
				<port id="0" names="shadow/LSTMLayers/Reshape_1/shape:0" precision="I64">
					<dim>3</dim>
				</port>
			</output>
		</layer>
		<layer id="174" name="shadow/LSTMLayers/Reshape_1" type="Reshape" version="opset1">
			<data special_zero="false"/>
			<input>
				<port id="0">
					<dim>30</dim>
					<dim>37</dim>
				</port>
				<port id="1">
					<dim>3</dim>
				</port>
			</input>
			<output>
				<port id="2" names="shadow/LSTMLayers/Reshape_1:0" precision="FP16">
					<dim>1</dim>
					<dim>30</dim>
					<dim>37</dim>
				</port>
			</output>
		</layer>
		<layer id="175" name="shadow/LSTMLayers/transpose_time_major/Cast_11256_const" type="Const" version="opset1">
			<data element_type="i64" offset="5617680" shape="3" size="24"/>
			<output>
				<port id="0" names="shadow/LSTMLayers/transpose_time_major/perm:0" precision="I64">
					<dim>3</dim>
				</port>
			</output>
		</layer>
		<layer id="176" name="shadow/LSTMLayers/transpose_time_major" type="Transpose" version="opset1">
			<input>
				<port id="0">
					<dim>1</dim>
					<dim>30</dim>
					<dim>37</dim>
				</port>
				<port id="1">
					<dim>3</dim>
				</port>
			</input>
			<output>
				<port id="2" precision="FP16">
					<dim>30</dim>
					<dim>1</dim>
					<dim>37</dim>
				</port>
			</output>
		</layer>
		<layer id="177" name="shadow/LSTMLayers/transpose_time_major/sink_port_0" type="Result" version="opset1">
			<input>
				<port id="0">
					<dim>30</dim>
					<dim>1</dim>
					<dim>37</dim>
				</port>
			</input>
		</layer>
	</layers>
	<edges>
		<edge from-layer="0" from-port="0" to-layer="2" to-port="0"/>
		<edge from-layer="1" from-port="0" to-layer="2" to-port="1"/>
		<edge from-layer="2" from-port="2" to-layer="4" to-port="0"/>
		<edge from-layer="3" from-port="0" to-layer="4" to-port="1"/>
		<edge from-layer="4" from-port="2" to-layer="9" to-port="0"/>
		<edge from-layer="5" from-port="0" to-layer="9" to-port="1"/>
		<edge from-layer="6" from-port="0" to-layer="9" to-port="2"/>
		<edge from-layer="7" from-port="0" to-layer="9" to-port="3"/>
		<edge from-layer="8" from-port="0" to-layer="9" to-port="4"/>
		<edge from-layer="10" from-port="0" to-layer="11" to-port="0"/>
		<edge from-layer="11" from-port="1" to-layer="13" to-port="0"/>
		<edge from-layer="12" from-port="0" to-layer="13" to-port="1"/>
		<edge from-layer="13" from-port="2" to-layer="15" to-port="0"/>
		<edge from-layer="14" from-port="0" to-layer="15" to-port="1"/>
		<edge from-layer="9" from-port="5" to-layer="16" to-port="0"/>
		<edge from-layer="15" from-port="2" to-layer="16" to-port="1"/>
		<edge from-layer="16" from-port="2" to-layer="18" to-port="0"/>
		<edge from-layer="17" from-port="0" to-layer="18" to-port="1"/>
		<edge from-layer="18" from-port="2" to-layer="19" to-port="0"/>
		<edge from-layer="19" from-port="1" to-layer="24" to-port="0"/>
		<edge from-layer="20" from-port="0" to-layer="24" to-port="1"/>
		<edge from-layer="21" from-port="0" to-layer="24" to-port="2"/>
		<edge from-layer="22" from-port="0" to-layer="24" to-port="3"/>
		<edge from-layer="23" from-port="0" to-layer="24" to-port="4"/>
		<edge from-layer="24" from-port="5" to-layer="25" to-port="0"/>
		<edge from-layer="26" from-port="0" to-layer="27" to-port="0"/>
		<edge from-layer="27" from-port="1" to-layer="29" to-port="0"/>
		<edge from-layer="28" from-port="0" to-layer="29" to-port="1"/>
		<edge from-layer="29" from-port="2" to-layer="31" to-port="0"/>
		<edge from-layer="30" from-port="0" to-layer="31" to-port="1"/>
		<edge from-layer="25" from-port="1" to-layer="32" to-port="0"/>
		<edge from-layer="31" from-port="2" to-layer="32" to-port="1"/>
		<edge from-layer="32" from-port="2" to-layer="34" to-port="0"/>
		<edge from-layer="33" from-port="0" to-layer="34" to-port="1"/>
		<edge from-layer="34" from-port="2" to-layer="35" to-port="0"/>
		<edge from-layer="35" from-port="1" to-layer="40" to-port="0"/>
		<edge from-layer="36" from-port="0" to-layer="40" to-port="1"/>
		<edge from-layer="37" from-port="0" to-layer="40" to-port="2"/>
		<edge from-layer="38" from-port="0" to-layer="40" to-port="3"/>
		<edge from-layer="39" from-port="0" to-layer="40" to-port="4"/>
		<edge from-layer="40" from-port="5" to-layer="41" to-port="0"/>
		<edge from-layer="42" from-port="0" to-layer="43" to-port="0"/>
		<edge from-layer="43" from-port="1" to-layer="45" to-port="0"/>
		<edge from-layer="44" from-port="0" to-layer="45" to-port="1"/>
		<edge from-layer="45" from-port="2" to-layer="47" to-port="0"/>
		<edge from-layer="46" from-port="0" to-layer="47" to-port="1"/>
		<edge from-layer="41" from-port="1" to-layer="48" to-port="0"/>
		<edge from-layer="47" from-port="2" to-layer="48" to-port="1"/>
		<edge from-layer="48" from-port="2" to-layer="50" to-port="0"/>
		<edge from-layer="49" from-port="0" to-layer="50" to-port="1"/>
		<edge from-layer="50" from-port="2" to-layer="51" to-port="0"/>
		<edge from-layer="51" from-port="1" to-layer="56" to-port="0"/>
		<edge from-layer="52" from-port="0" to-layer="56" to-port="1"/>
		<edge from-layer="53" from-port="0" to-layer="56" to-port="2"/>
		<edge from-layer="54" from-port="0" to-layer="56" to-port="3"/>
		<edge from-layer="55" from-port="0" to-layer="56" to-port="4"/>
		<edge from-layer="57" from-port="0" to-layer="58" to-port="0"/>
		<edge from-layer="58" from-port="1" to-layer="60" to-port="0"/>
		<edge from-layer="59" from-port="0" to-layer="60" to-port="1"/>
		<edge from-layer="60" from-port="2" to-layer="62" to-port="0"/>
		<edge from-layer="61" from-port="0" to-layer="62" to-port="1"/>
		<edge from-layer="56" from-port="5" to-layer="63" to-port="0"/>
		<edge from-layer="62" from-port="2" to-layer="63" to-port="1"/>
		<edge from-layer="63" from-port="2" to-layer="65" to-port="0"/>
		<edge from-layer="64" from-port="0" to-layer="65" to-port="1"/>
		<edge from-layer="65" from-port="2" to-layer="66" to-port="0"/>
		<edge from-layer="66" from-port="1" to-layer="71" to-port="0"/>
		<edge from-layer="67" from-port="0" to-layer="71" to-port="1"/>
		<edge from-layer="68" from-port="0" to-layer="71" to-port="2"/>
		<edge from-layer="69" from-port="0" to-layer="71" to-port="3"/>
		<edge from-layer="70" from-port="0" to-layer="71" to-port="4"/>
		<edge from-layer="71" from-port="5" to-layer="72" to-port="0"/>
		<edge from-layer="73" from-port="0" to-layer="74" to-port="0"/>
		<edge from-layer="74" from-port="1" to-layer="76" to-port="0"/>
		<edge from-layer="75" from-port="0" to-layer="76" to-port="1"/>
		<edge from-layer="76" from-port="2" to-layer="78" to-port="0"/>
		<edge from-layer="77" from-port="0" to-layer="78" to-port="1"/>
		<edge from-layer="72" from-port="1" to-layer="79" to-port="0"/>
		<edge from-layer="78" from-port="2" to-layer="79" to-port="1"/>
		<edge from-layer="79" from-port="2" to-layer="81" to-port="0"/>
		<edge from-layer="80" from-port="0" to-layer="81" to-port="1"/>
		<edge from-layer="81" from-port="2" to-layer="82" to-port="0"/>
		<edge from-layer="82" from-port="1" to-layer="87" to-port="0"/>
		<edge from-layer="83" from-port="0" to-layer="87" to-port="1"/>
		<edge from-layer="84" from-port="0" to-layer="87" to-port="2"/>
		<edge from-layer="85" from-port="0" to-layer="87" to-port="3"/>
		<edge from-layer="86" from-port="0" to-layer="87" to-port="4"/>
		<edge from-layer="88" from-port="0" to-layer="89" to-port="0"/>
		<edge from-layer="89" from-port="1" to-layer="91" to-port="0"/>
		<edge from-layer="90" from-port="0" to-layer="91" to-port="1"/>
		<edge from-layer="91" from-port="2" to-layer="93" to-port="0"/>
		<edge from-layer="92" from-port="0" to-layer="93" to-port="1"/>
		<edge from-layer="87" from-port="5" to-layer="94" to-port="0"/>
		<edge from-layer="93" from-port="2" to-layer="94" to-port="1"/>
		<edge from-layer="94" from-port="2" to-layer="96" to-port="0"/>
		<edge from-layer="95" from-port="0" to-layer="96" to-port="1"/>
		<edge from-layer="96" from-port="2" to-layer="97" to-port="0"/>
		<edge from-layer="97" from-port="1" to-layer="102" to-port="0"/>
		<edge from-layer="98" from-port="0" to-layer="102" to-port="1"/>
		<edge from-layer="99" from-port="0" to-layer="102" to-port="2"/>
		<edge from-layer="100" from-port="0" to-layer="102" to-port="3"/>
		<edge from-layer="101" from-port="0" to-layer="102" to-port="4"/>
		<edge from-layer="102" from-port="5" to-layer="103" to-port="0"/>
		<edge from-layer="104" from-port="0" to-layer="105" to-port="0"/>
		<edge from-layer="105" from-port="1" to-layer="107" to-port="0"/>
		<edge from-layer="106" from-port="0" to-layer="107" to-port="1"/>
		<edge from-layer="107" from-port="2" to-layer="109" to-port="0"/>
		<edge from-layer="108" from-port="0" to-layer="109" to-port="1"/>
		<edge from-layer="103" from-port="1" to-layer="110" to-port="0"/>
		<edge from-layer="109" from-port="2" to-layer="110" to-port="1"/>
		<edge from-layer="110" from-port="2" to-layer="112" to-port="0"/>
		<edge from-layer="111" from-port="0" to-layer="112" to-port="1"/>
		<edge from-layer="112" from-port="2" to-layer="113" to-port="0"/>
		<edge from-layer="113" from-port="1" to-layer="115" to-port="0"/>
		<edge from-layer="114" from-port="0" to-layer="115" to-port="1"/>
		<edge from-layer="115" from-port="2" to-layer="117" to-port="0"/>
		<edge from-layer="116" from-port="0" to-layer="117" to-port="1"/>
		<edge from-layer="117" from-port="2" to-layer="120" to-port="0"/>
		<edge from-layer="118" from-port="0" to-layer="120" to-port="1"/>
		<edge from-layer="119" from-port="0" to-layer="120" to-port="2"/>
		<edge from-layer="117" from-port="2" to-layer="123" to-port="0"/>
		<edge from-layer="121" from-port="0" to-layer="123" to-port="1"/>
		<edge from-layer="122" from-port="0" to-layer="123" to-port="2"/>
		<edge from-layer="120" from-port="3" to-layer="124" to-port="0"/>
		<edge from-layer="123" from-port="3" to-layer="124" to-port="1"/>
		<edge from-layer="124" from-port="2" to-layer="127" to-port="0"/>
		<edge from-layer="125" from-port="0" to-layer="127" to-port="1"/>
		<edge from-layer="126" from-port="0" to-layer="127" to-port="2"/>
		<edge from-layer="124" from-port="2" to-layer="130" to-port="0"/>
		<edge from-layer="128" from-port="0" to-layer="130" to-port="1"/>
		<edge from-layer="129" from-port="0" to-layer="130" to-port="2"/>
		<edge from-layer="127" from-port="3" to-layer="131" to-port="0"/>
		<edge from-layer="130" from-port="3" to-layer="131" to-port="1"/>
		<edge from-layer="131" from-port="2" to-layer="134" to-port="0"/>
		<edge from-layer="132" from-port="0" to-layer="134" to-port="1"/>
		<edge from-layer="133" from-port="0" to-layer="134" to-port="2"/>
		<edge from-layer="131" from-port="2" to-layer="137" to-port="0"/>
		<edge from-layer="135" from-port="0" to-layer="137" to-port="1"/>
		<edge from-layer="136" from-port="0" to-layer="137" to-port="2"/>
		<edge from-layer="134" from-port="3" to-layer="138" to-port="0"/>
		<edge from-layer="137" from-port="3" to-layer="138" to-port="1"/>
		<edge from-layer="138" from-port="2" to-layer="141" to-port="0"/>
		<edge from-layer="139" from-port="0" to-layer="141" to-port="1"/>
		<edge from-layer="140" from-port="0" to-layer="141" to-port="2"/>
		<edge from-layer="141" from-port="3" to-layer="146" to-port="0"/>
		<edge from-layer="142" from-port="0" to-layer="146" to-port="1"/>
		<edge from-layer="143" from-port="0" to-layer="146" to-port="2"/>
		<edge from-layer="144" from-port="0" to-layer="146" to-port="3"/>
		<edge from-layer="145" from-port="0" to-layer="146" to-port="4"/>
		<edge from-layer="138" from-port="2" to-layer="149" to-port="0"/>
		<edge from-layer="147" from-port="0" to-layer="149" to-port="1"/>
		<edge from-layer="148" from-port="0" to-layer="149" to-port="2"/>
		<edge from-layer="149" from-port="3" to-layer="154" to-port="0"/>
		<edge from-layer="150" from-port="0" to-layer="154" to-port="1"/>
		<edge from-layer="151" from-port="0" to-layer="154" to-port="2"/>
		<edge from-layer="152" from-port="0" to-layer="154" to-port="3"/>
		<edge from-layer="153" from-port="0" to-layer="154" to-port="4"/>
		<edge from-layer="146" from-port="5" to-layer="155" to-port="0"/>
		<edge from-layer="154" from-port="5" to-layer="155" to-port="1"/>
		<edge from-layer="157" from-port="0" to-layer="158" to-port="0"/>
		<edge from-layer="158" from-port="1" to-layer="161" to-port="0"/>
		<edge from-layer="159" from-port="0" to-layer="161" to-port="1"/>
		<edge from-layer="160" from-port="0" to-layer="161" to-port="2"/>
		<edge from-layer="156" from-port="0" to-layer="162" to-port="0"/>
		<edge from-layer="161" from-port="3" to-layer="162" to-port="1"/>
		<edge from-layer="155" from-port="2" to-layer="163" to-port="0"/>
		<edge from-layer="162" from-port="2" to-layer="163" to-port="1"/>
		<edge from-layer="164" from-port="0" to-layer="165" to-port="0"/>
		<edge from-layer="165" from-port="1" to-layer="167" to-port="0"/>
		<edge from-layer="166" from-port="0" to-layer="167" to-port="1"/>
		<edge from-layer="167" from-port="2" to-layer="169" to-port="0"/>
		<edge from-layer="168" from-port="0" to-layer="169" to-port="1"/>
		<edge from-layer="163" from-port="2" to-layer="170" to-port="0"/>
		<edge from-layer="169" from-port="2" to-layer="170" to-port="1"/>
		<edge from-layer="170" from-port="2" to-layer="172" to-port="0"/>
		<edge from-layer="171" from-port="0" to-layer="172" to-port="1"/>
		<edge from-layer="172" from-port="2" to-layer="174" to-port="0"/>
		<edge from-layer="173" from-port="0" to-layer="174" to-port="1"/>
		<edge from-layer="174" from-port="2" to-layer="176" to-port="0"/>
		<edge from-layer="175" from-port="0" to-layer="176" to-port="1"/>
		<edge from-layer="176" from-port="2" to-layer="177" to-port="0"/>
	</edges>
	<meta_data>
		<MO_version value="unknown version"/>
		<cli_parameters>
			<caffe_parser_path value="DIR"/>
			<data_type value="FP16"/>
			<disable_nhwc_to_nchw value="False"/>
			<disable_omitting_optional value="False"/>
			<disable_resnet_optimization value="False"/>
			<disable_weights_compression value="False"/>
			<enable_concat_optimization value="False"/>
			<enable_flattening_nested_params value="False"/>
			<enable_ssd_gluoncv value="False"/>
			<extensions value="DIR"/>
			<framework value="tf"/>
			<freeze_placeholder_with_value value="{}"/>
			<generate_deprecated_IR_V7 value="False"/>
			<input value="Placeholder"/>
			<input_model value="DIR/graph.pb"/>
			<input_model_is_text value="False"/>
			<input_shape value="[1,32,120,1]"/>
			<k value="DIR/CustomLayersMapping.xml"/>
			<keep_shape_ops value="True"/>
			<legacy_mxnet_model value="False"/>
			<log_level value="ERROR"/>
			<mean_scale_values value="{}"/>
			<mean_values value="()"/>
			<model_name value="text-recognition-0012"/>
			<output value="['shadow/LSTMLayers/transpose_time_major']"/>
			<output_dir value="DIR"/>
			<placeholder_data_types value="{}"/>
			<placeholder_shapes value="{'Placeholder': array([  1,  32, 120,   1])}"/>
			<progress value="False"/>
			<remove_memory value="False"/>
			<remove_output_softmax value="False"/>
			<reverse_input_channels value="True"/>
			<save_params_from_nd value="False"/>
			<scale_values value="()"/>
			<silent value="False"/>
			<static_shape value="False"/>
			<stream_output value="False"/>
			<unset unset_cli_parameters="batch, counts, disable_fusing, disable_gfusing, finegrain_fusing, input_checkpoint, input_meta_graph, input_proto, input_symbol, mean_file, mean_file_offsets, move_to_preprocess, nd_prefix_name, pretrained_model_name, saved_model_dir, saved_model_tags, scale, tensorboard_logdir, tensorflow_custom_layer_libraries, tensorflow_custom_operations_config_update, tensorflow_object_detection_api_pipeline_config, tensorflow_use_custom_operations_config, transformations_config"/>
		</cli_parameters>
	</meta_data>
	<quantization_parameters>
		<config>{
		'compression': {
			'algorithms': [
				{
					'name': 'DefaultQuantization',
					'params': {
						'num_samples_for_tuning': 2000,
						'preset': 'performance',
						'stat_subset_size': 300,
						'use_layerwise_tuning': false
					}
				}
			],
			'dump_intermediate_model': true,
			'target_device': 'ANY'
		},
		'engine': {
			'models': [
				{
					'name': 'text-recognition-0012',
					'launchers': [
						{
							'framework': 'dlsdk',
							'adapter': 'beam_search_decoder',
							'device': 'CPU'
						}
					],
					'datasets': [
						{
							'name': 'ICDAR2013',
							'data_source': 'PATH',
							'annotation_conversion': {
								'converter': 'icdar13_recognition',
								'annotation_file': 'PATH'
							},
							'annotation': 'icdar13_recognition.pickle',
							'dataset_meta': 'icdar13_recognition.json',
							'preprocessing': [
								{
									'type': 'bgr_to_gray'
								},
								{
									'type': 'resize',
									'dst_width': 120,
									'dst_height': 32
								}
							],
							'metrics': [
								{
									'type': 'character_recognition_accuracy'
								}
							],
							'_command_line_mapping': {
								'annotation_file': 'PATH'
							}
						}
					]
				}
			],
			'stat_requests_number': null,
			'eval_requests_number': null,
			'type': 'accuracy_checker'
		}
	}</config>
		<version value="1.0"/>
		<cli_params value="{'evaluate': False, 'output_dir': 'PATH', 'direct_dump': True, 'log_level': 'INFO', 'pbar': False, 'stream_output': False, 'keep_uncompressed_weights': False}"/>
	</quantization_parameters>
</net>
