<?xml version="1.0" ?>
<net name="text-detection-0003" version="10">
	<layers>
		<layer id="0" name="Placeholder" type="Parameter" version="opset1">
			<data element_type="f16" shape="1,3,768,1280"/>
			<output>
				<port id="0" names="Placeholder:0" precision="FP16">
					<dim>1</dim>
					<dim>3</dim>
					<dim>768</dim>
					<dim>1280</dim>
				</port>
			</output>
		</layer>
		<layer id="1" name="Placeholder/reverse_input_channels28330/Concat28349_const483_const" type="Const" version="opset1">
			<data element_type="f16" offset="0" shape="1,3,1,1" size="6"/>
			<output>
				<port id="0" precision="FP16">
					<dim>1</dim>
					<dim>3</dim>
					<dim>1</dim>
					<dim>1</dim>
				</port>
			</output>
		</layer>
		<layer id="2" name="model/data_bn/FusedBatchNorm/mean/Fused_Mul_" type="Multiply" version="opset1">
			<data auto_broadcast="numpy"/>
			<input>
				<port id="0">
					<dim>1</dim>
					<dim>3</dim>
					<dim>768</dim>
					<dim>1280</dim>
				</port>
				<port id="1">
					<dim>1</dim>
					<dim>3</dim>
					<dim>1</dim>
					<dim>1</dim>
				</port>
			</input>
			<output>
				<port id="2" precision="FP16">
					<dim>1</dim>
					<dim>3</dim>
					<dim>768</dim>
					<dim>1280</dim>
				</port>
			</output>
		</layer>
		<layer id="3" name="Placeholder/reverse_input_channels28332/Concat28357_const485_const" type="Const" version="opset1">
			<data element_type="f16" offset="6" shape="1,3,1,1" size="6"/>
			<output>
				<port id="0" precision="FP16">
					<dim>1</dim>
					<dim>3</dim>
					<dim>1</dim>
					<dim>1</dim>
				</port>
			</output>
		</layer>
		<layer id="4" name="model/data_bn/FusedBatchNorm/variance/Fused_Add_" type="Add" version="opset1">
			<data auto_broadcast="numpy"/>
			<input>
				<port id="0">
					<dim>1</dim>
					<dim>3</dim>
					<dim>768</dim>
					<dim>1280</dim>
				</port>
				<port id="1">
					<dim>1</dim>
					<dim>3</dim>
					<dim>1</dim>
					<dim>1</dim>
				</port>
			</input>
			<output>
				<port id="2" names="model/data_bn/FusedBatchNorm:0" precision="FP16">
					<dim>1</dim>
					<dim>3</dim>
					<dim>768</dim>
					<dim>1280</dim>
				</port>
			</output>
		</layer>
		<layer id="5" name="32233227_const" type="Const" version="opset1">
			<data element_type="f16" offset="12" shape="" size="2"/>
			<output>
				<port id="0" precision="FP16"/>
			</output>
		</layer>
		<layer id="6" name="32243228_const" type="Const" version="opset1">
			<data element_type="f16" offset="14" shape="" size="2"/>
			<output>
				<port id="0" precision="FP16"/>
			</output>
		</layer>
		<layer id="7" name="32253229_const" type="Const" version="opset1">
			<data element_type="f16" offset="12" shape="" size="2"/>
			<output>
				<port id="0" precision="FP16"/>
			</output>
		</layer>
		<layer id="8" name="32263230_const" type="Const" version="opset1">
			<data element_type="f16" offset="14" shape="" size="2"/>
			<output>
				<port id="0" precision="FP16"/>
			</output>
		</layer>
		<layer id="9" name="model/conv2d/Conv2D/fq_input_0" type="FakeQuantize" version="opset1">
			<data auto_broadcast="numpy" levels="256"/>
			<input>
				<port id="0">
					<dim>1</dim>
					<dim>3</dim>
					<dim>768</dim>
					<dim>1280</dim>
				</port>
				<port id="1"/>
				<port id="2"/>
				<port id="3"/>
				<port id="4"/>
			</input>
			<output>
				<port id="5" precision="FP16">
					<dim>1</dim>
					<dim>3</dim>
					<dim>768</dim>
					<dim>1280</dim>
				</port>
			</output>
		</layer>
		<layer id="10" name="Placeholder/reverse_input_channels/Concat28341_const4876594/quantized8617_const" type="Const" version="opset1">
			<data element_type="i8" offset="16" shape="32,3,3,3" size="864"/>
			<output>
				<port id="0" precision="I8">
					<dim>32</dim>
					<dim>3</dim>
					<dim>3</dim>
					<dim>3</dim>
				</port>
			</output>
		</layer>
		<layer id="11" name="Placeholder/reverse_input_channels/Concat28341_const4876594/quantized/to_f16" type="Convert" version="opset1">
			<data destination_type="f16"/>
			<input>
				<port id="0">
					<dim>32</dim>
					<dim>3</dim>
					<dim>3</dim>
					<dim>3</dim>
				</port>
			</input>
			<output>
				<port id="1" precision="FP16">
					<dim>32</dim>
					<dim>3</dim>
					<dim>3</dim>
					<dim>3</dim>
				</port>
			</output>
		</layer>
		<layer id="12" name="model/conv2d/Conv2D/fq_weights_1/zero_point8630_const" type="Const" version="opset1">
			<data element_type="f16" offset="880" shape="32,1,1,1" size="64"/>
			<output>
				<port id="0" precision="FP16">
					<dim>32</dim>
					<dim>1</dim>
					<dim>1</dim>
					<dim>1</dim>
				</port>
			</output>
		</layer>
		<layer id="13" name="model/conv2d/Conv2D/fq_weights_1/minus_zp" type="Subtract" version="opset1">
			<data auto_broadcast="numpy"/>
			<input>
				<port id="0">
					<dim>32</dim>
					<dim>3</dim>
					<dim>3</dim>
					<dim>3</dim>
				</port>
				<port id="1">
					<dim>32</dim>
					<dim>1</dim>
					<dim>1</dim>
					<dim>1</dim>
				</port>
			</input>
			<output>
				<port id="2" precision="FP16">
					<dim>32</dim>
					<dim>3</dim>
					<dim>3</dim>
					<dim>3</dim>
				</port>
			</output>
		</layer>
		<layer id="14" name="model/conv2d/Conv2D/fq_weights_1/scale8625_const" type="Const" version="opset1">
			<data element_type="f16" offset="944" shape="32,1,1,1" size="64"/>
			<output>
				<port id="0" precision="FP16">
					<dim>32</dim>
					<dim>1</dim>
					<dim>1</dim>
					<dim>1</dim>
				</port>
			</output>
		</layer>
		<layer id="15" name="model/conv2d/Conv2D/fq_weights_1/mulpiply_by_scale" type="Multiply" version="opset1">
			<data auto_broadcast="numpy"/>
			<input>
				<port id="0">
					<dim>32</dim>
					<dim>3</dim>
					<dim>3</dim>
					<dim>3</dim>
				</port>
				<port id="1">
					<dim>32</dim>
					<dim>1</dim>
					<dim>1</dim>
					<dim>1</dim>
				</port>
			</input>
			<output>
				<port id="2" precision="FP16">
					<dim>32</dim>
					<dim>3</dim>
					<dim>3</dim>
					<dim>3</dim>
				</port>
			</output>
		</layer>
		<layer id="16" name="model/conv2d/Conv2D" type="Convolution" version="opset1">
			<data auto_pad="same_upper" dilations="1,1" pads_begin="0,0" pads_end="0,0" strides="2,2"/>
			<input>
				<port id="0">
					<dim>1</dim>
					<dim>3</dim>
					<dim>768</dim>
					<dim>1280</dim>
				</port>
				<port id="1">
					<dim>32</dim>
					<dim>3</dim>
					<dim>3</dim>
					<dim>3</dim>
				</port>
			</input>
			<output>
				<port id="2" precision="FP16">
					<dim>1</dim>
					<dim>32</dim>
					<dim>384</dim>
					<dim>640</dim>
				</port>
			</output>
		</layer>
		<layer id="17" name="data_add_165421654717174/EltwiseUnsqueeze17326_const489_const" type="Const" version="opset1">
			<data element_type="f16" offset="1008" shape="1,32,1,1" size="64"/>
			<output>
				<port id="0" precision="FP16">
					<dim>1</dim>
					<dim>32</dim>
					<dim>1</dim>
					<dim>1</dim>
				</port>
			</output>
		</layer>
		<layer id="18" name="model/conv2d/BiasAdd/Add/Fused_Add_" type="Add" version="opset1">
			<data auto_broadcast="numpy"/>
			<input>
				<port id="0">
					<dim>1</dim>
					<dim>32</dim>
					<dim>384</dim>
					<dim>640</dim>
				</port>
				<port id="1">
					<dim>1</dim>
					<dim>32</dim>
					<dim>1</dim>
					<dim>1</dim>
				</port>
			</input>
			<output>
				<port id="2" names="model/batch_normalization/FusedBatchNorm:0" precision="FP16">
					<dim>1</dim>
					<dim>32</dim>
					<dim>384</dim>
					<dim>640</dim>
				</port>
			</output>
		</layer>
		<layer id="19" name="model/re_lu/Relu6" type="Clamp" version="opset1">
			<data max="6.0" min="0.0"/>
			<input>
				<port id="0">
					<dim>1</dim>
					<dim>32</dim>
					<dim>384</dim>
					<dim>640</dim>
				</port>
			</input>
			<output>
				<port id="1" names="model/re_lu/Relu6:0" precision="FP16">
					<dim>1</dim>
					<dim>32</dim>
					<dim>384</dim>
					<dim>640</dim>
				</port>
			</output>
		</layer>
		<layer id="20" name="34333437_const" type="Const" version="opset1">
			<data element_type="f16" offset="1072" shape="" size="2"/>
			<output>
				<port id="0" precision="FP16"/>
			</output>
		</layer>
		<layer id="21" name="34343438_const" type="Const" version="opset1">
			<data element_type="f16" offset="1074" shape="" size="2"/>
			<output>
				<port id="0" precision="FP16"/>
			</output>
		</layer>
		<layer id="22" name="34353439_const" type="Const" version="opset1">
			<data element_type="f16" offset="1072" shape="" size="2"/>
			<output>
				<port id="0" precision="FP16"/>
			</output>
		</layer>
		<layer id="23" name="34363440_const" type="Const" version="opset1">
			<data element_type="f16" offset="1074" shape="" size="2"/>
			<output>
				<port id="0" precision="FP16"/>
			</output>
		</layer>
		<layer id="24" name="model/conv2d_1/Conv2D/fq_input_0" type="FakeQuantize" version="opset1">
			<data auto_broadcast="numpy" levels="256"/>
			<input>
				<port id="0">
					<dim>1</dim>
					<dim>32</dim>
					<dim>384</dim>
					<dim>640</dim>
				</port>
				<port id="1"/>
				<port id="2"/>
				<port id="3"/>
				<port id="4"/>
			</input>
			<output>
				<port id="5" precision="FP16">
					<dim>1</dim>
					<dim>32</dim>
					<dim>384</dim>
					<dim>640</dim>
				</port>
			</output>
		</layer>
		<layer id="25" name="model/conv2d_1/Conv2D/Transpose21504_const4926596/quantized8857_const" type="Const" version="opset1">
			<data element_type="i8" offset="1076" shape="32,32,1,1" size="1024"/>
			<output>
				<port id="0" precision="I8">
					<dim>32</dim>
					<dim>32</dim>
					<dim>1</dim>
					<dim>1</dim>
				</port>
			</output>
		</layer>
		<layer id="26" name="model/conv2d_1/Conv2D/Transpose21504_const4926596/quantized/to_f16" type="Convert" version="opset1">
			<data destination_type="f16"/>
			<input>
				<port id="0">
					<dim>32</dim>
					<dim>32</dim>
					<dim>1</dim>
					<dim>1</dim>
				</port>
			</input>
			<output>
				<port id="1" precision="FP16">
					<dim>32</dim>
					<dim>32</dim>
					<dim>1</dim>
					<dim>1</dim>
				</port>
			</output>
		</layer>
		<layer id="27" name="model/conv2d_1/Conv2D/fq_weights_1/zero_point8870_const" type="Const" version="opset1">
			<data element_type="f16" offset="2100" shape="32,1,1,1" size="64"/>
			<output>
				<port id="0" precision="FP16">
					<dim>32</dim>
					<dim>1</dim>
					<dim>1</dim>
					<dim>1</dim>
				</port>
			</output>
		</layer>
		<layer id="28" name="model/conv2d_1/Conv2D/fq_weights_1/minus_zp" type="Subtract" version="opset1">
			<data auto_broadcast="numpy"/>
			<input>
				<port id="0">
					<dim>32</dim>
					<dim>32</dim>
					<dim>1</dim>
					<dim>1</dim>
				</port>
				<port id="1">
					<dim>32</dim>
					<dim>1</dim>
					<dim>1</dim>
					<dim>1</dim>
				</port>
			</input>
			<output>
				<port id="2" precision="FP16">
					<dim>32</dim>
					<dim>32</dim>
					<dim>1</dim>
					<dim>1</dim>
				</port>
			</output>
		</layer>
		<layer id="29" name="model/conv2d_1/Conv2D/fq_weights_1/scale8865_const" type="Const" version="opset1">
			<data element_type="f16" offset="2164" shape="32,1,1,1" size="64"/>
			<output>
				<port id="0" precision="FP16">
					<dim>32</dim>
					<dim>1</dim>
					<dim>1</dim>
					<dim>1</dim>
				</port>
			</output>
		</layer>
		<layer id="30" name="model/conv2d_1/Conv2D/fq_weights_1/mulpiply_by_scale" type="Multiply" version="opset1">
			<data auto_broadcast="numpy"/>
			<input>
				<port id="0">
					<dim>32</dim>
					<dim>32</dim>
					<dim>1</dim>
					<dim>1</dim>
				</port>
				<port id="1">
					<dim>32</dim>
					<dim>1</dim>
					<dim>1</dim>
					<dim>1</dim>
				</port>
			</input>
			<output>
				<port id="2" precision="FP16">
					<dim>32</dim>
					<dim>32</dim>
					<dim>1</dim>
					<dim>1</dim>
				</port>
			</output>
		</layer>
		<layer id="31" name="model/conv2d_1/Conv2D" type="Convolution" version="opset1">
			<data auto_pad="same_upper" dilations="1,1" pads_begin="0,0" pads_end="0,0" strides="1,1"/>
			<input>
				<port id="0">
					<dim>1</dim>
					<dim>32</dim>
					<dim>384</dim>
					<dim>640</dim>
				</port>
				<port id="1">
					<dim>32</dim>
					<dim>32</dim>
					<dim>1</dim>
					<dim>1</dim>
				</port>
			</input>
			<output>
				<port id="2" precision="FP16">
					<dim>1</dim>
					<dim>32</dim>
					<dim>384</dim>
					<dim>640</dim>
				</port>
			</output>
		</layer>
		<layer id="32" name="data_add_165501655517176/EltwiseUnsqueeze17334_const494_const" type="Const" version="opset1">
			<data element_type="f16" offset="2228" shape="1,32,1,1" size="64"/>
			<output>
				<port id="0" precision="FP16">
					<dim>1</dim>
					<dim>32</dim>
					<dim>1</dim>
					<dim>1</dim>
				</port>
			</output>
		</layer>
		<layer id="33" name="model/conv2d_1/BiasAdd/Add/Fused_Add_" type="Add" version="opset1">
			<data auto_broadcast="numpy"/>
			<input>
				<port id="0">
					<dim>1</dim>
					<dim>32</dim>
					<dim>384</dim>
					<dim>640</dim>
				</port>
				<port id="1">
					<dim>1</dim>
					<dim>32</dim>
					<dim>1</dim>
					<dim>1</dim>
				</port>
			</input>
			<output>
				<port id="2" names="model/batch_normalization_1/FusedBatchNorm:0" precision="FP16">
					<dim>1</dim>
					<dim>32</dim>
					<dim>384</dim>
					<dim>640</dim>
				</port>
			</output>
		</layer>
		<layer id="34" name="model/re_lu_1/Relu6" type="Clamp" version="opset1">
			<data max="6.0" min="0.0"/>
			<input>
				<port id="0">
					<dim>1</dim>
					<dim>32</dim>
					<dim>384</dim>
					<dim>640</dim>
				</port>
			</input>
			<output>
				<port id="1" names="model/re_lu_1/Relu6:0" precision="FP16">
					<dim>1</dim>
					<dim>32</dim>
					<dim>384</dim>
					<dim>640</dim>
				</port>
			</output>
		</layer>
		<layer id="35" name="22732277_const" type="Const" version="opset1">
			<data element_type="f16" offset="2292" shape="1,32,1,1" size="64"/>
			<output>
				<port id="0" precision="FP16">
					<dim>1</dim>
					<dim>32</dim>
					<dim>1</dim>
					<dim>1</dim>
				</port>
			</output>
		</layer>
		<layer id="36" name="22742278_const" type="Const" version="opset1">
			<data element_type="f16" offset="2356" shape="1,32,1,1" size="64"/>
			<output>
				<port id="0" precision="FP16">
					<dim>1</dim>
					<dim>32</dim>
					<dim>1</dim>
					<dim>1</dim>
				</port>
			</output>
		</layer>
		<layer id="37" name="22752279_const" type="Const" version="opset1">
			<data element_type="f16" offset="2292" shape="1,32,1,1" size="64"/>
			<output>
				<port id="0" precision="FP16">
					<dim>1</dim>
					<dim>32</dim>
					<dim>1</dim>
					<dim>1</dim>
				</port>
			</output>
		</layer>
		<layer id="38" name="22762280_const" type="Const" version="opset1">
			<data element_type="f16" offset="2356" shape="1,32,1,1" size="64"/>
			<output>
				<port id="0" precision="FP16">
					<dim>1</dim>
					<dim>32</dim>
					<dim>1</dim>
					<dim>1</dim>
				</port>
			</output>
		</layer>
		<layer id="39" name="model/separable_conv2d/separable_conv2d/depthwise/fq_input_0" type="FakeQuantize" version="opset1">
			<data auto_broadcast="numpy" levels="256"/>
			<input>
				<port id="0">
					<dim>1</dim>
					<dim>32</dim>
					<dim>384</dim>
					<dim>640</dim>
				</port>
				<port id="1">
					<dim>1</dim>
					<dim>32</dim>
					<dim>1</dim>
					<dim>1</dim>
				</port>
				<port id="2">
					<dim>1</dim>
					<dim>32</dim>
					<dim>1</dim>
					<dim>1</dim>
				</port>
				<port id="3">
					<dim>1</dim>
					<dim>32</dim>
					<dim>1</dim>
					<dim>1</dim>
				</port>
				<port id="4">
					<dim>1</dim>
					<dim>32</dim>
					<dim>1</dim>
					<dim>1</dim>
				</port>
			</input>
			<output>
				<port id="5" precision="FP16">
					<dim>1</dim>
					<dim>32</dim>
					<dim>384</dim>
					<dim>640</dim>
				</port>
			</output>
		</layer>
		<layer id="40" name="2929629299_const4976598/quantized8065_const" type="Const" version="opset1">
			<data element_type="i8" offset="2420" shape="32,1,3,3" size="288"/>
			<output>
				<port id="0" precision="I8">
					<dim>32</dim>
					<dim>1</dim>
					<dim>3</dim>
					<dim>3</dim>
				</port>
			</output>
		</layer>
		<layer id="41" name="2929629299_const4976598/quantized/to_f16" type="Convert" version="opset1">
			<data destination_type="f16"/>
			<input>
				<port id="0">
					<dim>32</dim>
					<dim>1</dim>
					<dim>3</dim>
					<dim>3</dim>
				</port>
			</input>
			<output>
				<port id="1" precision="FP16">
					<dim>32</dim>
					<dim>1</dim>
					<dim>3</dim>
					<dim>3</dim>
				</port>
			</output>
		</layer>
		<layer id="42" name="model/separable_conv2d/separable_conv2d/depthwise/fq_weights_1/zero_point8078_const" type="Const" version="opset1">
			<data element_type="f16" offset="2708" shape="32,1,1,1" size="64"/>
			<output>
				<port id="0" precision="FP16">
					<dim>32</dim>
					<dim>1</dim>
					<dim>1</dim>
					<dim>1</dim>
				</port>
			</output>
		</layer>
		<layer id="43" name="model/separable_conv2d/separable_conv2d/depthwise/fq_weights_1/minus_zp" type="Subtract" version="opset1">
			<data auto_broadcast="numpy"/>
			<input>
				<port id="0">
					<dim>32</dim>
					<dim>1</dim>
					<dim>3</dim>
					<dim>3</dim>
				</port>
				<port id="1">
					<dim>32</dim>
					<dim>1</dim>
					<dim>1</dim>
					<dim>1</dim>
				</port>
			</input>
			<output>
				<port id="2" precision="FP16">
					<dim>32</dim>
					<dim>1</dim>
					<dim>3</dim>
					<dim>3</dim>
				</port>
			</output>
		</layer>
		<layer id="44" name="model/separable_conv2d/separable_conv2d/depthwise/fq_weights_1/scale8073_const" type="Const" version="opset1">
			<data element_type="f16" offset="2772" shape="32,1,1,1" size="64"/>
			<output>
				<port id="0" precision="FP16">
					<dim>32</dim>
					<dim>1</dim>
					<dim>1</dim>
					<dim>1</dim>
				</port>
			</output>
		</layer>
		<layer id="45" name="model/separable_conv2d/separable_conv2d/depthwise/fq_weights_1/mulpiply_by_scale" type="Multiply" version="opset1">
			<data auto_broadcast="numpy"/>
			<input>
				<port id="0">
					<dim>32</dim>
					<dim>1</dim>
					<dim>3</dim>
					<dim>3</dim>
				</port>
				<port id="1">
					<dim>32</dim>
					<dim>1</dim>
					<dim>1</dim>
					<dim>1</dim>
				</port>
			</input>
			<output>
				<port id="2" precision="FP16">
					<dim>32</dim>
					<dim>1</dim>
					<dim>3</dim>
					<dim>3</dim>
				</port>
			</output>
		</layer>
		<layer id="46" name="11154/value11156_const" type="Const" version="opset1">
			<data element_type="i64" offset="2836" shape="5" size="40"/>
			<output>
				<port id="0" precision="I64">
					<dim>5</dim>
				</port>
			</output>
		</layer>
		<layer id="47" name="11154" type="Reshape" version="opset1">
			<data special_zero="true"/>
			<input>
				<port id="0">
					<dim>32</dim>
					<dim>1</dim>
					<dim>3</dim>
					<dim>3</dim>
				</port>
				<port id="1">
					<dim>5</dim>
				</port>
			</input>
			<output>
				<port id="2" precision="FP16">
					<dim>32</dim>
					<dim>1</dim>
					<dim>1</dim>
					<dim>3</dim>
					<dim>3</dim>
				</port>
			</output>
		</layer>
		<layer id="48" name="model/separable_conv2d/separable_conv2d/depthwise" type="GroupConvolution" version="opset1">
			<data auto_pad="same_upper" dilations="1,1" pads_begin="0,0" pads_end="0,0" strides="1,1"/>
			<input>
				<port id="0">
					<dim>1</dim>
					<dim>32</dim>
					<dim>384</dim>
					<dim>640</dim>
				</port>
				<port id="1">
					<dim>32</dim>
					<dim>1</dim>
					<dim>1</dim>
					<dim>3</dim>
					<dim>3</dim>
				</port>
			</input>
			<output>
				<port id="2" names="model/separable_conv2d/separable_conv2d/depthwise:0" precision="FP16">
					<dim>1</dim>
					<dim>32</dim>
					<dim>384</dim>
					<dim>640</dim>
				</port>
			</output>
		</layer>
		<layer id="49" name="11741176_const" type="Const" version="opset1">
			<data element_type="f16" offset="2876" shape="1,32,1,1" size="64"/>
			<output>
				<port id="0" precision="FP16">
					<dim>1</dim>
					<dim>32</dim>
					<dim>1</dim>
					<dim>1</dim>
				</port>
			</output>
		</layer>
		<layer id="50" name="model/separable_conv2d/separable_conv2d/depthwise/add_" type="Add" version="opset1">
			<data auto_broadcast="numpy"/>
			<input>
				<port id="0">
					<dim>1</dim>
					<dim>32</dim>
					<dim>384</dim>
					<dim>640</dim>
				</port>
				<port id="1">
					<dim>1</dim>
					<dim>32</dim>
					<dim>1</dim>
					<dim>1</dim>
				</port>
			</input>
			<output>
				<port id="2" precision="FP16">
					<dim>1</dim>
					<dim>32</dim>
					<dim>384</dim>
					<dim>640</dim>
				</port>
			</output>
		</layer>
		<layer id="51" name="33333337_const" type="Const" version="opset1">
			<data element_type="f16" offset="2940" shape="" size="2"/>
			<output>
				<port id="0" precision="FP16"/>
			</output>
		</layer>
		<layer id="52" name="33343338_const" type="Const" version="opset1">
			<data element_type="f16" offset="2942" shape="" size="2"/>
			<output>
				<port id="0" precision="FP16"/>
			</output>
		</layer>
		<layer id="53" name="33353339_const" type="Const" version="opset1">
			<data element_type="f16" offset="2940" shape="" size="2"/>
			<output>
				<port id="0" precision="FP16"/>
			</output>
		</layer>
		<layer id="54" name="33363340_const" type="Const" version="opset1">
			<data element_type="f16" offset="2942" shape="" size="2"/>
			<output>
				<port id="0" precision="FP16"/>
			</output>
		</layer>
		<layer id="55" name="model/separable_conv2d/separable_conv2d/fq_input_0" type="FakeQuantize" version="opset1">
			<data auto_broadcast="numpy" levels="256"/>
			<input>
				<port id="0">
					<dim>1</dim>
					<dim>32</dim>
					<dim>384</dim>
					<dim>640</dim>
				</port>
				<port id="1"/>
				<port id="2"/>
				<port id="3"/>
				<port id="4"/>
			</input>
			<output>
				<port id="5" precision="FP16">
					<dim>1</dim>
					<dim>32</dim>
					<dim>384</dim>
					<dim>640</dim>
				</port>
			</output>
		</layer>
		<layer id="56" name="model/separable_conv2d/separable_conv2d/Transpose21512_const4996599/quantized8545_const" type="Const" version="opset1">
			<data element_type="i8" offset="2944" shape="32,32,1,1" size="1024"/>
			<output>
				<port id="0" precision="I8">
					<dim>32</dim>
					<dim>32</dim>
					<dim>1</dim>
					<dim>1</dim>
				</port>
			</output>
		</layer>
		<layer id="57" name="model/separable_conv2d/separable_conv2d/Transpose21512_const4996599/quantized/to_f16" type="Convert" version="opset1">
			<data destination_type="f16"/>
			<input>
				<port id="0">
					<dim>32</dim>
					<dim>32</dim>
					<dim>1</dim>
					<dim>1</dim>
				</port>
			</input>
			<output>
				<port id="1" precision="FP16">
					<dim>32</dim>
					<dim>32</dim>
					<dim>1</dim>
					<dim>1</dim>
				</port>
			</output>
		</layer>
		<layer id="58" name="model/separable_conv2d/separable_conv2d/fq_weights_1/zero_point8558_const" type="Const" version="opset1">
			<data element_type="f16" offset="3968" shape="32,1,1,1" size="64"/>
			<output>
				<port id="0" precision="FP16">
					<dim>32</dim>
					<dim>1</dim>
					<dim>1</dim>
					<dim>1</dim>
				</port>
			</output>
		</layer>
		<layer id="59" name="model/separable_conv2d/separable_conv2d/fq_weights_1/minus_zp" type="Subtract" version="opset1">
			<data auto_broadcast="numpy"/>
			<input>
				<port id="0">
					<dim>32</dim>
					<dim>32</dim>
					<dim>1</dim>
					<dim>1</dim>
				</port>
				<port id="1">
					<dim>32</dim>
					<dim>1</dim>
					<dim>1</dim>
					<dim>1</dim>
				</port>
			</input>
			<output>
				<port id="2" precision="FP16">
					<dim>32</dim>
					<dim>32</dim>
					<dim>1</dim>
					<dim>1</dim>
				</port>
			</output>
		</layer>
		<layer id="60" name="model/separable_conv2d/separable_conv2d/fq_weights_1/scale8553_const" type="Const" version="opset1">
			<data element_type="f16" offset="4032" shape="32,1,1,1" size="64"/>
			<output>
				<port id="0" precision="FP16">
					<dim>32</dim>
					<dim>1</dim>
					<dim>1</dim>
					<dim>1</dim>
				</port>
			</output>
		</layer>
		<layer id="61" name="model/separable_conv2d/separable_conv2d/fq_weights_1/mulpiply_by_scale" type="Multiply" version="opset1">
			<data auto_broadcast="numpy"/>
			<input>
				<port id="0">
					<dim>32</dim>
					<dim>32</dim>
					<dim>1</dim>
					<dim>1</dim>
				</port>
				<port id="1">
					<dim>32</dim>
					<dim>1</dim>
					<dim>1</dim>
					<dim>1</dim>
				</port>
			</input>
			<output>
				<port id="2" precision="FP16">
					<dim>32</dim>
					<dim>32</dim>
					<dim>1</dim>
					<dim>1</dim>
				</port>
			</output>
		</layer>
		<layer id="62" name="model/separable_conv2d/separable_conv2d" type="Convolution" version="opset1">
			<data auto_pad="valid" dilations="1,1" pads_begin="0,0" pads_end="0,0" strides="1,1"/>
			<input>
				<port id="0">
					<dim>1</dim>
					<dim>32</dim>
					<dim>384</dim>
					<dim>640</dim>
				</port>
				<port id="1">
					<dim>32</dim>
					<dim>32</dim>
					<dim>1</dim>
					<dim>1</dim>
				</port>
			</input>
			<output>
				<port id="2" precision="FP16">
					<dim>1</dim>
					<dim>32</dim>
					<dim>384</dim>
					<dim>640</dim>
				</port>
			</output>
		</layer>
		<layer id="63" name="data_add_165581656317178/EltwiseUnsqueeze17342_const501_const" type="Const" version="opset1">
			<data element_type="f16" offset="4096" shape="1,32,1,1" size="64"/>
			<output>
				<port id="0" precision="FP16">
					<dim>1</dim>
					<dim>32</dim>
					<dim>1</dim>
					<dim>1</dim>
				</port>
			</output>
		</layer>
		<layer id="64" name="model/separable_conv2d/BiasAdd/Add/Fused_Add_" type="Add" version="opset1">
			<data auto_broadcast="numpy"/>
			<input>
				<port id="0">
					<dim>1</dim>
					<dim>32</dim>
					<dim>384</dim>
					<dim>640</dim>
				</port>
				<port id="1">
					<dim>1</dim>
					<dim>32</dim>
					<dim>1</dim>
					<dim>1</dim>
				</port>
			</input>
			<output>
				<port id="2" names="model/batch_normalization_2/FusedBatchNorm:0" precision="FP16">
					<dim>1</dim>
					<dim>32</dim>
					<dim>384</dim>
					<dim>640</dim>
				</port>
			</output>
		</layer>
		<layer id="65" name="model/re_lu_2/Relu6" type="Clamp" version="opset1">
			<data max="6.0" min="0.0"/>
			<input>
				<port id="0">
					<dim>1</dim>
					<dim>32</dim>
					<dim>384</dim>
					<dim>640</dim>
				</port>
			</input>
			<output>
				<port id="1" names="model/re_lu_2/Relu6:0" precision="FP16">
					<dim>1</dim>
					<dim>32</dim>
					<dim>384</dim>
					<dim>640</dim>
				</port>
			</output>
		</layer>
		<layer id="66" name="18231827_const" type="Const" version="opset1">
			<data element_type="f16" offset="1072" shape="" size="2"/>
			<output>
				<port id="0" precision="FP16"/>
			</output>
		</layer>
		<layer id="67" name="18241828_const" type="Const" version="opset1">
			<data element_type="f16" offset="4160" shape="" size="2"/>
			<output>
				<port id="0" precision="FP16"/>
			</output>
		</layer>
		<layer id="68" name="18251829_const" type="Const" version="opset1">
			<data element_type="f16" offset="1072" shape="" size="2"/>
			<output>
				<port id="0" precision="FP16"/>
			</output>
		</layer>
		<layer id="69" name="18261830_const" type="Const" version="opset1">
			<data element_type="f16" offset="4160" shape="" size="2"/>
			<output>
				<port id="0" precision="FP16"/>
			</output>
		</layer>
		<layer id="70" name="model/conv2d_2/Conv2D/fq_input_0" type="FakeQuantize" version="opset1">
			<data auto_broadcast="numpy" levels="256"/>
			<input>
				<port id="0">
					<dim>1</dim>
					<dim>32</dim>
					<dim>384</dim>
					<dim>640</dim>
				</port>
				<port id="1"/>
				<port id="2"/>
				<port id="3"/>
				<port id="4"/>
			</input>
			<output>
				<port id="5" precision="FP16">
					<dim>1</dim>
					<dim>32</dim>
					<dim>384</dim>
					<dim>640</dim>
				</port>
			</output>
		</layer>
		<layer id="71" name="model/conv2d_2/Conv2D/Transpose21516_const5046601/quantized7921_const" type="Const" version="opset1">
			<data element_type="i8" offset="4162" shape="16,32,1,1" size="512"/>
			<output>
				<port id="0" precision="I8">
					<dim>16</dim>
					<dim>32</dim>
					<dim>1</dim>
					<dim>1</dim>
				</port>
			</output>
		</layer>
		<layer id="72" name="model/conv2d_2/Conv2D/Transpose21516_const5046601/quantized/to_f16" type="Convert" version="opset1">
			<data destination_type="f16"/>
			<input>
				<port id="0">
					<dim>16</dim>
					<dim>32</dim>
					<dim>1</dim>
					<dim>1</dim>
				</port>
			</input>
			<output>
				<port id="1" precision="FP16">
					<dim>16</dim>
					<dim>32</dim>
					<dim>1</dim>
					<dim>1</dim>
				</port>
			</output>
		</layer>
		<layer id="73" name="model/conv2d_2/Conv2D/fq_weights_1/zero_point7934_const" type="Const" version="opset1">
			<data element_type="f16" offset="4674" shape="16,1,1,1" size="32"/>
			<output>
				<port id="0" precision="FP16">
					<dim>16</dim>
					<dim>1</dim>
					<dim>1</dim>
					<dim>1</dim>
				</port>
			</output>
		</layer>
		<layer id="74" name="model/conv2d_2/Conv2D/fq_weights_1/minus_zp" type="Subtract" version="opset1">
			<data auto_broadcast="numpy"/>
			<input>
				<port id="0">
					<dim>16</dim>
					<dim>32</dim>
					<dim>1</dim>
					<dim>1</dim>
				</port>
				<port id="1">
					<dim>16</dim>
					<dim>1</dim>
					<dim>1</dim>
					<dim>1</dim>
				</port>
			</input>
			<output>
				<port id="2" precision="FP16">
					<dim>16</dim>
					<dim>32</dim>
					<dim>1</dim>
					<dim>1</dim>
				</port>
			</output>
		</layer>
		<layer id="75" name="model/conv2d_2/Conv2D/fq_weights_1/scale7929_const" type="Const" version="opset1">
			<data element_type="f16" offset="4706" shape="16,1,1,1" size="32"/>
			<output>
				<port id="0" precision="FP16">
					<dim>16</dim>
					<dim>1</dim>
					<dim>1</dim>
					<dim>1</dim>
				</port>
			</output>
		</layer>
		<layer id="76" name="model/conv2d_2/Conv2D/fq_weights_1/mulpiply_by_scale" type="Multiply" version="opset1">
			<data auto_broadcast="numpy"/>
			<input>
				<port id="0">
					<dim>16</dim>
					<dim>32</dim>
					<dim>1</dim>
					<dim>1</dim>
				</port>
				<port id="1">
					<dim>16</dim>
					<dim>1</dim>
					<dim>1</dim>
					<dim>1</dim>
				</port>
			</input>
			<output>
				<port id="2" precision="FP16">
					<dim>16</dim>
					<dim>32</dim>
					<dim>1</dim>
					<dim>1</dim>
				</port>
			</output>
		</layer>
		<layer id="77" name="model/conv2d_2/Conv2D" type="Convolution" version="opset1">
			<data auto_pad="same_upper" dilations="1,1" pads_begin="0,0" pads_end="0,0" strides="1,1"/>
			<input>
				<port id="0">
					<dim>1</dim>
					<dim>32</dim>
					<dim>384</dim>
					<dim>640</dim>
				</port>
				<port id="1">
					<dim>16</dim>
					<dim>32</dim>
					<dim>1</dim>
					<dim>1</dim>
				</port>
			</input>
			<output>
				<port id="2" precision="FP16">
					<dim>1</dim>
					<dim>16</dim>
					<dim>384</dim>
					<dim>640</dim>
				</port>
			</output>
		</layer>
		<layer id="78" name="data_add_165661657117180/EltwiseUnsqueeze17350_const506_const" type="Const" version="opset1">
			<data element_type="f16" offset="4738" shape="1,16,1,1" size="32"/>
			<output>
				<port id="0" precision="FP16">
					<dim>1</dim>
					<dim>16</dim>
					<dim>1</dim>
					<dim>1</dim>
				</port>
			</output>
		</layer>
		<layer id="79" name="model/conv2d_2/BiasAdd/Add/Fused_Add_" type="Add" version="opset1">
			<data auto_broadcast="numpy"/>
			<input>
				<port id="0">
					<dim>1</dim>
					<dim>16</dim>
					<dim>384</dim>
					<dim>640</dim>
				</port>
				<port id="1">
					<dim>1</dim>
					<dim>16</dim>
					<dim>1</dim>
					<dim>1</dim>
				</port>
			</input>
			<output>
				<port id="2" names="model/batch_normalization_3/FusedBatchNorm:0" precision="FP16">
					<dim>1</dim>
					<dim>16</dim>
					<dim>384</dim>
					<dim>640</dim>
				</port>
			</output>
		</layer>
		<layer id="80" name="25932597_const" type="Const" version="opset1">
			<data element_type="f16" offset="4770" shape="" size="2"/>
			<output>
				<port id="0" precision="FP16"/>
			</output>
		</layer>
		<layer id="81" name="25942598_const" type="Const" version="opset1">
			<data element_type="f16" offset="4772" shape="" size="2"/>
			<output>
				<port id="0" precision="FP16"/>
			</output>
		</layer>
		<layer id="82" name="25952599_const" type="Const" version="opset1">
			<data element_type="f16" offset="4770" shape="" size="2"/>
			<output>
				<port id="0" precision="FP16"/>
			</output>
		</layer>
		<layer id="83" name="25962600_const" type="Const" version="opset1">
			<data element_type="f16" offset="4772" shape="" size="2"/>
			<output>
				<port id="0" precision="FP16"/>
			</output>
		</layer>
		<layer id="84" name="model/conv2d_3/Conv2D/fq_input_0" type="FakeQuantize" version="opset1">
			<data auto_broadcast="numpy" levels="256"/>
			<input>
				<port id="0">
					<dim>1</dim>
					<dim>16</dim>
					<dim>384</dim>
					<dim>640</dim>
				</port>
				<port id="1"/>
				<port id="2"/>
				<port id="3"/>
				<port id="4"/>
			</input>
			<output>
				<port id="5" precision="FP16">
					<dim>1</dim>
					<dim>16</dim>
					<dim>384</dim>
					<dim>640</dim>
				</port>
			</output>
		</layer>
		<layer id="85" name="model/conv2d_3/Conv2D/Transpose21520_const5086603/quantized8737_const" type="Const" version="opset1">
			<data element_type="i8" offset="4774" shape="96,16,1,1" size="1536"/>
			<output>
				<port id="0" precision="I8">
					<dim>96</dim>
					<dim>16</dim>
					<dim>1</dim>
					<dim>1</dim>
				</port>
			</output>
		</layer>
		<layer id="86" name="model/conv2d_3/Conv2D/Transpose21520_const5086603/quantized/to_f16" type="Convert" version="opset1">
			<data destination_type="f16"/>
			<input>
				<port id="0">
					<dim>96</dim>
					<dim>16</dim>
					<dim>1</dim>
					<dim>1</dim>
				</port>
			</input>
			<output>
				<port id="1" precision="FP16">
					<dim>96</dim>
					<dim>16</dim>
					<dim>1</dim>
					<dim>1</dim>
				</port>
			</output>
		</layer>
		<layer id="87" name="model/conv2d_3/Conv2D/fq_weights_1/zero_point8750_const" type="Const" version="opset1">
			<data element_type="f16" offset="6310" shape="96,1,1,1" size="192"/>
			<output>
				<port id="0" precision="FP16">
					<dim>96</dim>
					<dim>1</dim>
					<dim>1</dim>
					<dim>1</dim>
				</port>
			</output>
		</layer>
		<layer id="88" name="model/conv2d_3/Conv2D/fq_weights_1/minus_zp" type="Subtract" version="opset1">
			<data auto_broadcast="numpy"/>
			<input>
				<port id="0">
					<dim>96</dim>
					<dim>16</dim>
					<dim>1</dim>
					<dim>1</dim>
				</port>
				<port id="1">
					<dim>96</dim>
					<dim>1</dim>
					<dim>1</dim>
					<dim>1</dim>
				</port>
			</input>
			<output>
				<port id="2" precision="FP16">
					<dim>96</dim>
					<dim>16</dim>
					<dim>1</dim>
					<dim>1</dim>
				</port>
			</output>
		</layer>
		<layer id="89" name="model/conv2d_3/Conv2D/fq_weights_1/scale8745_const" type="Const" version="opset1">
			<data element_type="f16" offset="6502" shape="96,1,1,1" size="192"/>
			<output>
				<port id="0" precision="FP16">
					<dim>96</dim>
					<dim>1</dim>
					<dim>1</dim>
					<dim>1</dim>
				</port>
			</output>
		</layer>
		<layer id="90" name="model/conv2d_3/Conv2D/fq_weights_1/mulpiply_by_scale" type="Multiply" version="opset1">
			<data auto_broadcast="numpy"/>
			<input>
				<port id="0">
					<dim>96</dim>
					<dim>16</dim>
					<dim>1</dim>
					<dim>1</dim>
				</port>
				<port id="1">
					<dim>96</dim>
					<dim>1</dim>
					<dim>1</dim>
					<dim>1</dim>
				</port>
			</input>
			<output>
				<port id="2" precision="FP16">
					<dim>96</dim>
					<dim>16</dim>
					<dim>1</dim>
					<dim>1</dim>
				</port>
			</output>
		</layer>
		<layer id="91" name="model/conv2d_3/Conv2D" type="Convolution" version="opset1">
			<data auto_pad="same_upper" dilations="1,1" pads_begin="0,0" pads_end="0,0" strides="1,1"/>
			<input>
				<port id="0">
					<dim>1</dim>
					<dim>16</dim>
					<dim>384</dim>
					<dim>640</dim>
				</port>
				<port id="1">
					<dim>96</dim>
					<dim>16</dim>
					<dim>1</dim>
					<dim>1</dim>
				</port>
			</input>
			<output>
				<port id="2" precision="FP16">
					<dim>1</dim>
					<dim>96</dim>
					<dim>384</dim>
					<dim>640</dim>
				</port>
			</output>
		</layer>
		<layer id="92" name="data_add_165741657917182/EltwiseUnsqueeze17358_const510_const" type="Const" version="opset1">
			<data element_type="f16" offset="6694" shape="1,96,1,1" size="192"/>
			<output>
				<port id="0" precision="FP16">
					<dim>1</dim>
					<dim>96</dim>
					<dim>1</dim>
					<dim>1</dim>
				</port>
			</output>
		</layer>
		<layer id="93" name="model/conv2d_3/BiasAdd/Add/Fused_Add_" type="Add" version="opset1">
			<data auto_broadcast="numpy"/>
			<input>
				<port id="0">
					<dim>1</dim>
					<dim>96</dim>
					<dim>384</dim>
					<dim>640</dim>
				</port>
				<port id="1">
					<dim>1</dim>
					<dim>96</dim>
					<dim>1</dim>
					<dim>1</dim>
				</port>
			</input>
			<output>
				<port id="2" names="model/batch_normalization_4/FusedBatchNorm:0" precision="FP16">
					<dim>1</dim>
					<dim>96</dim>
					<dim>384</dim>
					<dim>640</dim>
				</port>
			</output>
		</layer>
		<layer id="94" name="model/re_lu_3/Relu6" type="Clamp" version="opset1">
			<data max="6.0" min="0.0"/>
			<input>
				<port id="0">
					<dim>1</dim>
					<dim>96</dim>
					<dim>384</dim>
					<dim>640</dim>
				</port>
			</input>
			<output>
				<port id="1" names="model/re_lu_3/Relu6:0" precision="FP16">
					<dim>1</dim>
					<dim>96</dim>
					<dim>384</dim>
					<dim>640</dim>
				</port>
			</output>
		</layer>
		<layer id="95" name="24732477_const" type="Const" version="opset1">
			<data element_type="f16" offset="6886" shape="1,96,1,1" size="192"/>
			<output>
				<port id="0" precision="FP16">
					<dim>1</dim>
					<dim>96</dim>
					<dim>1</dim>
					<dim>1</dim>
				</port>
			</output>
		</layer>
		<layer id="96" name="24742478_const" type="Const" version="opset1">
			<data element_type="f16" offset="7078" shape="1,96,1,1" size="192"/>
			<output>
				<port id="0" precision="FP16">
					<dim>1</dim>
					<dim>96</dim>
					<dim>1</dim>
					<dim>1</dim>
				</port>
			</output>
		</layer>
		<layer id="97" name="24752479_const" type="Const" version="opset1">
			<data element_type="f16" offset="6886" shape="1,96,1,1" size="192"/>
			<output>
				<port id="0" precision="FP16">
					<dim>1</dim>
					<dim>96</dim>
					<dim>1</dim>
					<dim>1</dim>
				</port>
			</output>
		</layer>
		<layer id="98" name="24762480_const" type="Const" version="opset1">
			<data element_type="f16" offset="7078" shape="1,96,1,1" size="192"/>
			<output>
				<port id="0" precision="FP16">
					<dim>1</dim>
					<dim>96</dim>
					<dim>1</dim>
					<dim>1</dim>
				</port>
			</output>
		</layer>
		<layer id="99" name="model/separable_conv2d_1/separable_conv2d/depthwise/fq_input_0" type="FakeQuantize" version="opset1">
			<data auto_broadcast="numpy" levels="256"/>
			<input>
				<port id="0">
					<dim>1</dim>
					<dim>96</dim>
					<dim>384</dim>
					<dim>640</dim>
				</port>
				<port id="1">
					<dim>1</dim>
					<dim>96</dim>
					<dim>1</dim>
					<dim>1</dim>
				</port>
				<port id="2">
					<dim>1</dim>
					<dim>96</dim>
					<dim>1</dim>
					<dim>1</dim>
				</port>
				<port id="3">
					<dim>1</dim>
					<dim>96</dim>
					<dim>1</dim>
					<dim>1</dim>
				</port>
				<port id="4">
					<dim>1</dim>
					<dim>96</dim>
					<dim>1</dim>
					<dim>1</dim>
				</port>
			</input>
			<output>
				<port id="5" precision="FP16">
					<dim>1</dim>
					<dim>96</dim>
					<dim>384</dim>
					<dim>640</dim>
				</port>
			</output>
		</layer>
		<layer id="100" name="2924429247_const5136605/quantized8089_const" type="Const" version="opset1">
			<data element_type="i8" offset="7270" shape="96,1,3,3" size="864"/>
			<output>
				<port id="0" precision="I8">
					<dim>96</dim>
					<dim>1</dim>
					<dim>3</dim>
					<dim>3</dim>
				</port>
			</output>
		</layer>
		<layer id="101" name="2924429247_const5136605/quantized/to_f16" type="Convert" version="opset1">
			<data destination_type="f16"/>
			<input>
				<port id="0">
					<dim>96</dim>
					<dim>1</dim>
					<dim>3</dim>
					<dim>3</dim>
				</port>
			</input>
			<output>
				<port id="1" precision="FP16">
					<dim>96</dim>
					<dim>1</dim>
					<dim>3</dim>
					<dim>3</dim>
				</port>
			</output>
		</layer>
		<layer id="102" name="model/separable_conv2d_1/separable_conv2d/depthwise/fq_weights_1/zero_point8102_const" type="Const" version="opset1">
			<data element_type="f16" offset="8134" shape="96,1,1,1" size="192"/>
			<output>
				<port id="0" precision="FP16">
					<dim>96</dim>
					<dim>1</dim>
					<dim>1</dim>
					<dim>1</dim>
				</port>
			</output>
		</layer>
		<layer id="103" name="model/separable_conv2d_1/separable_conv2d/depthwise/fq_weights_1/minus_zp" type="Subtract" version="opset1">
			<data auto_broadcast="numpy"/>
			<input>
				<port id="0">
					<dim>96</dim>
					<dim>1</dim>
					<dim>3</dim>
					<dim>3</dim>
				</port>
				<port id="1">
					<dim>96</dim>
					<dim>1</dim>
					<dim>1</dim>
					<dim>1</dim>
				</port>
			</input>
			<output>
				<port id="2" precision="FP16">
					<dim>96</dim>
					<dim>1</dim>
					<dim>3</dim>
					<dim>3</dim>
				</port>
			</output>
		</layer>
		<layer id="104" name="model/separable_conv2d_1/separable_conv2d/depthwise/fq_weights_1/scale8097_const" type="Const" version="opset1">
			<data element_type="f16" offset="8326" shape="96,1,1,1" size="192"/>
			<output>
				<port id="0" precision="FP16">
					<dim>96</dim>
					<dim>1</dim>
					<dim>1</dim>
					<dim>1</dim>
				</port>
			</output>
		</layer>
		<layer id="105" name="model/separable_conv2d_1/separable_conv2d/depthwise/fq_weights_1/mulpiply_by_scale" type="Multiply" version="opset1">
			<data auto_broadcast="numpy"/>
			<input>
				<port id="0">
					<dim>96</dim>
					<dim>1</dim>
					<dim>3</dim>
					<dim>3</dim>
				</port>
				<port id="1">
					<dim>96</dim>
					<dim>1</dim>
					<dim>1</dim>
					<dim>1</dim>
				</port>
			</input>
			<output>
				<port id="2" precision="FP16">
					<dim>96</dim>
					<dim>1</dim>
					<dim>3</dim>
					<dim>3</dim>
				</port>
			</output>
		</layer>
		<layer id="106" name="11118/value11120_const" type="Const" version="opset1">
			<data element_type="i64" offset="8518" shape="5" size="40"/>
			<output>
				<port id="0" precision="I64">
					<dim>5</dim>
				</port>
			</output>
		</layer>
		<layer id="107" name="11118" type="Reshape" version="opset1">
			<data special_zero="true"/>
			<input>
				<port id="0">
					<dim>96</dim>
					<dim>1</dim>
					<dim>3</dim>
					<dim>3</dim>
				</port>
				<port id="1">
					<dim>5</dim>
				</port>
			</input>
			<output>
				<port id="2" precision="FP16">
					<dim>96</dim>
					<dim>1</dim>
					<dim>1</dim>
					<dim>3</dim>
					<dim>3</dim>
				</port>
			</output>
		</layer>
		<layer id="108" name="model/separable_conv2d_1/separable_conv2d/depthwise" type="GroupConvolution" version="opset1">
			<data auto_pad="same_upper" dilations="1,1" pads_begin="0,0" pads_end="0,0" strides="2,2"/>
			<input>
				<port id="0">
					<dim>1</dim>
					<dim>96</dim>
					<dim>384</dim>
					<dim>640</dim>
				</port>
				<port id="1">
					<dim>96</dim>
					<dim>1</dim>
					<dim>1</dim>
					<dim>3</dim>
					<dim>3</dim>
				</port>
			</input>
			<output>
				<port id="2" names="model/separable_conv2d_1/separable_conv2d/depthwise:0" precision="FP16">
					<dim>1</dim>
					<dim>96</dim>
					<dim>192</dim>
					<dim>320</dim>
				</port>
			</output>
		</layer>
		<layer id="109" name="11781180_const" type="Const" version="opset1">
			<data element_type="f16" offset="8558" shape="1,96,1,1" size="192"/>
			<output>
				<port id="0" precision="FP16">
					<dim>1</dim>
					<dim>96</dim>
					<dim>1</dim>
					<dim>1</dim>
				</port>
			</output>
		</layer>
		<layer id="110" name="model/separable_conv2d_1/separable_conv2d/depthwise/add_" type="Add" version="opset1">
			<data auto_broadcast="numpy"/>
			<input>
				<port id="0">
					<dim>1</dim>
					<dim>96</dim>
					<dim>192</dim>
					<dim>320</dim>
				</port>
				<port id="1">
					<dim>1</dim>
					<dim>96</dim>
					<dim>1</dim>
					<dim>1</dim>
				</port>
			</input>
			<output>
				<port id="2" precision="FP16">
					<dim>1</dim>
					<dim>96</dim>
					<dim>192</dim>
					<dim>320</dim>
				</port>
			</output>
		</layer>
		<layer id="111" name="29232927_const" type="Const" version="opset1">
			<data element_type="f16" offset="8750" shape="" size="2"/>
			<output>
				<port id="0" precision="FP16"/>
			</output>
		</layer>
		<layer id="112" name="29242928_const" type="Const" version="opset1">
			<data element_type="f16" offset="8752" shape="" size="2"/>
			<output>
				<port id="0" precision="FP16"/>
			</output>
		</layer>
		<layer id="113" name="29252929_const" type="Const" version="opset1">
			<data element_type="f16" offset="8750" shape="" size="2"/>
			<output>
				<port id="0" precision="FP16"/>
			</output>
		</layer>
		<layer id="114" name="29262930_const" type="Const" version="opset1">
			<data element_type="f16" offset="8752" shape="" size="2"/>
			<output>
				<port id="0" precision="FP16"/>
			</output>
		</layer>
		<layer id="115" name="model/separable_conv2d_1/separable_conv2d/fq_input_0" type="FakeQuantize" version="opset1">
			<data auto_broadcast="numpy" levels="256"/>
			<input>
				<port id="0">
					<dim>1</dim>
					<dim>96</dim>
					<dim>192</dim>
					<dim>320</dim>
				</port>
				<port id="1"/>
				<port id="2"/>
				<port id="3"/>
				<port id="4"/>
			</input>
			<output>
				<port id="5" precision="FP16">
					<dim>1</dim>
					<dim>96</dim>
					<dim>192</dim>
					<dim>320</dim>
				</port>
			</output>
		</layer>
		<layer id="116" name="model/separable_conv2d_1/separable_conv2d/Transpose21528_const5156606/quantized8665_const" type="Const" version="opset1">
			<data element_type="i8" offset="8754" shape="96,96,1,1" size="9216"/>
			<output>
				<port id="0" precision="I8">
					<dim>96</dim>
					<dim>96</dim>
					<dim>1</dim>
					<dim>1</dim>
				</port>
			</output>
		</layer>
		<layer id="117" name="model/separable_conv2d_1/separable_conv2d/Transpose21528_const5156606/quantized/to_f16" type="Convert" version="opset1">
			<data destination_type="f16"/>
			<input>
				<port id="0">
					<dim>96</dim>
					<dim>96</dim>
					<dim>1</dim>
					<dim>1</dim>
				</port>
			</input>
			<output>
				<port id="1" precision="FP16">
					<dim>96</dim>
					<dim>96</dim>
					<dim>1</dim>
					<dim>1</dim>
				</port>
			</output>
		</layer>
		<layer id="118" name="model/separable_conv2d_1/separable_conv2d/fq_weights_1/zero_point8678_const" type="Const" version="opset1">
			<data element_type="f16" offset="17970" shape="96,1,1,1" size="192"/>
			<output>
				<port id="0" precision="FP16">
					<dim>96</dim>
					<dim>1</dim>
					<dim>1</dim>
					<dim>1</dim>
				</port>
			</output>
		</layer>
		<layer id="119" name="model/separable_conv2d_1/separable_conv2d/fq_weights_1/minus_zp" type="Subtract" version="opset1">
			<data auto_broadcast="numpy"/>
			<input>
				<port id="0">
					<dim>96</dim>
					<dim>96</dim>
					<dim>1</dim>
					<dim>1</dim>
				</port>
				<port id="1">
					<dim>96</dim>
					<dim>1</dim>
					<dim>1</dim>
					<dim>1</dim>
				</port>
			</input>
			<output>
				<port id="2" precision="FP16">
					<dim>96</dim>
					<dim>96</dim>
					<dim>1</dim>
					<dim>1</dim>
				</port>
			</output>
		</layer>
		<layer id="120" name="model/separable_conv2d_1/separable_conv2d/fq_weights_1/scale8673_const" type="Const" version="opset1">
			<data element_type="f16" offset="18162" shape="96,1,1,1" size="192"/>
			<output>
				<port id="0" precision="FP16">
					<dim>96</dim>
					<dim>1</dim>
					<dim>1</dim>
					<dim>1</dim>
				</port>
			</output>
		</layer>
		<layer id="121" name="model/separable_conv2d_1/separable_conv2d/fq_weights_1/mulpiply_by_scale" type="Multiply" version="opset1">
			<data auto_broadcast="numpy"/>
			<input>
				<port id="0">
					<dim>96</dim>
					<dim>96</dim>
					<dim>1</dim>
					<dim>1</dim>
				</port>
				<port id="1">
					<dim>96</dim>
					<dim>1</dim>
					<dim>1</dim>
					<dim>1</dim>
				</port>
			</input>
			<output>
				<port id="2" precision="FP16">
					<dim>96</dim>
					<dim>96</dim>
					<dim>1</dim>
					<dim>1</dim>
				</port>
			</output>
		</layer>
		<layer id="122" name="model/separable_conv2d_1/separable_conv2d" type="Convolution" version="opset1">
			<data auto_pad="valid" dilations="1,1" pads_begin="0,0" pads_end="0,0" strides="1,1"/>
			<input>
				<port id="0">
					<dim>1</dim>
					<dim>96</dim>
					<dim>192</dim>
					<dim>320</dim>
				</port>
				<port id="1">
					<dim>96</dim>
					<dim>96</dim>
					<dim>1</dim>
					<dim>1</dim>
				</port>
			</input>
			<output>
				<port id="2" precision="FP16">
					<dim>1</dim>
					<dim>96</dim>
					<dim>192</dim>
					<dim>320</dim>
				</port>
			</output>
		</layer>
		<layer id="123" name="data_add_165821658717184/EltwiseUnsqueeze17366_const517_const" type="Const" version="opset1">
			<data element_type="f16" offset="18354" shape="1,96,1,1" size="192"/>
			<output>
				<port id="0" precision="FP16">
					<dim>1</dim>
					<dim>96</dim>
					<dim>1</dim>
					<dim>1</dim>
				</port>
			</output>
		</layer>
		<layer id="124" name="model/separable_conv2d_1/BiasAdd/Add/Fused_Add_" type="Add" version="opset1">
			<data auto_broadcast="numpy"/>
			<input>
				<port id="0">
					<dim>1</dim>
					<dim>96</dim>
					<dim>192</dim>
					<dim>320</dim>
				</port>
				<port id="1">
					<dim>1</dim>
					<dim>96</dim>
					<dim>1</dim>
					<dim>1</dim>
				</port>
			</input>
			<output>
				<port id="2" names="model/batch_normalization_5/FusedBatchNorm:0" precision="FP16">
					<dim>1</dim>
					<dim>96</dim>
					<dim>192</dim>
					<dim>320</dim>
				</port>
			</output>
		</layer>
		<layer id="125" name="model/re_lu_4/Relu6" type="Clamp" version="opset1">
			<data max="6.0" min="0.0"/>
			<input>
				<port id="0">
					<dim>1</dim>
					<dim>96</dim>
					<dim>192</dim>
					<dim>320</dim>
				</port>
			</input>
			<output>
				<port id="1" names="model/re_lu_4/Relu6:0" precision="FP16">
					<dim>1</dim>
					<dim>96</dim>
					<dim>192</dim>
					<dim>320</dim>
				</port>
			</output>
		</layer>
		<layer id="126" name="25732577_const" type="Const" version="opset1">
			<data element_type="f16" offset="1072" shape="" size="2"/>
			<output>
				<port id="0" precision="FP16"/>
			</output>
		</layer>
		<layer id="127" name="25742578_const" type="Const" version="opset1">
			<data element_type="f16" offset="4160" shape="" size="2"/>
			<output>
				<port id="0" precision="FP16"/>
			</output>
		</layer>
		<layer id="128" name="25752579_const" type="Const" version="opset1">
			<data element_type="f16" offset="1072" shape="" size="2"/>
			<output>
				<port id="0" precision="FP16"/>
			</output>
		</layer>
		<layer id="129" name="25762580_const" type="Const" version="opset1">
			<data element_type="f16" offset="4160" shape="" size="2"/>
			<output>
				<port id="0" precision="FP16"/>
			</output>
		</layer>
		<layer id="130" name="model/conv2d_4/Conv2D/fq_input_0" type="FakeQuantize" version="opset1">
			<data auto_broadcast="numpy" levels="256"/>
			<input>
				<port id="0">
					<dim>1</dim>
					<dim>96</dim>
					<dim>192</dim>
					<dim>320</dim>
				</port>
				<port id="1"/>
				<port id="2"/>
				<port id="3"/>
				<port id="4"/>
			</input>
			<output>
				<port id="5" precision="FP16">
					<dim>1</dim>
					<dim>96</dim>
					<dim>192</dim>
					<dim>320</dim>
				</port>
			</output>
		</layer>
		<layer id="131" name="model/conv2d_4/Conv2D/Transpose21532_const5206608/quantized9025_const" type="Const" version="opset1">
			<data element_type="i8" offset="18546" shape="24,96,1,1" size="2304"/>
			<output>
				<port id="0" precision="I8">
					<dim>24</dim>
					<dim>96</dim>
					<dim>1</dim>
					<dim>1</dim>
				</port>
			</output>
		</layer>
		<layer id="132" name="model/conv2d_4/Conv2D/Transpose21532_const5206608/quantized/to_f16" type="Convert" version="opset1">
			<data destination_type="f16"/>
			<input>
				<port id="0">
					<dim>24</dim>
					<dim>96</dim>
					<dim>1</dim>
					<dim>1</dim>
				</port>
			</input>
			<output>
				<port id="1" precision="FP16">
					<dim>24</dim>
					<dim>96</dim>
					<dim>1</dim>
					<dim>1</dim>
				</port>
			</output>
		</layer>
		<layer id="133" name="model/conv2d_4/Conv2D/fq_weights_1/zero_point9038_const" type="Const" version="opset1">
			<data element_type="f16" offset="20850" shape="24,1,1,1" size="48"/>
			<output>
				<port id="0" precision="FP16">
					<dim>24</dim>
					<dim>1</dim>
					<dim>1</dim>
					<dim>1</dim>
				</port>
			</output>
		</layer>
		<layer id="134" name="model/conv2d_4/Conv2D/fq_weights_1/minus_zp" type="Subtract" version="opset1">
			<data auto_broadcast="numpy"/>
			<input>
				<port id="0">
					<dim>24</dim>
					<dim>96</dim>
					<dim>1</dim>
					<dim>1</dim>
				</port>
				<port id="1">
					<dim>24</dim>
					<dim>1</dim>
					<dim>1</dim>
					<dim>1</dim>
				</port>
			</input>
			<output>
				<port id="2" precision="FP16">
					<dim>24</dim>
					<dim>96</dim>
					<dim>1</dim>
					<dim>1</dim>
				</port>
			</output>
		</layer>
		<layer id="135" name="model/conv2d_4/Conv2D/fq_weights_1/scale9033_const" type="Const" version="opset1">
			<data element_type="f16" offset="20898" shape="24,1,1,1" size="48"/>
			<output>
				<port id="0" precision="FP16">
					<dim>24</dim>
					<dim>1</dim>
					<dim>1</dim>
					<dim>1</dim>
				</port>
			</output>
		</layer>
		<layer id="136" name="model/conv2d_4/Conv2D/fq_weights_1/mulpiply_by_scale" type="Multiply" version="opset1">
			<data auto_broadcast="numpy"/>
			<input>
				<port id="0">
					<dim>24</dim>
					<dim>96</dim>
					<dim>1</dim>
					<dim>1</dim>
				</port>
				<port id="1">
					<dim>24</dim>
					<dim>1</dim>
					<dim>1</dim>
					<dim>1</dim>
				</port>
			</input>
			<output>
				<port id="2" precision="FP16">
					<dim>24</dim>
					<dim>96</dim>
					<dim>1</dim>
					<dim>1</dim>
				</port>
			</output>
		</layer>
		<layer id="137" name="model/conv2d_4/Conv2D" type="Convolution" version="opset1">
			<data auto_pad="same_upper" dilations="1,1" pads_begin="0,0" pads_end="0,0" strides="1,1"/>
			<input>
				<port id="0">
					<dim>1</dim>
					<dim>96</dim>
					<dim>192</dim>
					<dim>320</dim>
				</port>
				<port id="1">
					<dim>24</dim>
					<dim>96</dim>
					<dim>1</dim>
					<dim>1</dim>
				</port>
			</input>
			<output>
				<port id="2" precision="FP16">
					<dim>1</dim>
					<dim>24</dim>
					<dim>192</dim>
					<dim>320</dim>
				</port>
			</output>
		</layer>
		<layer id="138" name="data_add_165901659517186/EltwiseUnsqueeze17374_const522_const" type="Const" version="opset1">
			<data element_type="f16" offset="20946" shape="1,24,1,1" size="48"/>
			<output>
				<port id="0" precision="FP16">
					<dim>1</dim>
					<dim>24</dim>
					<dim>1</dim>
					<dim>1</dim>
				</port>
			</output>
		</layer>
		<layer id="139" name="model/conv2d_4/BiasAdd/Add/Fused_Add_" type="Add" version="opset1">
			<data auto_broadcast="numpy"/>
			<input>
				<port id="0">
					<dim>1</dim>
					<dim>24</dim>
					<dim>192</dim>
					<dim>320</dim>
				</port>
				<port id="1">
					<dim>1</dim>
					<dim>24</dim>
					<dim>1</dim>
					<dim>1</dim>
				</port>
			</input>
			<output>
				<port id="2" names="model/batch_normalization_6/FusedBatchNorm:0" precision="FP16">
					<dim>1</dim>
					<dim>24</dim>
					<dim>192</dim>
					<dim>320</dim>
				</port>
			</output>
		</layer>
		<layer id="140" name="23332337_const" type="Const" version="opset1">
			<data element_type="f16" offset="20994" shape="" size="2"/>
			<output>
				<port id="0" precision="FP16"/>
			</output>
		</layer>
		<layer id="141" name="23342338_const" type="Const" version="opset1">
			<data element_type="f16" offset="20996" shape="" size="2"/>
			<output>
				<port id="0" precision="FP16"/>
			</output>
		</layer>
		<layer id="142" name="23352339_const" type="Const" version="opset1">
			<data element_type="f16" offset="20994" shape="" size="2"/>
			<output>
				<port id="0" precision="FP16"/>
			</output>
		</layer>
		<layer id="143" name="23362340_const" type="Const" version="opset1">
			<data element_type="f16" offset="20996" shape="" size="2"/>
			<output>
				<port id="0" precision="FP16"/>
			</output>
		</layer>
		<layer id="144" name="model/add/add/fq_input_0" type="FakeQuantize" version="opset1">
			<data auto_broadcast="numpy" levels="256"/>
			<input>
				<port id="0">
					<dim>1</dim>
					<dim>24</dim>
					<dim>192</dim>
					<dim>320</dim>
				</port>
				<port id="1"/>
				<port id="2"/>
				<port id="3"/>
				<port id="4"/>
			</input>
			<output>
				<port id="5" precision="FP16">
					<dim>1</dim>
					<dim>24</dim>
					<dim>192</dim>
					<dim>320</dim>
				</port>
			</output>
		</layer>
		<layer id="145" name="model/conv2d_5/Conv2D/Transpose21536_const5246610/quantized7777_const" type="Const" version="opset1">
			<data element_type="i8" offset="20998" shape="144,24,1,1" size="3456"/>
			<output>
				<port id="0" precision="I8">
					<dim>144</dim>
					<dim>24</dim>
					<dim>1</dim>
					<dim>1</dim>
				</port>
			</output>
		</layer>
		<layer id="146" name="model/conv2d_5/Conv2D/Transpose21536_const5246610/quantized/to_f16" type="Convert" version="opset1">
			<data destination_type="f16"/>
			<input>
				<port id="0">
					<dim>144</dim>
					<dim>24</dim>
					<dim>1</dim>
					<dim>1</dim>
				</port>
			</input>
			<output>
				<port id="1" precision="FP16">
					<dim>144</dim>
					<dim>24</dim>
					<dim>1</dim>
					<dim>1</dim>
				</port>
			</output>
		</layer>
		<layer id="147" name="model/conv2d_5/Conv2D/fq_weights_1/zero_point7790_const" type="Const" version="opset1">
			<data element_type="f16" offset="24454" shape="144,1,1,1" size="288"/>
			<output>
				<port id="0" precision="FP16">
					<dim>144</dim>
					<dim>1</dim>
					<dim>1</dim>
					<dim>1</dim>
				</port>
			</output>
		</layer>
		<layer id="148" name="model/conv2d_5/Conv2D/fq_weights_1/minus_zp" type="Subtract" version="opset1">
			<data auto_broadcast="numpy"/>
			<input>
				<port id="0">
					<dim>144</dim>
					<dim>24</dim>
					<dim>1</dim>
					<dim>1</dim>
				</port>
				<port id="1">
					<dim>144</dim>
					<dim>1</dim>
					<dim>1</dim>
					<dim>1</dim>
				</port>
			</input>
			<output>
				<port id="2" precision="FP16">
					<dim>144</dim>
					<dim>24</dim>
					<dim>1</dim>
					<dim>1</dim>
				</port>
			</output>
		</layer>
		<layer id="149" name="model/conv2d_5/Conv2D/fq_weights_1/scale7785_const" type="Const" version="opset1">
			<data element_type="f16" offset="24742" shape="144,1,1,1" size="288"/>
			<output>
				<port id="0" precision="FP16">
					<dim>144</dim>
					<dim>1</dim>
					<dim>1</dim>
					<dim>1</dim>
				</port>
			</output>
		</layer>
		<layer id="150" name="model/conv2d_5/Conv2D/fq_weights_1/mulpiply_by_scale" type="Multiply" version="opset1">
			<data auto_broadcast="numpy"/>
			<input>
				<port id="0">
					<dim>144</dim>
					<dim>24</dim>
					<dim>1</dim>
					<dim>1</dim>
				</port>
				<port id="1">
					<dim>144</dim>
					<dim>1</dim>
					<dim>1</dim>
					<dim>1</dim>
				</port>
			</input>
			<output>
				<port id="2" precision="FP16">
					<dim>144</dim>
					<dim>24</dim>
					<dim>1</dim>
					<dim>1</dim>
				</port>
			</output>
		</layer>
		<layer id="151" name="model/conv2d_5/Conv2D" type="Convolution" version="opset1">
			<data auto_pad="same_upper" dilations="1,1" pads_begin="0,0" pads_end="0,0" strides="1,1"/>
			<input>
				<port id="0">
					<dim>1</dim>
					<dim>24</dim>
					<dim>192</dim>
					<dim>320</dim>
				</port>
				<port id="1">
					<dim>144</dim>
					<dim>24</dim>
					<dim>1</dim>
					<dim>1</dim>
				</port>
			</input>
			<output>
				<port id="2" precision="FP16">
					<dim>1</dim>
					<dim>144</dim>
					<dim>192</dim>
					<dim>320</dim>
				</port>
			</output>
		</layer>
		<layer id="152" name="data_add_165981660317188/EltwiseUnsqueeze17382_const526_const" type="Const" version="opset1">
			<data element_type="f16" offset="25030" shape="1,144,1,1" size="288"/>
			<output>
				<port id="0" precision="FP16">
					<dim>1</dim>
					<dim>144</dim>
					<dim>1</dim>
					<dim>1</dim>
				</port>
			</output>
		</layer>
		<layer id="153" name="model/conv2d_5/BiasAdd/Add/Fused_Add_" type="Add" version="opset1">
			<data auto_broadcast="numpy"/>
			<input>
				<port id="0">
					<dim>1</dim>
					<dim>144</dim>
					<dim>192</dim>
					<dim>320</dim>
				</port>
				<port id="1">
					<dim>1</dim>
					<dim>144</dim>
					<dim>1</dim>
					<dim>1</dim>
				</port>
			</input>
			<output>
				<port id="2" names="model/batch_normalization_7/FusedBatchNorm:0" precision="FP16">
					<dim>1</dim>
					<dim>144</dim>
					<dim>192</dim>
					<dim>320</dim>
				</port>
			</output>
		</layer>
		<layer id="154" name="model/re_lu_5/Relu6" type="Clamp" version="opset1">
			<data max="6.0" min="0.0"/>
			<input>
				<port id="0">
					<dim>1</dim>
					<dim>144</dim>
					<dim>192</dim>
					<dim>320</dim>
				</port>
			</input>
			<output>
				<port id="1" names="model/re_lu_5/Relu6:0" precision="FP16">
					<dim>1</dim>
					<dim>144</dim>
					<dim>192</dim>
					<dim>320</dim>
				</port>
			</output>
		</layer>
		<layer id="155" name="20932097_const" type="Const" version="opset1">
			<data element_type="f16" offset="25318" shape="1,144,1,1" size="288"/>
			<output>
				<port id="0" precision="FP16">
					<dim>1</dim>
					<dim>144</dim>
					<dim>1</dim>
					<dim>1</dim>
				</port>
			</output>
		</layer>
		<layer id="156" name="20942098_const" type="Const" version="opset1">
			<data element_type="f16" offset="25606" shape="1,144,1,1" size="288"/>
			<output>
				<port id="0" precision="FP16">
					<dim>1</dim>
					<dim>144</dim>
					<dim>1</dim>
					<dim>1</dim>
				</port>
			</output>
		</layer>
		<layer id="157" name="20952099_const" type="Const" version="opset1">
			<data element_type="f16" offset="25318" shape="1,144,1,1" size="288"/>
			<output>
				<port id="0" precision="FP16">
					<dim>1</dim>
					<dim>144</dim>
					<dim>1</dim>
					<dim>1</dim>
				</port>
			</output>
		</layer>
		<layer id="158" name="20962100_const" type="Const" version="opset1">
			<data element_type="f16" offset="25606" shape="1,144,1,1" size="288"/>
			<output>
				<port id="0" precision="FP16">
					<dim>1</dim>
					<dim>144</dim>
					<dim>1</dim>
					<dim>1</dim>
				</port>
			</output>
		</layer>
		<layer id="159" name="model/separable_conv2d_2/separable_conv2d/depthwise/fq_input_0" type="FakeQuantize" version="opset1">
			<data auto_broadcast="numpy" levels="256"/>
			<input>
				<port id="0">
					<dim>1</dim>
					<dim>144</dim>
					<dim>192</dim>
					<dim>320</dim>
				</port>
				<port id="1">
					<dim>1</dim>
					<dim>144</dim>
					<dim>1</dim>
					<dim>1</dim>
				</port>
				<port id="2">
					<dim>1</dim>
					<dim>144</dim>
					<dim>1</dim>
					<dim>1</dim>
				</port>
				<port id="3">
					<dim>1</dim>
					<dim>144</dim>
					<dim>1</dim>
					<dim>1</dim>
				</port>
				<port id="4">
					<dim>1</dim>
					<dim>144</dim>
					<dim>1</dim>
					<dim>1</dim>
				</port>
			</input>
			<output>
				<port id="5" precision="FP16">
					<dim>1</dim>
					<dim>144</dim>
					<dim>192</dim>
					<dim>320</dim>
				</port>
			</output>
		</layer>
		<layer id="160" name="2926829271_const5296612/quantized8929_const" type="Const" version="opset1">
			<data element_type="i8" offset="25894" shape="144,1,3,3" size="1296"/>
			<output>
				<port id="0" precision="I8">
					<dim>144</dim>
					<dim>1</dim>
					<dim>3</dim>
					<dim>3</dim>
				</port>
			</output>
		</layer>
		<layer id="161" name="2926829271_const5296612/quantized/to_f16" type="Convert" version="opset1">
			<data destination_type="f16"/>
			<input>
				<port id="0">
					<dim>144</dim>
					<dim>1</dim>
					<dim>3</dim>
					<dim>3</dim>
				</port>
			</input>
			<output>
				<port id="1" precision="FP16">
					<dim>144</dim>
					<dim>1</dim>
					<dim>3</dim>
					<dim>3</dim>
				</port>
			</output>
		</layer>
		<layer id="162" name="model/separable_conv2d_2/separable_conv2d/depthwise/fq_weights_1/zero_point8942_const" type="Const" version="opset1">
			<data element_type="f16" offset="27190" shape="144,1,1,1" size="288"/>
			<output>
				<port id="0" precision="FP16">
					<dim>144</dim>
					<dim>1</dim>
					<dim>1</dim>
					<dim>1</dim>
				</port>
			</output>
		</layer>
		<layer id="163" name="model/separable_conv2d_2/separable_conv2d/depthwise/fq_weights_1/minus_zp" type="Subtract" version="opset1">
			<data auto_broadcast="numpy"/>
			<input>
				<port id="0">
					<dim>144</dim>
					<dim>1</dim>
					<dim>3</dim>
					<dim>3</dim>
				</port>
				<port id="1">
					<dim>144</dim>
					<dim>1</dim>
					<dim>1</dim>
					<dim>1</dim>
				</port>
			</input>
			<output>
				<port id="2" precision="FP16">
					<dim>144</dim>
					<dim>1</dim>
					<dim>3</dim>
					<dim>3</dim>
				</port>
			</output>
		</layer>
		<layer id="164" name="model/separable_conv2d_2/separable_conv2d/depthwise/fq_weights_1/scale8937_const" type="Const" version="opset1">
			<data element_type="f16" offset="27478" shape="144,1,1,1" size="288"/>
			<output>
				<port id="0" precision="FP16">
					<dim>144</dim>
					<dim>1</dim>
					<dim>1</dim>
					<dim>1</dim>
				</port>
			</output>
		</layer>
		<layer id="165" name="model/separable_conv2d_2/separable_conv2d/depthwise/fq_weights_1/mulpiply_by_scale" type="Multiply" version="opset1">
			<data auto_broadcast="numpy"/>
			<input>
				<port id="0">
					<dim>144</dim>
					<dim>1</dim>
					<dim>3</dim>
					<dim>3</dim>
				</port>
				<port id="1">
					<dim>144</dim>
					<dim>1</dim>
					<dim>1</dim>
					<dim>1</dim>
				</port>
			</input>
			<output>
				<port id="2" precision="FP16">
					<dim>144</dim>
					<dim>1</dim>
					<dim>3</dim>
					<dim>3</dim>
				</port>
			</output>
		</layer>
		<layer id="166" name="11146/value11148_const" type="Const" version="opset1">
			<data element_type="i64" offset="27766" shape="5" size="40"/>
			<output>
				<port id="0" precision="I64">
					<dim>5</dim>
				</port>
			</output>
		</layer>
		<layer id="167" name="11146" type="Reshape" version="opset1">
			<data special_zero="true"/>
			<input>
				<port id="0">
					<dim>144</dim>
					<dim>1</dim>
					<dim>3</dim>
					<dim>3</dim>
				</port>
				<port id="1">
					<dim>5</dim>
				</port>
			</input>
			<output>
				<port id="2" precision="FP16">
					<dim>144</dim>
					<dim>1</dim>
					<dim>1</dim>
					<dim>3</dim>
					<dim>3</dim>
				</port>
			</output>
		</layer>
		<layer id="168" name="model/separable_conv2d_2/separable_conv2d/depthwise" type="GroupConvolution" version="opset1">
			<data auto_pad="same_upper" dilations="1,1" pads_begin="0,0" pads_end="0,0" strides="1,1"/>
			<input>
				<port id="0">
					<dim>1</dim>
					<dim>144</dim>
					<dim>192</dim>
					<dim>320</dim>
				</port>
				<port id="1">
					<dim>144</dim>
					<dim>1</dim>
					<dim>1</dim>
					<dim>3</dim>
					<dim>3</dim>
				</port>
			</input>
			<output>
				<port id="2" names="model/separable_conv2d_2/separable_conv2d/depthwise:0" precision="FP16">
					<dim>1</dim>
					<dim>144</dim>
					<dim>192</dim>
					<dim>320</dim>
				</port>
			</output>
		</layer>
		<layer id="169" name="11821184_const" type="Const" version="opset1">
			<data element_type="f16" offset="27806" shape="1,144,1,1" size="288"/>
			<output>
				<port id="0" precision="FP16">
					<dim>1</dim>
					<dim>144</dim>
					<dim>1</dim>
					<dim>1</dim>
				</port>
			</output>
		</layer>
		<layer id="170" name="model/separable_conv2d_2/separable_conv2d/depthwise/add_" type="Add" version="opset1">
			<data auto_broadcast="numpy"/>
			<input>
				<port id="0">
					<dim>1</dim>
					<dim>144</dim>
					<dim>192</dim>
					<dim>320</dim>
				</port>
				<port id="1">
					<dim>1</dim>
					<dim>144</dim>
					<dim>1</dim>
					<dim>1</dim>
				</port>
			</input>
			<output>
				<port id="2" precision="FP16">
					<dim>1</dim>
					<dim>144</dim>
					<dim>192</dim>
					<dim>320</dim>
				</port>
			</output>
		</layer>
		<layer id="171" name="21732177_const" type="Const" version="opset1">
			<data element_type="f16" offset="28094" shape="" size="2"/>
			<output>
				<port id="0" precision="FP16"/>
			</output>
		</layer>
		<layer id="172" name="21742178_const" type="Const" version="opset1">
			<data element_type="f16" offset="28096" shape="" size="2"/>
			<output>
				<port id="0" precision="FP16"/>
			</output>
		</layer>
		<layer id="173" name="21752179_const" type="Const" version="opset1">
			<data element_type="f16" offset="28094" shape="" size="2"/>
			<output>
				<port id="0" precision="FP16"/>
			</output>
		</layer>
		<layer id="174" name="21762180_const" type="Const" version="opset1">
			<data element_type="f16" offset="28096" shape="" size="2"/>
			<output>
				<port id="0" precision="FP16"/>
			</output>
		</layer>
		<layer id="175" name="model/separable_conv2d_2/separable_conv2d/fq_input_0" type="FakeQuantize" version="opset1">
			<data auto_broadcast="numpy" levels="256"/>
			<input>
				<port id="0">
					<dim>1</dim>
					<dim>144</dim>
					<dim>192</dim>
					<dim>320</dim>
				</port>
				<port id="1"/>
				<port id="2"/>
				<port id="3"/>
				<port id="4"/>
			</input>
			<output>
				<port id="5" precision="FP16">
					<dim>1</dim>
					<dim>144</dim>
					<dim>192</dim>
					<dim>320</dim>
				</port>
			</output>
		</layer>
		<layer id="176" name="model/separable_conv2d_2/separable_conv2d/Transpose21544_const5316613/quantized8161_const" type="Const" version="opset1">
			<data element_type="i8" offset="28098" shape="144,144,1,1" size="20736"/>
			<output>
				<port id="0" precision="I8">
					<dim>144</dim>
					<dim>144</dim>
					<dim>1</dim>
					<dim>1</dim>
				</port>
			</output>
		</layer>
		<layer id="177" name="model/separable_conv2d_2/separable_conv2d/Transpose21544_const5316613/quantized/to_f16" type="Convert" version="opset1">
			<data destination_type="f16"/>
			<input>
				<port id="0">
					<dim>144</dim>
					<dim>144</dim>
					<dim>1</dim>
					<dim>1</dim>
				</port>
			</input>
			<output>
				<port id="1" precision="FP16">
					<dim>144</dim>
					<dim>144</dim>
					<dim>1</dim>
					<dim>1</dim>
				</port>
			</output>
		</layer>
		<layer id="178" name="model/separable_conv2d_2/separable_conv2d/fq_weights_1/zero_point8174_const" type="Const" version="opset1">
			<data element_type="f16" offset="48834" shape="144,1,1,1" size="288"/>
			<output>
				<port id="0" precision="FP16">
					<dim>144</dim>
					<dim>1</dim>
					<dim>1</dim>
					<dim>1</dim>
				</port>
			</output>
		</layer>
		<layer id="179" name="model/separable_conv2d_2/separable_conv2d/fq_weights_1/minus_zp" type="Subtract" version="opset1">
			<data auto_broadcast="numpy"/>
			<input>
				<port id="0">
					<dim>144</dim>
					<dim>144</dim>
					<dim>1</dim>
					<dim>1</dim>
				</port>
				<port id="1">
					<dim>144</dim>
					<dim>1</dim>
					<dim>1</dim>
					<dim>1</dim>
				</port>
			</input>
			<output>
				<port id="2" precision="FP16">
					<dim>144</dim>
					<dim>144</dim>
					<dim>1</dim>
					<dim>1</dim>
				</port>
			</output>
		</layer>
		<layer id="180" name="model/separable_conv2d_2/separable_conv2d/fq_weights_1/scale8169_const" type="Const" version="opset1">
			<data element_type="f16" offset="49122" shape="144,1,1,1" size="288"/>
			<output>
				<port id="0" precision="FP16">
					<dim>144</dim>
					<dim>1</dim>
					<dim>1</dim>
					<dim>1</dim>
				</port>
			</output>
		</layer>
		<layer id="181" name="model/separable_conv2d_2/separable_conv2d/fq_weights_1/mulpiply_by_scale" type="Multiply" version="opset1">
			<data auto_broadcast="numpy"/>
			<input>
				<port id="0">
					<dim>144</dim>
					<dim>144</dim>
					<dim>1</dim>
					<dim>1</dim>
				</port>
				<port id="1">
					<dim>144</dim>
					<dim>1</dim>
					<dim>1</dim>
					<dim>1</dim>
				</port>
			</input>
			<output>
				<port id="2" precision="FP16">
					<dim>144</dim>
					<dim>144</dim>
					<dim>1</dim>
					<dim>1</dim>
				</port>
			</output>
		</layer>
		<layer id="182" name="model/separable_conv2d_2/separable_conv2d" type="Convolution" version="opset1">
			<data auto_pad="valid" dilations="1,1" pads_begin="0,0" pads_end="0,0" strides="1,1"/>
			<input>
				<port id="0">
					<dim>1</dim>
					<dim>144</dim>
					<dim>192</dim>
					<dim>320</dim>
				</port>
				<port id="1">
					<dim>144</dim>
					<dim>144</dim>
					<dim>1</dim>
					<dim>1</dim>
				</port>
			</input>
			<output>
				<port id="2" precision="FP16">
					<dim>1</dim>
					<dim>144</dim>
					<dim>192</dim>
					<dim>320</dim>
				</port>
			</output>
		</layer>
		<layer id="183" name="data_add_166061661117190/EltwiseUnsqueeze17390_const533_const" type="Const" version="opset1">
			<data element_type="f16" offset="49410" shape="1,144,1,1" size="288"/>
			<output>
				<port id="0" precision="FP16">
					<dim>1</dim>
					<dim>144</dim>
					<dim>1</dim>
					<dim>1</dim>
				</port>
			</output>
		</layer>
		<layer id="184" name="model/separable_conv2d_2/BiasAdd/Add/Fused_Add_" type="Add" version="opset1">
			<data auto_broadcast="numpy"/>
			<input>
				<port id="0">
					<dim>1</dim>
					<dim>144</dim>
					<dim>192</dim>
					<dim>320</dim>
				</port>
				<port id="1">
					<dim>1</dim>
					<dim>144</dim>
					<dim>1</dim>
					<dim>1</dim>
				</port>
			</input>
			<output>
				<port id="2" names="model/batch_normalization_8/FusedBatchNorm:0" precision="FP16">
					<dim>1</dim>
					<dim>144</dim>
					<dim>192</dim>
					<dim>320</dim>
				</port>
			</output>
		</layer>
		<layer id="185" name="model/re_lu_6/Relu6" type="Clamp" version="opset1">
			<data max="6.0" min="0.0"/>
			<input>
				<port id="0">
					<dim>1</dim>
					<dim>144</dim>
					<dim>192</dim>
					<dim>320</dim>
				</port>
			</input>
			<output>
				<port id="1" names="model/re_lu_6/Relu6:0" precision="FP16">
					<dim>1</dim>
					<dim>144</dim>
					<dim>192</dim>
					<dim>320</dim>
				</port>
			</output>
		</layer>
		<layer id="186" name="17431747_const" type="Const" version="opset1">
			<data element_type="f16" offset="1072" shape="" size="2"/>
			<output>
				<port id="0" precision="FP16"/>
			</output>
		</layer>
		<layer id="187" name="17441748_const" type="Const" version="opset1">
			<data element_type="f16" offset="4160" shape="" size="2"/>
			<output>
				<port id="0" precision="FP16"/>
			</output>
		</layer>
		<layer id="188" name="17451749_const" type="Const" version="opset1">
			<data element_type="f16" offset="1072" shape="" size="2"/>
			<output>
				<port id="0" precision="FP16"/>
			</output>
		</layer>
		<layer id="189" name="17461750_const" type="Const" version="opset1">
			<data element_type="f16" offset="4160" shape="" size="2"/>
			<output>
				<port id="0" precision="FP16"/>
			</output>
		</layer>
		<layer id="190" name="model/conv2d_6/Conv2D/fq_input_0" type="FakeQuantize" version="opset1">
			<data auto_broadcast="numpy" levels="256"/>
			<input>
				<port id="0">
					<dim>1</dim>
					<dim>144</dim>
					<dim>192</dim>
					<dim>320</dim>
				</port>
				<port id="1"/>
				<port id="2"/>
				<port id="3"/>
				<port id="4"/>
			</input>
			<output>
				<port id="5" precision="FP16">
					<dim>1</dim>
					<dim>144</dim>
					<dim>192</dim>
					<dim>320</dim>
				</port>
			</output>
		</layer>
		<layer id="191" name="model/conv2d_6/Conv2D/Transpose21548_const5366615/quantized8209_const" type="Const" version="opset1">
			<data element_type="i8" offset="49698" shape="24,144,1,1" size="3456"/>
			<output>
				<port id="0" precision="I8">
					<dim>24</dim>
					<dim>144</dim>
					<dim>1</dim>
					<dim>1</dim>
				</port>
			</output>
		</layer>
		<layer id="192" name="model/conv2d_6/Conv2D/Transpose21548_const5366615/quantized/to_f16" type="Convert" version="opset1">
			<data destination_type="f16"/>
			<input>
				<port id="0">
					<dim>24</dim>
					<dim>144</dim>
					<dim>1</dim>
					<dim>1</dim>
				</port>
			</input>
			<output>
				<port id="1" precision="FP16">
					<dim>24</dim>
					<dim>144</dim>
					<dim>1</dim>
					<dim>1</dim>
				</port>
			</output>
		</layer>
		<layer id="193" name="model/conv2d_6/Conv2D/fq_weights_1/zero_point8222_const" type="Const" version="opset1">
			<data element_type="f16" offset="53154" shape="24,1,1,1" size="48"/>
			<output>
				<port id="0" precision="FP16">
					<dim>24</dim>
					<dim>1</dim>
					<dim>1</dim>
					<dim>1</dim>
				</port>
			</output>
		</layer>
		<layer id="194" name="model/conv2d_6/Conv2D/fq_weights_1/minus_zp" type="Subtract" version="opset1">
			<data auto_broadcast="numpy"/>
			<input>
				<port id="0">
					<dim>24</dim>
					<dim>144</dim>
					<dim>1</dim>
					<dim>1</dim>
				</port>
				<port id="1">
					<dim>24</dim>
					<dim>1</dim>
					<dim>1</dim>
					<dim>1</dim>
				</port>
			</input>
			<output>
				<port id="2" precision="FP16">
					<dim>24</dim>
					<dim>144</dim>
					<dim>1</dim>
					<dim>1</dim>
				</port>
			</output>
		</layer>
		<layer id="195" name="model/conv2d_6/Conv2D/fq_weights_1/scale8217_const" type="Const" version="opset1">
			<data element_type="f16" offset="53202" shape="24,1,1,1" size="48"/>
			<output>
				<port id="0" precision="FP16">
					<dim>24</dim>
					<dim>1</dim>
					<dim>1</dim>
					<dim>1</dim>
				</port>
			</output>
		</layer>
		<layer id="196" name="model/conv2d_6/Conv2D/fq_weights_1/mulpiply_by_scale" type="Multiply" version="opset1">
			<data auto_broadcast="numpy"/>
			<input>
				<port id="0">
					<dim>24</dim>
					<dim>144</dim>
					<dim>1</dim>
					<dim>1</dim>
				</port>
				<port id="1">
					<dim>24</dim>
					<dim>1</dim>
					<dim>1</dim>
					<dim>1</dim>
				</port>
			</input>
			<output>
				<port id="2" precision="FP16">
					<dim>24</dim>
					<dim>144</dim>
					<dim>1</dim>
					<dim>1</dim>
				</port>
			</output>
		</layer>
		<layer id="197" name="model/conv2d_6/Conv2D" type="Convolution" version="opset1">
			<data auto_pad="same_upper" dilations="1,1" pads_begin="0,0" pads_end="0,0" strides="1,1"/>
			<input>
				<port id="0">
					<dim>1</dim>
					<dim>144</dim>
					<dim>192</dim>
					<dim>320</dim>
				</port>
				<port id="1">
					<dim>24</dim>
					<dim>144</dim>
					<dim>1</dim>
					<dim>1</dim>
				</port>
			</input>
			<output>
				<port id="2" precision="FP16">
					<dim>1</dim>
					<dim>24</dim>
					<dim>192</dim>
					<dim>320</dim>
				</port>
			</output>
		</layer>
		<layer id="198" name="data_add_166141661917192/EltwiseUnsqueeze17398_const538_const" type="Const" version="opset1">
			<data element_type="f16" offset="53250" shape="1,24,1,1" size="48"/>
			<output>
				<port id="0" precision="FP16">
					<dim>1</dim>
					<dim>24</dim>
					<dim>1</dim>
					<dim>1</dim>
				</port>
			</output>
		</layer>
		<layer id="199" name="model/conv2d_6/BiasAdd/Add/Fused_Add_" type="Add" version="opset1">
			<data auto_broadcast="numpy"/>
			<input>
				<port id="0">
					<dim>1</dim>
					<dim>24</dim>
					<dim>192</dim>
					<dim>320</dim>
				</port>
				<port id="1">
					<dim>1</dim>
					<dim>24</dim>
					<dim>1</dim>
					<dim>1</dim>
				</port>
			</input>
			<output>
				<port id="2" names="model/batch_normalization_9/FusedBatchNorm:0" precision="FP16">
					<dim>1</dim>
					<dim>24</dim>
					<dim>192</dim>
					<dim>320</dim>
				</port>
			</output>
		</layer>
		<layer id="200" name="23432347_const" type="Const" version="opset1">
			<data element_type="f16" offset="53298" shape="" size="2"/>
			<output>
				<port id="0" precision="FP16"/>
			</output>
		</layer>
		<layer id="201" name="23442348_const" type="Const" version="opset1">
			<data element_type="f16" offset="53300" shape="" size="2"/>
			<output>
				<port id="0" precision="FP16"/>
			</output>
		</layer>
		<layer id="202" name="23452349_const" type="Const" version="opset1">
			<data element_type="f16" offset="53298" shape="" size="2"/>
			<output>
				<port id="0" precision="FP16"/>
			</output>
		</layer>
		<layer id="203" name="23462350_const" type="Const" version="opset1">
			<data element_type="f16" offset="53300" shape="" size="2"/>
			<output>
				<port id="0" precision="FP16"/>
			</output>
		</layer>
		<layer id="204" name="model/add/add/fq_input_1" type="FakeQuantize" version="opset1">
			<data auto_broadcast="numpy" levels="256"/>
			<input>
				<port id="0">
					<dim>1</dim>
					<dim>24</dim>
					<dim>192</dim>
					<dim>320</dim>
				</port>
				<port id="1"/>
				<port id="2"/>
				<port id="3"/>
				<port id="4"/>
			</input>
			<output>
				<port id="5" precision="FP16">
					<dim>1</dim>
					<dim>24</dim>
					<dim>192</dim>
					<dim>320</dim>
				</port>
			</output>
		</layer>
		<layer id="205" name="model/add/add" type="Add" version="opset1">
			<data auto_broadcast="numpy"/>
			<input>
				<port id="0">
					<dim>1</dim>
					<dim>24</dim>
					<dim>192</dim>
					<dim>320</dim>
				</port>
				<port id="1">
					<dim>1</dim>
					<dim>24</dim>
					<dim>192</dim>
					<dim>320</dim>
				</port>
			</input>
			<output>
				<port id="2" names="model/add/add:0" precision="FP16">
					<dim>1</dim>
					<dim>24</dim>
					<dim>192</dim>
					<dim>320</dim>
				</port>
			</output>
		</layer>
		<layer id="206" name="34133417_const" type="Const" version="opset1">
			<data element_type="f16" offset="53302" shape="" size="2"/>
			<output>
				<port id="0" precision="FP16"/>
			</output>
		</layer>
		<layer id="207" name="34143418_const" type="Const" version="opset1">
			<data element_type="f16" offset="53304" shape="" size="2"/>
			<output>
				<port id="0" precision="FP16"/>
			</output>
		</layer>
		<layer id="208" name="34153419_const" type="Const" version="opset1">
			<data element_type="f16" offset="53302" shape="" size="2"/>
			<output>
				<port id="0" precision="FP16"/>
			</output>
		</layer>
		<layer id="209" name="34163420_const" type="Const" version="opset1">
			<data element_type="f16" offset="53304" shape="" size="2"/>
			<output>
				<port id="0" precision="FP16"/>
			</output>
		</layer>
		<layer id="210" name="model/conv2d_39/Conv2D/fq_input_0" type="FakeQuantize" version="opset1">
			<data auto_broadcast="numpy" levels="256"/>
			<input>
				<port id="0">
					<dim>1</dim>
					<dim>24</dim>
					<dim>192</dim>
					<dim>320</dim>
				</port>
				<port id="1"/>
				<port id="2"/>
				<port id="3"/>
				<port id="4"/>
			</input>
			<output>
				<port id="5" precision="FP16">
					<dim>1</dim>
					<dim>24</dim>
					<dim>192</dim>
					<dim>320</dim>
				</port>
			</output>
		</layer>
		<layer id="211" name="model/conv2d_39/Conv2D/Transpose21808_const8706761/quantized8113_const" type="Const" version="opset1">
			<data element_type="i8" offset="53306" shape="2,24,1,1" size="48"/>
			<output>
				<port id="0" precision="I8">
					<dim>2</dim>
					<dim>24</dim>
					<dim>1</dim>
					<dim>1</dim>
				</port>
			</output>
		</layer>
		<layer id="212" name="model/conv2d_39/Conv2D/Transpose21808_const8706761/quantized/to_f16" type="Convert" version="opset1">
			<data destination_type="f16"/>
			<input>
				<port id="0">
					<dim>2</dim>
					<dim>24</dim>
					<dim>1</dim>
					<dim>1</dim>
				</port>
			</input>
			<output>
				<port id="1" precision="FP16">
					<dim>2</dim>
					<dim>24</dim>
					<dim>1</dim>
					<dim>1</dim>
				</port>
			</output>
		</layer>
		<layer id="213" name="model/conv2d_39/Conv2D/fq_weights_1/zero_point8126_const" type="Const" version="opset1">
			<data element_type="f16" offset="53354" shape="2,1,1,1" size="4"/>
			<output>
				<port id="0" precision="FP16">
					<dim>2</dim>
					<dim>1</dim>
					<dim>1</dim>
					<dim>1</dim>
				</port>
			</output>
		</layer>
		<layer id="214" name="model/conv2d_39/Conv2D/fq_weights_1/minus_zp" type="Subtract" version="opset1">
			<data auto_broadcast="numpy"/>
			<input>
				<port id="0">
					<dim>2</dim>
					<dim>24</dim>
					<dim>1</dim>
					<dim>1</dim>
				</port>
				<port id="1">
					<dim>2</dim>
					<dim>1</dim>
					<dim>1</dim>
					<dim>1</dim>
				</port>
			</input>
			<output>
				<port id="2" precision="FP16">
					<dim>2</dim>
					<dim>24</dim>
					<dim>1</dim>
					<dim>1</dim>
				</port>
			</output>
		</layer>
		<layer id="215" name="model/conv2d_39/Conv2D/fq_weights_1/scale8121_const" type="Const" version="opset1">
			<data element_type="f16" offset="53358" shape="2,1,1,1" size="4"/>
			<output>
				<port id="0" precision="FP16">
					<dim>2</dim>
					<dim>1</dim>
					<dim>1</dim>
					<dim>1</dim>
				</port>
			</output>
		</layer>
		<layer id="216" name="model/conv2d_39/Conv2D/fq_weights_1/mulpiply_by_scale" type="Multiply" version="opset1">
			<data auto_broadcast="numpy"/>
			<input>
				<port id="0">
					<dim>2</dim>
					<dim>24</dim>
					<dim>1</dim>
					<dim>1</dim>
				</port>
				<port id="1">
					<dim>2</dim>
					<dim>1</dim>
					<dim>1</dim>
					<dim>1</dim>
				</port>
			</input>
			<output>
				<port id="2" precision="FP16">
					<dim>2</dim>
					<dim>24</dim>
					<dim>1</dim>
					<dim>1</dim>
				</port>
			</output>
		</layer>
		<layer id="217" name="model/conv2d_39/Conv2D" type="Convolution" version="opset1">
			<data auto_pad="valid" dilations="1,1" pads_begin="0,0" pads_end="0,0" strides="1,1"/>
			<input>
				<port id="0">
					<dim>1</dim>
					<dim>24</dim>
					<dim>192</dim>
					<dim>320</dim>
				</port>
				<port id="1">
					<dim>2</dim>
					<dim>24</dim>
					<dim>1</dim>
					<dim>1</dim>
				</port>
			</input>
			<output>
				<port id="2" names="model/conv2d_39/Conv2D:0" precision="FP16">
					<dim>1</dim>
					<dim>2</dim>
					<dim>192</dim>
					<dim>320</dim>
				</port>
			</output>
		</layer>
		<layer id="218" name="model/conv2d_39/BiasAdd/ReadVariableOp/EltwiseUnsqueeze17298_const872_const" type="Const" version="opset1">
			<data element_type="f16" offset="53362" shape="1,2,1,1" size="4"/>
			<output>
				<port id="0" names="model/conv2d_39/BiasAdd/ReadVariableOp:0" precision="FP16">
					<dim>1</dim>
					<dim>2</dim>
					<dim>1</dim>
					<dim>1</dim>
				</port>
			</output>
		</layer>
		<layer id="219" name="model/conv2d_39/BiasAdd/Add" type="Add" version="opset1">
			<data auto_broadcast="numpy"/>
			<input>
				<port id="0">
					<dim>1</dim>
					<dim>2</dim>
					<dim>192</dim>
					<dim>320</dim>
				</port>
				<port id="1">
					<dim>1</dim>
					<dim>2</dim>
					<dim>1</dim>
					<dim>1</dim>
				</port>
			</input>
			<output>
				<port id="2" names="model/conv2d_39/BiasAdd:0" precision="FP16">
					<dim>1</dim>
					<dim>2</dim>
					<dim>192</dim>
					<dim>320</dim>
				</port>
			</output>
		</layer>
		<layer id="220" name="24332437_const" type="Const" version="opset1">
			<data element_type="f16" offset="53366" shape="" size="2"/>
			<output>
				<port id="0" precision="FP16"/>
			</output>
		</layer>
		<layer id="221" name="24342438_const" type="Const" version="opset1">
			<data element_type="f16" offset="53368" shape="" size="2"/>
			<output>
				<port id="0" precision="FP16"/>
			</output>
		</layer>
		<layer id="222" name="24352439_const" type="Const" version="opset1">
			<data element_type="f16" offset="53366" shape="" size="2"/>
			<output>
				<port id="0" precision="FP16"/>
			</output>
		</layer>
		<layer id="223" name="24362440_const" type="Const" version="opset1">
			<data element_type="f16" offset="53368" shape="" size="2"/>
			<output>
				<port id="0" precision="FP16"/>
			</output>
		</layer>
		<layer id="224" name="model/segm_logits/add/fq_input_0" type="FakeQuantize" version="opset1">
			<data auto_broadcast="numpy" levels="256"/>
			<input>
				<port id="0">
					<dim>1</dim>
					<dim>2</dim>
					<dim>192</dim>
					<dim>320</dim>
				</port>
				<port id="1"/>
				<port id="2"/>
				<port id="3"/>
				<port id="4"/>
			</input>
			<output>
				<port id="5" precision="FP16">
					<dim>1</dim>
					<dim>2</dim>
					<dim>192</dim>
					<dim>320</dim>
				</port>
			</output>
		</layer>
		<layer id="225" name="model/conv2d_7/Conv2D/Transpose21552_const5456619/quantized7993_const" type="Const" version="opset1">
			<data element_type="i8" offset="53370" shape="144,24,1,1" size="3456"/>
			<output>
				<port id="0" precision="I8">
					<dim>144</dim>
					<dim>24</dim>
					<dim>1</dim>
					<dim>1</dim>
				</port>
			</output>
		</layer>
		<layer id="226" name="model/conv2d_7/Conv2D/Transpose21552_const5456619/quantized/to_f16" type="Convert" version="opset1">
			<data destination_type="f16"/>
			<input>
				<port id="0">
					<dim>144</dim>
					<dim>24</dim>
					<dim>1</dim>
					<dim>1</dim>
				</port>
			</input>
			<output>
				<port id="1" precision="FP16">
					<dim>144</dim>
					<dim>24</dim>
					<dim>1</dim>
					<dim>1</dim>
				</port>
			</output>
		</layer>
		<layer id="227" name="model/conv2d_7/Conv2D/fq_weights_1/zero_point8006_const" type="Const" version="opset1">
			<data element_type="f16" offset="56826" shape="144,1,1,1" size="288"/>
			<output>
				<port id="0" precision="FP16">
					<dim>144</dim>
					<dim>1</dim>
					<dim>1</dim>
					<dim>1</dim>
				</port>
			</output>
		</layer>
		<layer id="228" name="model/conv2d_7/Conv2D/fq_weights_1/minus_zp" type="Subtract" version="opset1">
			<data auto_broadcast="numpy"/>
			<input>
				<port id="0">
					<dim>144</dim>
					<dim>24</dim>
					<dim>1</dim>
					<dim>1</dim>
				</port>
				<port id="1">
					<dim>144</dim>
					<dim>1</dim>
					<dim>1</dim>
					<dim>1</dim>
				</port>
			</input>
			<output>
				<port id="2" precision="FP16">
					<dim>144</dim>
					<dim>24</dim>
					<dim>1</dim>
					<dim>1</dim>
				</port>
			</output>
		</layer>
		<layer id="229" name="model/conv2d_7/Conv2D/fq_weights_1/scale8001_const" type="Const" version="opset1">
			<data element_type="f16" offset="57114" shape="144,1,1,1" size="288"/>
			<output>
				<port id="0" precision="FP16">
					<dim>144</dim>
					<dim>1</dim>
					<dim>1</dim>
					<dim>1</dim>
				</port>
			</output>
		</layer>
		<layer id="230" name="model/conv2d_7/Conv2D/fq_weights_1/mulpiply_by_scale" type="Multiply" version="opset1">
			<data auto_broadcast="numpy"/>
			<input>
				<port id="0">
					<dim>144</dim>
					<dim>24</dim>
					<dim>1</dim>
					<dim>1</dim>
				</port>
				<port id="1">
					<dim>144</dim>
					<dim>1</dim>
					<dim>1</dim>
					<dim>1</dim>
				</port>
			</input>
			<output>
				<port id="2" precision="FP16">
					<dim>144</dim>
					<dim>24</dim>
					<dim>1</dim>
					<dim>1</dim>
				</port>
			</output>
		</layer>
		<layer id="231" name="model/conv2d_7/Conv2D" type="Convolution" version="opset1">
			<data auto_pad="same_upper" dilations="1,1" pads_begin="0,0" pads_end="0,0" strides="1,1"/>
			<input>
				<port id="0">
					<dim>1</dim>
					<dim>24</dim>
					<dim>192</dim>
					<dim>320</dim>
				</port>
				<port id="1">
					<dim>144</dim>
					<dim>24</dim>
					<dim>1</dim>
					<dim>1</dim>
				</port>
			</input>
			<output>
				<port id="2" precision="FP16">
					<dim>1</dim>
					<dim>144</dim>
					<dim>192</dim>
					<dim>320</dim>
				</port>
			</output>
		</layer>
		<layer id="232" name="data_add_166221662717194/EltwiseUnsqueeze17406_const547_const" type="Const" version="opset1">
			<data element_type="f16" offset="57402" shape="1,144,1,1" size="288"/>
			<output>
				<port id="0" precision="FP16">
					<dim>1</dim>
					<dim>144</dim>
					<dim>1</dim>
					<dim>1</dim>
				</port>
			</output>
		</layer>
		<layer id="233" name="model/conv2d_7/BiasAdd/Add/Fused_Add_" type="Add" version="opset1">
			<data auto_broadcast="numpy"/>
			<input>
				<port id="0">
					<dim>1</dim>
					<dim>144</dim>
					<dim>192</dim>
					<dim>320</dim>
				</port>
				<port id="1">
					<dim>1</dim>
					<dim>144</dim>
					<dim>1</dim>
					<dim>1</dim>
				</port>
			</input>
			<output>
				<port id="2" names="model/batch_normalization_10/FusedBatchNorm:0" precision="FP16">
					<dim>1</dim>
					<dim>144</dim>
					<dim>192</dim>
					<dim>320</dim>
				</port>
			</output>
		</layer>
		<layer id="234" name="model/re_lu_7/Relu6" type="Clamp" version="opset1">
			<data max="6.0" min="0.0"/>
			<input>
				<port id="0">
					<dim>1</dim>
					<dim>144</dim>
					<dim>192</dim>
					<dim>320</dim>
				</port>
			</input>
			<output>
				<port id="1" names="model/re_lu_7/Relu6:0" precision="FP16">
					<dim>1</dim>
					<dim>144</dim>
					<dim>192</dim>
					<dim>320</dim>
				</port>
			</output>
		</layer>
		<layer id="235" name="33933397_const" type="Const" version="opset1">
			<data element_type="f16" offset="25318" shape="1,144,1,1" size="288"/>
			<output>
				<port id="0" precision="FP16">
					<dim>1</dim>
					<dim>144</dim>
					<dim>1</dim>
					<dim>1</dim>
				</port>
			</output>
		</layer>
		<layer id="236" name="33943398_const" type="Const" version="opset1">
			<data element_type="f16" offset="57690" shape="1,144,1,1" size="288"/>
			<output>
				<port id="0" precision="FP16">
					<dim>1</dim>
					<dim>144</dim>
					<dim>1</dim>
					<dim>1</dim>
				</port>
			</output>
		</layer>
		<layer id="237" name="33953399_const" type="Const" version="opset1">
			<data element_type="f16" offset="25318" shape="1,144,1,1" size="288"/>
			<output>
				<port id="0" precision="FP16">
					<dim>1</dim>
					<dim>144</dim>
					<dim>1</dim>
					<dim>1</dim>
				</port>
			</output>
		</layer>
		<layer id="238" name="33963400_const" type="Const" version="opset1">
			<data element_type="f16" offset="57690" shape="1,144,1,1" size="288"/>
			<output>
				<port id="0" precision="FP16">
					<dim>1</dim>
					<dim>144</dim>
					<dim>1</dim>
					<dim>1</dim>
				</port>
			</output>
		</layer>
		<layer id="239" name="model/separable_conv2d_3/separable_conv2d/depthwise/fq_input_0" type="FakeQuantize" version="opset1">
			<data auto_broadcast="numpy" levels="256"/>
			<input>
				<port id="0">
					<dim>1</dim>
					<dim>144</dim>
					<dim>192</dim>
					<dim>320</dim>
				</port>
				<port id="1">
					<dim>1</dim>
					<dim>144</dim>
					<dim>1</dim>
					<dim>1</dim>
				</port>
				<port id="2">
					<dim>1</dim>
					<dim>144</dim>
					<dim>1</dim>
					<dim>1</dim>
				</port>
				<port id="3">
					<dim>1</dim>
					<dim>144</dim>
					<dim>1</dim>
					<dim>1</dim>
				</port>
				<port id="4">
					<dim>1</dim>
					<dim>144</dim>
					<dim>1</dim>
					<dim>1</dim>
				</port>
			</input>
			<output>
				<port id="5" precision="FP16">
					<dim>1</dim>
					<dim>144</dim>
					<dim>192</dim>
					<dim>320</dim>
				</port>
			</output>
		</layer>
		<layer id="240" name="2927629279_const5506621/quantized9337_const" type="Const" version="opset1">
			<data element_type="i8" offset="57978" shape="144,1,3,3" size="1296"/>
			<output>
				<port id="0" precision="I8">
					<dim>144</dim>
					<dim>1</dim>
					<dim>3</dim>
					<dim>3</dim>
				</port>
			</output>
		</layer>
		<layer id="241" name="2927629279_const5506621/quantized/to_f16" type="Convert" version="opset1">
			<data destination_type="f16"/>
			<input>
				<port id="0">
					<dim>144</dim>
					<dim>1</dim>
					<dim>3</dim>
					<dim>3</dim>
				</port>
			</input>
			<output>
				<port id="1" precision="FP16">
					<dim>144</dim>
					<dim>1</dim>
					<dim>3</dim>
					<dim>3</dim>
				</port>
			</output>
		</layer>
		<layer id="242" name="model/separable_conv2d_3/separable_conv2d/depthwise/fq_weights_1/zero_point9350_const" type="Const" version="opset1">
			<data element_type="f16" offset="59274" shape="144,1,1,1" size="288"/>
			<output>
				<port id="0" precision="FP16">
					<dim>144</dim>
					<dim>1</dim>
					<dim>1</dim>
					<dim>1</dim>
				</port>
			</output>
		</layer>
		<layer id="243" name="model/separable_conv2d_3/separable_conv2d/depthwise/fq_weights_1/minus_zp" type="Subtract" version="opset1">
			<data auto_broadcast="numpy"/>
			<input>
				<port id="0">
					<dim>144</dim>
					<dim>1</dim>
					<dim>3</dim>
					<dim>3</dim>
				</port>
				<port id="1">
					<dim>144</dim>
					<dim>1</dim>
					<dim>1</dim>
					<dim>1</dim>
				</port>
			</input>
			<output>
				<port id="2" precision="FP16">
					<dim>144</dim>
					<dim>1</dim>
					<dim>3</dim>
					<dim>3</dim>
				</port>
			</output>
		</layer>
		<layer id="244" name="model/separable_conv2d_3/separable_conv2d/depthwise/fq_weights_1/scale9345_const" type="Const" version="opset1">
			<data element_type="f16" offset="59562" shape="144,1,1,1" size="288"/>
			<output>
				<port id="0" precision="FP16">
					<dim>144</dim>
					<dim>1</dim>
					<dim>1</dim>
					<dim>1</dim>
				</port>
			</output>
		</layer>
		<layer id="245" name="model/separable_conv2d_3/separable_conv2d/depthwise/fq_weights_1/mulpiply_by_scale" type="Multiply" version="opset1">
			<data auto_broadcast="numpy"/>
			<input>
				<port id="0">
					<dim>144</dim>
					<dim>1</dim>
					<dim>3</dim>
					<dim>3</dim>
				</port>
				<port id="1">
					<dim>144</dim>
					<dim>1</dim>
					<dim>1</dim>
					<dim>1</dim>
				</port>
			</input>
			<output>
				<port id="2" precision="FP16">
					<dim>144</dim>
					<dim>1</dim>
					<dim>3</dim>
					<dim>3</dim>
				</port>
			</output>
		</layer>
		<layer id="246" name="11138/value11140_const" type="Const" version="opset1">
			<data element_type="i64" offset="27766" shape="5" size="40"/>
			<output>
				<port id="0" precision="I64">
					<dim>5</dim>
				</port>
			</output>
		</layer>
		<layer id="247" name="11138" type="Reshape" version="opset1">
			<data special_zero="true"/>
			<input>
				<port id="0">
					<dim>144</dim>
					<dim>1</dim>
					<dim>3</dim>
					<dim>3</dim>
				</port>
				<port id="1">
					<dim>5</dim>
				</port>
			</input>
			<output>
				<port id="2" precision="FP16">
					<dim>144</dim>
					<dim>1</dim>
					<dim>1</dim>
					<dim>3</dim>
					<dim>3</dim>
				</port>
			</output>
		</layer>
		<layer id="248" name="model/separable_conv2d_3/separable_conv2d/depthwise" type="GroupConvolution" version="opset1">
			<data auto_pad="same_upper" dilations="1,1" pads_begin="0,0" pads_end="0,0" strides="2,2"/>
			<input>
				<port id="0">
					<dim>1</dim>
					<dim>144</dim>
					<dim>192</dim>
					<dim>320</dim>
				</port>
				<port id="1">
					<dim>144</dim>
					<dim>1</dim>
					<dim>1</dim>
					<dim>3</dim>
					<dim>3</dim>
				</port>
			</input>
			<output>
				<port id="2" names="model/separable_conv2d_3/separable_conv2d/depthwise:0" precision="FP16">
					<dim>1</dim>
					<dim>144</dim>
					<dim>96</dim>
					<dim>160</dim>
				</port>
			</output>
		</layer>
		<layer id="249" name="11861188_const" type="Const" version="opset1">
			<data element_type="f16" offset="59850" shape="1,144,1,1" size="288"/>
			<output>
				<port id="0" precision="FP16">
					<dim>1</dim>
					<dim>144</dim>
					<dim>1</dim>
					<dim>1</dim>
				</port>
			</output>
		</layer>
		<layer id="250" name="model/separable_conv2d_3/separable_conv2d/depthwise/add_" type="Add" version="opset1">
			<data auto_broadcast="numpy"/>
			<input>
				<port id="0">
					<dim>1</dim>
					<dim>144</dim>
					<dim>96</dim>
					<dim>160</dim>
				</port>
				<port id="1">
					<dim>1</dim>
					<dim>144</dim>
					<dim>1</dim>
					<dim>1</dim>
				</port>
			</input>
			<output>
				<port id="2" precision="FP16">
					<dim>1</dim>
					<dim>144</dim>
					<dim>96</dim>
					<dim>160</dim>
				</port>
			</output>
		</layer>
		<layer id="251" name="32033207_const" type="Const" version="opset1">
			<data element_type="f16" offset="60138" shape="" size="2"/>
			<output>
				<port id="0" precision="FP16"/>
			</output>
		</layer>
		<layer id="252" name="32043208_const" type="Const" version="opset1">
			<data element_type="f16" offset="60140" shape="" size="2"/>
			<output>
				<port id="0" precision="FP16"/>
			</output>
		</layer>
		<layer id="253" name="32053209_const" type="Const" version="opset1">
			<data element_type="f16" offset="60138" shape="" size="2"/>
			<output>
				<port id="0" precision="FP16"/>
			</output>
		</layer>
		<layer id="254" name="32063210_const" type="Const" version="opset1">
			<data element_type="f16" offset="60140" shape="" size="2"/>
			<output>
				<port id="0" precision="FP16"/>
			</output>
		</layer>
		<layer id="255" name="model/separable_conv2d_3/separable_conv2d/fq_input_0" type="FakeQuantize" version="opset1">
			<data auto_broadcast="numpy" levels="256"/>
			<input>
				<port id="0">
					<dim>1</dim>
					<dim>144</dim>
					<dim>96</dim>
					<dim>160</dim>
				</port>
				<port id="1"/>
				<port id="2"/>
				<port id="3"/>
				<port id="4"/>
			</input>
			<output>
				<port id="5" precision="FP16">
					<dim>1</dim>
					<dim>144</dim>
					<dim>96</dim>
					<dim>160</dim>
				</port>
			</output>
		</layer>
		<layer id="256" name="model/separable_conv2d_3/separable_conv2d/Transpose21560_const5526622/quantized9193_const" type="Const" version="opset1">
			<data element_type="i8" offset="60142" shape="144,144,1,1" size="20736"/>
			<output>
				<port id="0" precision="I8">
					<dim>144</dim>
					<dim>144</dim>
					<dim>1</dim>
					<dim>1</dim>
				</port>
			</output>
		</layer>
		<layer id="257" name="model/separable_conv2d_3/separable_conv2d/Transpose21560_const5526622/quantized/to_f16" type="Convert" version="opset1">
			<data destination_type="f16"/>
			<input>
				<port id="0">
					<dim>144</dim>
					<dim>144</dim>
					<dim>1</dim>
					<dim>1</dim>
				</port>
			</input>
			<output>
				<port id="1" precision="FP16">
					<dim>144</dim>
					<dim>144</dim>
					<dim>1</dim>
					<dim>1</dim>
				</port>
			</output>
		</layer>
		<layer id="258" name="model/separable_conv2d_3/separable_conv2d/fq_weights_1/zero_point9206_const" type="Const" version="opset1">
			<data element_type="f16" offset="80878" shape="144,1,1,1" size="288"/>
			<output>
				<port id="0" precision="FP16">
					<dim>144</dim>
					<dim>1</dim>
					<dim>1</dim>
					<dim>1</dim>
				</port>
			</output>
		</layer>
		<layer id="259" name="model/separable_conv2d_3/separable_conv2d/fq_weights_1/minus_zp" type="Subtract" version="opset1">
			<data auto_broadcast="numpy"/>
			<input>
				<port id="0">
					<dim>144</dim>
					<dim>144</dim>
					<dim>1</dim>
					<dim>1</dim>
				</port>
				<port id="1">
					<dim>144</dim>
					<dim>1</dim>
					<dim>1</dim>
					<dim>1</dim>
				</port>
			</input>
			<output>
				<port id="2" precision="FP16">
					<dim>144</dim>
					<dim>144</dim>
					<dim>1</dim>
					<dim>1</dim>
				</port>
			</output>
		</layer>
		<layer id="260" name="model/separable_conv2d_3/separable_conv2d/fq_weights_1/scale9201_const" type="Const" version="opset1">
			<data element_type="f16" offset="81166" shape="144,1,1,1" size="288"/>
			<output>
				<port id="0" precision="FP16">
					<dim>144</dim>
					<dim>1</dim>
					<dim>1</dim>
					<dim>1</dim>
				</port>
			</output>
		</layer>
		<layer id="261" name="model/separable_conv2d_3/separable_conv2d/fq_weights_1/mulpiply_by_scale" type="Multiply" version="opset1">
			<data auto_broadcast="numpy"/>
			<input>
				<port id="0">
					<dim>144</dim>
					<dim>144</dim>
					<dim>1</dim>
					<dim>1</dim>
				</port>
				<port id="1">
					<dim>144</dim>
					<dim>1</dim>
					<dim>1</dim>
					<dim>1</dim>
				</port>
			</input>
			<output>
				<port id="2" precision="FP16">
					<dim>144</dim>
					<dim>144</dim>
					<dim>1</dim>
					<dim>1</dim>
				</port>
			</output>
		</layer>
		<layer id="262" name="model/separable_conv2d_3/separable_conv2d" type="Convolution" version="opset1">
			<data auto_pad="valid" dilations="1,1" pads_begin="0,0" pads_end="0,0" strides="1,1"/>
			<input>
				<port id="0">
					<dim>1</dim>
					<dim>144</dim>
					<dim>96</dim>
					<dim>160</dim>
				</port>
				<port id="1">
					<dim>144</dim>
					<dim>144</dim>
					<dim>1</dim>
					<dim>1</dim>
				</port>
			</input>
			<output>
				<port id="2" precision="FP16">
					<dim>1</dim>
					<dim>144</dim>
					<dim>96</dim>
					<dim>160</dim>
				</port>
			</output>
		</layer>
		<layer id="263" name="data_add_166301663517196/EltwiseUnsqueeze17414_const554_const" type="Const" version="opset1">
			<data element_type="f16" offset="81454" shape="1,144,1,1" size="288"/>
			<output>
				<port id="0" precision="FP16">
					<dim>1</dim>
					<dim>144</dim>
					<dim>1</dim>
					<dim>1</dim>
				</port>
			</output>
		</layer>
		<layer id="264" name="model/separable_conv2d_3/BiasAdd/Add/Fused_Add_" type="Add" version="opset1">
			<data auto_broadcast="numpy"/>
			<input>
				<port id="0">
					<dim>1</dim>
					<dim>144</dim>
					<dim>96</dim>
					<dim>160</dim>
				</port>
				<port id="1">
					<dim>1</dim>
					<dim>144</dim>
					<dim>1</dim>
					<dim>1</dim>
				</port>
			</input>
			<output>
				<port id="2" names="model/batch_normalization_11/FusedBatchNorm:0" precision="FP16">
					<dim>1</dim>
					<dim>144</dim>
					<dim>96</dim>
					<dim>160</dim>
				</port>
			</output>
		</layer>
		<layer id="265" name="model/re_lu_8/Relu6" type="Clamp" version="opset1">
			<data max="6.0" min="0.0"/>
			<input>
				<port id="0">
					<dim>1</dim>
					<dim>144</dim>
					<dim>96</dim>
					<dim>160</dim>
				</port>
			</input>
			<output>
				<port id="1" names="model/re_lu_8/Relu6:0" precision="FP16">
					<dim>1</dim>
					<dim>144</dim>
					<dim>96</dim>
					<dim>160</dim>
				</port>
			</output>
		</layer>
		<layer id="266" name="25132517_const" type="Const" version="opset1">
			<data element_type="f16" offset="1072" shape="" size="2"/>
			<output>
				<port id="0" precision="FP16"/>
			</output>
		</layer>
		<layer id="267" name="25142518_const" type="Const" version="opset1">
			<data element_type="f16" offset="4160" shape="" size="2"/>
			<output>
				<port id="0" precision="FP16"/>
			</output>
		</layer>
		<layer id="268" name="25152519_const" type="Const" version="opset1">
			<data element_type="f16" offset="1072" shape="" size="2"/>
			<output>
				<port id="0" precision="FP16"/>
			</output>
		</layer>
		<layer id="269" name="25162520_const" type="Const" version="opset1">
			<data element_type="f16" offset="4160" shape="" size="2"/>
			<output>
				<port id="0" precision="FP16"/>
			</output>
		</layer>
		<layer id="270" name="model/conv2d_8/Conv2D/fq_input_0" type="FakeQuantize" version="opset1">
			<data auto_broadcast="numpy" levels="256"/>
			<input>
				<port id="0">
					<dim>1</dim>
					<dim>144</dim>
					<dim>96</dim>
					<dim>160</dim>
				</port>
				<port id="1"/>
				<port id="2"/>
				<port id="3"/>
				<port id="4"/>
			</input>
			<output>
				<port id="5" precision="FP16">
					<dim>1</dim>
					<dim>144</dim>
					<dim>96</dim>
					<dim>160</dim>
				</port>
			</output>
		</layer>
		<layer id="271" name="model/conv2d_8/Conv2D/Transpose21564_const5576624/quantized9289_const" type="Const" version="opset1">
			<data element_type="i8" offset="81742" shape="32,144,1,1" size="4608"/>
			<output>
				<port id="0" precision="I8">
					<dim>32</dim>
					<dim>144</dim>
					<dim>1</dim>
					<dim>1</dim>
				</port>
			</output>
		</layer>
		<layer id="272" name="model/conv2d_8/Conv2D/Transpose21564_const5576624/quantized/to_f16" type="Convert" version="opset1">
			<data destination_type="f16"/>
			<input>
				<port id="0">
					<dim>32</dim>
					<dim>144</dim>
					<dim>1</dim>
					<dim>1</dim>
				</port>
			</input>
			<output>
				<port id="1" precision="FP16">
					<dim>32</dim>
					<dim>144</dim>
					<dim>1</dim>
					<dim>1</dim>
				</port>
			</output>
		</layer>
		<layer id="273" name="model/conv2d_8/Conv2D/fq_weights_1/zero_point9302_const" type="Const" version="opset1">
			<data element_type="f16" offset="86350" shape="32,1,1,1" size="64"/>
			<output>
				<port id="0" precision="FP16">
					<dim>32</dim>
					<dim>1</dim>
					<dim>1</dim>
					<dim>1</dim>
				</port>
			</output>
		</layer>
		<layer id="274" name="model/conv2d_8/Conv2D/fq_weights_1/minus_zp" type="Subtract" version="opset1">
			<data auto_broadcast="numpy"/>
			<input>
				<port id="0">
					<dim>32</dim>
					<dim>144</dim>
					<dim>1</dim>
					<dim>1</dim>
				</port>
				<port id="1">
					<dim>32</dim>
					<dim>1</dim>
					<dim>1</dim>
					<dim>1</dim>
				</port>
			</input>
			<output>
				<port id="2" precision="FP16">
					<dim>32</dim>
					<dim>144</dim>
					<dim>1</dim>
					<dim>1</dim>
				</port>
			</output>
		</layer>
		<layer id="275" name="model/conv2d_8/Conv2D/fq_weights_1/scale9297_const" type="Const" version="opset1">
			<data element_type="f16" offset="86414" shape="32,1,1,1" size="64"/>
			<output>
				<port id="0" precision="FP16">
					<dim>32</dim>
					<dim>1</dim>
					<dim>1</dim>
					<dim>1</dim>
				</port>
			</output>
		</layer>
		<layer id="276" name="model/conv2d_8/Conv2D/fq_weights_1/mulpiply_by_scale" type="Multiply" version="opset1">
			<data auto_broadcast="numpy"/>
			<input>
				<port id="0">
					<dim>32</dim>
					<dim>144</dim>
					<dim>1</dim>
					<dim>1</dim>
				</port>
				<port id="1">
					<dim>32</dim>
					<dim>1</dim>
					<dim>1</dim>
					<dim>1</dim>
				</port>
			</input>
			<output>
				<port id="2" precision="FP16">
					<dim>32</dim>
					<dim>144</dim>
					<dim>1</dim>
					<dim>1</dim>
				</port>
			</output>
		</layer>
		<layer id="277" name="model/conv2d_8/Conv2D" type="Convolution" version="opset1">
			<data auto_pad="same_upper" dilations="1,1" pads_begin="0,0" pads_end="0,0" strides="1,1"/>
			<input>
				<port id="0">
					<dim>1</dim>
					<dim>144</dim>
					<dim>96</dim>
					<dim>160</dim>
				</port>
				<port id="1">
					<dim>32</dim>
					<dim>144</dim>
					<dim>1</dim>
					<dim>1</dim>
				</port>
			</input>
			<output>
				<port id="2" precision="FP16">
					<dim>1</dim>
					<dim>32</dim>
					<dim>96</dim>
					<dim>160</dim>
				</port>
			</output>
		</layer>
		<layer id="278" name="data_add_166381664317198/EltwiseUnsqueeze17422_const559_const" type="Const" version="opset1">
			<data element_type="f16" offset="86478" shape="1,32,1,1" size="64"/>
			<output>
				<port id="0" precision="FP16">
					<dim>1</dim>
					<dim>32</dim>
					<dim>1</dim>
					<dim>1</dim>
				</port>
			</output>
		</layer>
		<layer id="279" name="model/conv2d_8/BiasAdd/Add/Fused_Add_" type="Add" version="opset1">
			<data auto_broadcast="numpy"/>
			<input>
				<port id="0">
					<dim>1</dim>
					<dim>32</dim>
					<dim>96</dim>
					<dim>160</dim>
				</port>
				<port id="1">
					<dim>1</dim>
					<dim>32</dim>
					<dim>1</dim>
					<dim>1</dim>
				</port>
			</input>
			<output>
				<port id="2" names="model/batch_normalization_12/FusedBatchNorm:0" precision="FP16">
					<dim>1</dim>
					<dim>32</dim>
					<dim>96</dim>
					<dim>160</dim>
				</port>
			</output>
		</layer>
		<layer id="280" name="22532257_const" type="Const" version="opset1">
			<data element_type="f16" offset="86542" shape="" size="2"/>
			<output>
				<port id="0" precision="FP16"/>
			</output>
		</layer>
		<layer id="281" name="22542258_const" type="Const" version="opset1">
			<data element_type="f16" offset="86544" shape="" size="2"/>
			<output>
				<port id="0" precision="FP16"/>
			</output>
		</layer>
		<layer id="282" name="22552259_const" type="Const" version="opset1">
			<data element_type="f16" offset="86542" shape="" size="2"/>
			<output>
				<port id="0" precision="FP16"/>
			</output>
		</layer>
		<layer id="283" name="22562260_const" type="Const" version="opset1">
			<data element_type="f16" offset="86544" shape="" size="2"/>
			<output>
				<port id="0" precision="FP16"/>
			</output>
		</layer>
		<layer id="284" name="model/add_1/add/fq_input_0" type="FakeQuantize" version="opset1">
			<data auto_broadcast="numpy" levels="256"/>
			<input>
				<port id="0">
					<dim>1</dim>
					<dim>32</dim>
					<dim>96</dim>
					<dim>160</dim>
				</port>
				<port id="1"/>
				<port id="2"/>
				<port id="3"/>
				<port id="4"/>
			</input>
			<output>
				<port id="5" precision="FP16">
					<dim>1</dim>
					<dim>32</dim>
					<dim>96</dim>
					<dim>160</dim>
				</port>
			</output>
		</layer>
		<layer id="285" name="model/conv2d_9/Conv2D/Transpose21568_const5616626/quantized8785_const" type="Const" version="opset1">
			<data element_type="i8" offset="86546" shape="192,32,1,1" size="6144"/>
			<output>
				<port id="0" precision="I8">
					<dim>192</dim>
					<dim>32</dim>
					<dim>1</dim>
					<dim>1</dim>
				</port>
			</output>
		</layer>
		<layer id="286" name="model/conv2d_9/Conv2D/Transpose21568_const5616626/quantized/to_f16" type="Convert" version="opset1">
			<data destination_type="f16"/>
			<input>
				<port id="0">
					<dim>192</dim>
					<dim>32</dim>
					<dim>1</dim>
					<dim>1</dim>
				</port>
			</input>
			<output>
				<port id="1" precision="FP16">
					<dim>192</dim>
					<dim>32</dim>
					<dim>1</dim>
					<dim>1</dim>
				</port>
			</output>
		</layer>
		<layer id="287" name="model/conv2d_9/Conv2D/fq_weights_1/zero_point8798_const" type="Const" version="opset1">
			<data element_type="f16" offset="92690" shape="192,1,1,1" size="384"/>
			<output>
				<port id="0" precision="FP16">
					<dim>192</dim>
					<dim>1</dim>
					<dim>1</dim>
					<dim>1</dim>
				</port>
			</output>
		</layer>
		<layer id="288" name="model/conv2d_9/Conv2D/fq_weights_1/minus_zp" type="Subtract" version="opset1">
			<data auto_broadcast="numpy"/>
			<input>
				<port id="0">
					<dim>192</dim>
					<dim>32</dim>
					<dim>1</dim>
					<dim>1</dim>
				</port>
				<port id="1">
					<dim>192</dim>
					<dim>1</dim>
					<dim>1</dim>
					<dim>1</dim>
				</port>
			</input>
			<output>
				<port id="2" precision="FP16">
					<dim>192</dim>
					<dim>32</dim>
					<dim>1</dim>
					<dim>1</dim>
				</port>
			</output>
		</layer>
		<layer id="289" name="model/conv2d_9/Conv2D/fq_weights_1/scale8793_const" type="Const" version="opset1">
			<data element_type="f16" offset="93074" shape="192,1,1,1" size="384"/>
			<output>
				<port id="0" precision="FP16">
					<dim>192</dim>
					<dim>1</dim>
					<dim>1</dim>
					<dim>1</dim>
				</port>
			</output>
		</layer>
		<layer id="290" name="model/conv2d_9/Conv2D/fq_weights_1/mulpiply_by_scale" type="Multiply" version="opset1">
			<data auto_broadcast="numpy"/>
			<input>
				<port id="0">
					<dim>192</dim>
					<dim>32</dim>
					<dim>1</dim>
					<dim>1</dim>
				</port>
				<port id="1">
					<dim>192</dim>
					<dim>1</dim>
					<dim>1</dim>
					<dim>1</dim>
				</port>
			</input>
			<output>
				<port id="2" precision="FP16">
					<dim>192</dim>
					<dim>32</dim>
					<dim>1</dim>
					<dim>1</dim>
				</port>
			</output>
		</layer>
		<layer id="291" name="model/conv2d_9/Conv2D" type="Convolution" version="opset1">
			<data auto_pad="same_upper" dilations="1,1" pads_begin="0,0" pads_end="0,0" strides="1,1"/>
			<input>
				<port id="0">
					<dim>1</dim>
					<dim>32</dim>
					<dim>96</dim>
					<dim>160</dim>
				</port>
				<port id="1">
					<dim>192</dim>
					<dim>32</dim>
					<dim>1</dim>
					<dim>1</dim>
				</port>
			</input>
			<output>
				<port id="2" precision="FP16">
					<dim>1</dim>
					<dim>192</dim>
					<dim>96</dim>
					<dim>160</dim>
				</port>
			</output>
		</layer>
		<layer id="292" name="data_add_166461665117200/EltwiseUnsqueeze17430_const563_const" type="Const" version="opset1">
			<data element_type="f16" offset="93458" shape="1,192,1,1" size="384"/>
			<output>
				<port id="0" precision="FP16">
					<dim>1</dim>
					<dim>192</dim>
					<dim>1</dim>
					<dim>1</dim>
				</port>
			</output>
		</layer>
		<layer id="293" name="model/conv2d_9/BiasAdd/Add/Fused_Add_" type="Add" version="opset1">
			<data auto_broadcast="numpy"/>
			<input>
				<port id="0">
					<dim>1</dim>
					<dim>192</dim>
					<dim>96</dim>
					<dim>160</dim>
				</port>
				<port id="1">
					<dim>1</dim>
					<dim>192</dim>
					<dim>1</dim>
					<dim>1</dim>
				</port>
			</input>
			<output>
				<port id="2" names="model/batch_normalization_13/FusedBatchNorm:0" precision="FP16">
					<dim>1</dim>
					<dim>192</dim>
					<dim>96</dim>
					<dim>160</dim>
				</port>
			</output>
		</layer>
		<layer id="294" name="model/re_lu_9/Relu6" type="Clamp" version="opset1">
			<data max="6.0" min="0.0"/>
			<input>
				<port id="0">
					<dim>1</dim>
					<dim>192</dim>
					<dim>96</dim>
					<dim>160</dim>
				</port>
			</input>
			<output>
				<port id="1" names="model/re_lu_9/Relu6:0" precision="FP16">
					<dim>1</dim>
					<dim>192</dim>
					<dim>96</dim>
					<dim>160</dim>
				</port>
			</output>
		</layer>
		<layer id="295" name="22132217_const" type="Const" version="opset1">
			<data element_type="f16" offset="93842" shape="1,192,1,1" size="384"/>
			<output>
				<port id="0" precision="FP16">
					<dim>1</dim>
					<dim>192</dim>
					<dim>1</dim>
					<dim>1</dim>
				</port>
			</output>
		</layer>
		<layer id="296" name="22142218_const" type="Const" version="opset1">
			<data element_type="f16" offset="94226" shape="1,192,1,1" size="384"/>
			<output>
				<port id="0" precision="FP16">
					<dim>1</dim>
					<dim>192</dim>
					<dim>1</dim>
					<dim>1</dim>
				</port>
			</output>
		</layer>
		<layer id="297" name="22152219_const" type="Const" version="opset1">
			<data element_type="f16" offset="93842" shape="1,192,1,1" size="384"/>
			<output>
				<port id="0" precision="FP16">
					<dim>1</dim>
					<dim>192</dim>
					<dim>1</dim>
					<dim>1</dim>
				</port>
			</output>
		</layer>
		<layer id="298" name="22162220_const" type="Const" version="opset1">
			<data element_type="f16" offset="94226" shape="1,192,1,1" size="384"/>
			<output>
				<port id="0" precision="FP16">
					<dim>1</dim>
					<dim>192</dim>
					<dim>1</dim>
					<dim>1</dim>
				</port>
			</output>
		</layer>
		<layer id="299" name="model/separable_conv2d_4/separable_conv2d/depthwise/fq_input_0" type="FakeQuantize" version="opset1">
			<data auto_broadcast="numpy" levels="256"/>
			<input>
				<port id="0">
					<dim>1</dim>
					<dim>192</dim>
					<dim>96</dim>
					<dim>160</dim>
				</port>
				<port id="1">
					<dim>1</dim>
					<dim>192</dim>
					<dim>1</dim>
					<dim>1</dim>
				</port>
				<port id="2">
					<dim>1</dim>
					<dim>192</dim>
					<dim>1</dim>
					<dim>1</dim>
				</port>
				<port id="3">
					<dim>1</dim>
					<dim>192</dim>
					<dim>1</dim>
					<dim>1</dim>
				</port>
				<port id="4">
					<dim>1</dim>
					<dim>192</dim>
					<dim>1</dim>
					<dim>1</dim>
				</port>
			</input>
			<output>
				<port id="5" precision="FP16">
					<dim>1</dim>
					<dim>192</dim>
					<dim>96</dim>
					<dim>160</dim>
				</port>
			</output>
		</layer>
		<layer id="300" name="2930029303_const5666628/quantized8713_const" type="Const" version="opset1">
			<data element_type="i8" offset="94610" shape="192,1,3,3" size="1728"/>
			<output>
				<port id="0" precision="I8">
					<dim>192</dim>
					<dim>1</dim>
					<dim>3</dim>
					<dim>3</dim>
				</port>
			</output>
		</layer>
		<layer id="301" name="2930029303_const5666628/quantized/to_f16" type="Convert" version="opset1">
			<data destination_type="f16"/>
			<input>
				<port id="0">
					<dim>192</dim>
					<dim>1</dim>
					<dim>3</dim>
					<dim>3</dim>
				</port>
			</input>
			<output>
				<port id="1" precision="FP16">
					<dim>192</dim>
					<dim>1</dim>
					<dim>3</dim>
					<dim>3</dim>
				</port>
			</output>
		</layer>
		<layer id="302" name="model/separable_conv2d_4/separable_conv2d/depthwise/fq_weights_1/zero_point8726_const" type="Const" version="opset1">
			<data element_type="f16" offset="96338" shape="192,1,1,1" size="384"/>
			<output>
				<port id="0" precision="FP16">
					<dim>192</dim>
					<dim>1</dim>
					<dim>1</dim>
					<dim>1</dim>
				</port>
			</output>
		</layer>
		<layer id="303" name="model/separable_conv2d_4/separable_conv2d/depthwise/fq_weights_1/minus_zp" type="Subtract" version="opset1">
			<data auto_broadcast="numpy"/>
			<input>
				<port id="0">
					<dim>192</dim>
					<dim>1</dim>
					<dim>3</dim>
					<dim>3</dim>
				</port>
				<port id="1">
					<dim>192</dim>
					<dim>1</dim>
					<dim>1</dim>
					<dim>1</dim>
				</port>
			</input>
			<output>
				<port id="2" precision="FP16">
					<dim>192</dim>
					<dim>1</dim>
					<dim>3</dim>
					<dim>3</dim>
				</port>
			</output>
		</layer>
		<layer id="304" name="model/separable_conv2d_4/separable_conv2d/depthwise/fq_weights_1/scale8721_const" type="Const" version="opset1">
			<data element_type="f16" offset="96722" shape="192,1,1,1" size="384"/>
			<output>
				<port id="0" precision="FP16">
					<dim>192</dim>
					<dim>1</dim>
					<dim>1</dim>
					<dim>1</dim>
				</port>
			</output>
		</layer>
		<layer id="305" name="model/separable_conv2d_4/separable_conv2d/depthwise/fq_weights_1/mulpiply_by_scale" type="Multiply" version="opset1">
			<data auto_broadcast="numpy"/>
			<input>
				<port id="0">
					<dim>192</dim>
					<dim>1</dim>
					<dim>3</dim>
					<dim>3</dim>
				</port>
				<port id="1">
					<dim>192</dim>
					<dim>1</dim>
					<dim>1</dim>
					<dim>1</dim>
				</port>
			</input>
			<output>
				<port id="2" precision="FP16">
					<dim>192</dim>
					<dim>1</dim>
					<dim>3</dim>
					<dim>3</dim>
				</port>
			</output>
		</layer>
		<layer id="306" name="11114/value11116_const" type="Const" version="opset1">
			<data element_type="i64" offset="97106" shape="5" size="40"/>
			<output>
				<port id="0" precision="I64">
					<dim>5</dim>
				</port>
			</output>
		</layer>
		<layer id="307" name="11114" type="Reshape" version="opset1">
			<data special_zero="true"/>
			<input>
				<port id="0">
					<dim>192</dim>
					<dim>1</dim>
					<dim>3</dim>
					<dim>3</dim>
				</port>
				<port id="1">
					<dim>5</dim>
				</port>
			</input>
			<output>
				<port id="2" precision="FP16">
					<dim>192</dim>
					<dim>1</dim>
					<dim>1</dim>
					<dim>3</dim>
					<dim>3</dim>
				</port>
			</output>
		</layer>
		<layer id="308" name="model/separable_conv2d_4/separable_conv2d/depthwise" type="GroupConvolution" version="opset1">
			<data auto_pad="same_upper" dilations="1,1" pads_begin="0,0" pads_end="0,0" strides="1,1"/>
			<input>
				<port id="0">
					<dim>1</dim>
					<dim>192</dim>
					<dim>96</dim>
					<dim>160</dim>
				</port>
				<port id="1">
					<dim>192</dim>
					<dim>1</dim>
					<dim>1</dim>
					<dim>3</dim>
					<dim>3</dim>
				</port>
			</input>
			<output>
				<port id="2" names="model/separable_conv2d_4/separable_conv2d/depthwise:0" precision="FP16">
					<dim>1</dim>
					<dim>192</dim>
					<dim>96</dim>
					<dim>160</dim>
				</port>
			</output>
		</layer>
		<layer id="309" name="11901192_const" type="Const" version="opset1">
			<data element_type="f16" offset="97146" shape="1,192,1,1" size="384"/>
			<output>
				<port id="0" precision="FP16">
					<dim>1</dim>
					<dim>192</dim>
					<dim>1</dim>
					<dim>1</dim>
				</port>
			</output>
		</layer>
		<layer id="310" name="model/separable_conv2d_4/separable_conv2d/depthwise/add_" type="Add" version="opset1">
			<data auto_broadcast="numpy"/>
			<input>
				<port id="0">
					<dim>1</dim>
					<dim>192</dim>
					<dim>96</dim>
					<dim>160</dim>
				</port>
				<port id="1">
					<dim>1</dim>
					<dim>192</dim>
					<dim>1</dim>
					<dim>1</dim>
				</port>
			</input>
			<output>
				<port id="2" precision="FP16">
					<dim>1</dim>
					<dim>192</dim>
					<dim>96</dim>
					<dim>160</dim>
				</port>
			</output>
		</layer>
		<layer id="311" name="36233627_const" type="Const" version="opset1">
			<data element_type="f16" offset="97530" shape="" size="2"/>
			<output>
				<port id="0" precision="FP16"/>
			</output>
		</layer>
		<layer id="312" name="36243628_const" type="Const" version="opset1">
			<data element_type="f16" offset="97532" shape="" size="2"/>
			<output>
				<port id="0" precision="FP16"/>
			</output>
		</layer>
		<layer id="313" name="36253629_const" type="Const" version="opset1">
			<data element_type="f16" offset="97530" shape="" size="2"/>
			<output>
				<port id="0" precision="FP16"/>
			</output>
		</layer>
		<layer id="314" name="36263630_const" type="Const" version="opset1">
			<data element_type="f16" offset="97532" shape="" size="2"/>
			<output>
				<port id="0" precision="FP16"/>
			</output>
		</layer>
		<layer id="315" name="model/separable_conv2d_4/separable_conv2d/fq_input_0" type="FakeQuantize" version="opset1">
			<data auto_broadcast="numpy" levels="256"/>
			<input>
				<port id="0">
					<dim>1</dim>
					<dim>192</dim>
					<dim>96</dim>
					<dim>160</dim>
				</port>
				<port id="1"/>
				<port id="2"/>
				<port id="3"/>
				<port id="4"/>
			</input>
			<output>
				<port id="5" precision="FP16">
					<dim>1</dim>
					<dim>192</dim>
					<dim>96</dim>
					<dim>160</dim>
				</port>
			</output>
		</layer>
		<layer id="316" name="model/separable_conv2d_4/separable_conv2d/Transpose21576_const5686629/quantized9073_const" type="Const" version="opset1">
			<data element_type="i8" offset="97534" shape="192,192,1,1" size="36864"/>
			<output>
				<port id="0" precision="I8">
					<dim>192</dim>
					<dim>192</dim>
					<dim>1</dim>
					<dim>1</dim>
				</port>
			</output>
		</layer>
		<layer id="317" name="model/separable_conv2d_4/separable_conv2d/Transpose21576_const5686629/quantized/to_f16" type="Convert" version="opset1">
			<data destination_type="f16"/>
			<input>
				<port id="0">
					<dim>192</dim>
					<dim>192</dim>
					<dim>1</dim>
					<dim>1</dim>
				</port>
			</input>
			<output>
				<port id="1" precision="FP16">
					<dim>192</dim>
					<dim>192</dim>
					<dim>1</dim>
					<dim>1</dim>
				</port>
			</output>
		</layer>
		<layer id="318" name="model/separable_conv2d_4/separable_conv2d/fq_weights_1/zero_point9086_const" type="Const" version="opset1">
			<data element_type="f16" offset="134398" shape="192,1,1,1" size="384"/>
			<output>
				<port id="0" precision="FP16">
					<dim>192</dim>
					<dim>1</dim>
					<dim>1</dim>
					<dim>1</dim>
				</port>
			</output>
		</layer>
		<layer id="319" name="model/separable_conv2d_4/separable_conv2d/fq_weights_1/minus_zp" type="Subtract" version="opset1">
			<data auto_broadcast="numpy"/>
			<input>
				<port id="0">
					<dim>192</dim>
					<dim>192</dim>
					<dim>1</dim>
					<dim>1</dim>
				</port>
				<port id="1">
					<dim>192</dim>
					<dim>1</dim>
					<dim>1</dim>
					<dim>1</dim>
				</port>
			</input>
			<output>
				<port id="2" precision="FP16">
					<dim>192</dim>
					<dim>192</dim>
					<dim>1</dim>
					<dim>1</dim>
				</port>
			</output>
		</layer>
		<layer id="320" name="model/separable_conv2d_4/separable_conv2d/fq_weights_1/scale9081_const" type="Const" version="opset1">
			<data element_type="f16" offset="134782" shape="192,1,1,1" size="384"/>
			<output>
				<port id="0" precision="FP16">
					<dim>192</dim>
					<dim>1</dim>
					<dim>1</dim>
					<dim>1</dim>
				</port>
			</output>
		</layer>
		<layer id="321" name="model/separable_conv2d_4/separable_conv2d/fq_weights_1/mulpiply_by_scale" type="Multiply" version="opset1">
			<data auto_broadcast="numpy"/>
			<input>
				<port id="0">
					<dim>192</dim>
					<dim>192</dim>
					<dim>1</dim>
					<dim>1</dim>
				</port>
				<port id="1">
					<dim>192</dim>
					<dim>1</dim>
					<dim>1</dim>
					<dim>1</dim>
				</port>
			</input>
			<output>
				<port id="2" precision="FP16">
					<dim>192</dim>
					<dim>192</dim>
					<dim>1</dim>
					<dim>1</dim>
				</port>
			</output>
		</layer>
		<layer id="322" name="model/separable_conv2d_4/separable_conv2d" type="Convolution" version="opset1">
			<data auto_pad="valid" dilations="1,1" pads_begin="0,0" pads_end="0,0" strides="1,1"/>
			<input>
				<port id="0">
					<dim>1</dim>
					<dim>192</dim>
					<dim>96</dim>
					<dim>160</dim>
				</port>
				<port id="1">
					<dim>192</dim>
					<dim>192</dim>
					<dim>1</dim>
					<dim>1</dim>
				</port>
			</input>
			<output>
				<port id="2" precision="FP16">
					<dim>1</dim>
					<dim>192</dim>
					<dim>96</dim>
					<dim>160</dim>
				</port>
			</output>
		</layer>
		<layer id="323" name="data_add_166541665917202/EltwiseUnsqueeze17438_const570_const" type="Const" version="opset1">
			<data element_type="f16" offset="135166" shape="1,192,1,1" size="384"/>
			<output>
				<port id="0" precision="FP16">
					<dim>1</dim>
					<dim>192</dim>
					<dim>1</dim>
					<dim>1</dim>
				</port>
			</output>
		</layer>
		<layer id="324" name="model/separable_conv2d_4/BiasAdd/Add/Fused_Add_" type="Add" version="opset1">
			<data auto_broadcast="numpy"/>
			<input>
				<port id="0">
					<dim>1</dim>
					<dim>192</dim>
					<dim>96</dim>
					<dim>160</dim>
				</port>
				<port id="1">
					<dim>1</dim>
					<dim>192</dim>
					<dim>1</dim>
					<dim>1</dim>
				</port>
			</input>
			<output>
				<port id="2" names="model/batch_normalization_14/FusedBatchNorm:0" precision="FP16">
					<dim>1</dim>
					<dim>192</dim>
					<dim>96</dim>
					<dim>160</dim>
				</port>
			</output>
		</layer>
		<layer id="325" name="model/re_lu_10/Relu6" type="Clamp" version="opset1">
			<data max="6.0" min="0.0"/>
			<input>
				<port id="0">
					<dim>1</dim>
					<dim>192</dim>
					<dim>96</dim>
					<dim>160</dim>
				</port>
			</input>
			<output>
				<port id="1" names="model/re_lu_10/Relu6:0" precision="FP16">
					<dim>1</dim>
					<dim>192</dim>
					<dim>96</dim>
					<dim>160</dim>
				</port>
			</output>
		</layer>
		<layer id="326" name="27432747_const" type="Const" version="opset1">
			<data element_type="f16" offset="1072" shape="" size="2"/>
			<output>
				<port id="0" precision="FP16"/>
			</output>
		</layer>
		<layer id="327" name="27442748_const" type="Const" version="opset1">
			<data element_type="f16" offset="135550" shape="" size="2"/>
			<output>
				<port id="0" precision="FP16"/>
			</output>
		</layer>
		<layer id="328" name="27452749_const" type="Const" version="opset1">
			<data element_type="f16" offset="1072" shape="" size="2"/>
			<output>
				<port id="0" precision="FP16"/>
			</output>
		</layer>
		<layer id="329" name="27462750_const" type="Const" version="opset1">
			<data element_type="f16" offset="135550" shape="" size="2"/>
			<output>
				<port id="0" precision="FP16"/>
			</output>
		</layer>
		<layer id="330" name="model/conv2d_10/Conv2D/fq_input_0" type="FakeQuantize" version="opset1">
			<data auto_broadcast="numpy" levels="256"/>
			<input>
				<port id="0">
					<dim>1</dim>
					<dim>192</dim>
					<dim>96</dim>
					<dim>160</dim>
				</port>
				<port id="1"/>
				<port id="2"/>
				<port id="3"/>
				<port id="4"/>
			</input>
			<output>
				<port id="5" precision="FP16">
					<dim>1</dim>
					<dim>192</dim>
					<dim>96</dim>
					<dim>160</dim>
				</port>
			</output>
		</layer>
		<layer id="331" name="model/conv2d_10/Conv2D/Transpose21580_const5736631/quantized7897_const" type="Const" version="opset1">
			<data element_type="i8" offset="135552" shape="32,192,1,1" size="6144"/>
			<output>
				<port id="0" precision="I8">
					<dim>32</dim>
					<dim>192</dim>
					<dim>1</dim>
					<dim>1</dim>
				</port>
			</output>
		</layer>
		<layer id="332" name="model/conv2d_10/Conv2D/Transpose21580_const5736631/quantized/to_f16" type="Convert" version="opset1">
			<data destination_type="f16"/>
			<input>
				<port id="0">
					<dim>32</dim>
					<dim>192</dim>
					<dim>1</dim>
					<dim>1</dim>
				</port>
			</input>
			<output>
				<port id="1" precision="FP16">
					<dim>32</dim>
					<dim>192</dim>
					<dim>1</dim>
					<dim>1</dim>
				</port>
			</output>
		</layer>
		<layer id="333" name="model/conv2d_10/Conv2D/fq_weights_1/zero_point7910_const" type="Const" version="opset1">
			<data element_type="f16" offset="141696" shape="32,1,1,1" size="64"/>
			<output>
				<port id="0" precision="FP16">
					<dim>32</dim>
					<dim>1</dim>
					<dim>1</dim>
					<dim>1</dim>
				</port>
			</output>
		</layer>
		<layer id="334" name="model/conv2d_10/Conv2D/fq_weights_1/minus_zp" type="Subtract" version="opset1">
			<data auto_broadcast="numpy"/>
			<input>
				<port id="0">
					<dim>32</dim>
					<dim>192</dim>
					<dim>1</dim>
					<dim>1</dim>
				</port>
				<port id="1">
					<dim>32</dim>
					<dim>1</dim>
					<dim>1</dim>
					<dim>1</dim>
				</port>
			</input>
			<output>
				<port id="2" precision="FP16">
					<dim>32</dim>
					<dim>192</dim>
					<dim>1</dim>
					<dim>1</dim>
				</port>
			</output>
		</layer>
		<layer id="335" name="model/conv2d_10/Conv2D/fq_weights_1/scale7905_const" type="Const" version="opset1">
			<data element_type="f16" offset="141760" shape="32,1,1,1" size="64"/>
			<output>
				<port id="0" precision="FP16">
					<dim>32</dim>
					<dim>1</dim>
					<dim>1</dim>
					<dim>1</dim>
				</port>
			</output>
		</layer>
		<layer id="336" name="model/conv2d_10/Conv2D/fq_weights_1/mulpiply_by_scale" type="Multiply" version="opset1">
			<data auto_broadcast="numpy"/>
			<input>
				<port id="0">
					<dim>32</dim>
					<dim>192</dim>
					<dim>1</dim>
					<dim>1</dim>
				</port>
				<port id="1">
					<dim>32</dim>
					<dim>1</dim>
					<dim>1</dim>
					<dim>1</dim>
				</port>
			</input>
			<output>
				<port id="2" precision="FP16">
					<dim>32</dim>
					<dim>192</dim>
					<dim>1</dim>
					<dim>1</dim>
				</port>
			</output>
		</layer>
		<layer id="337" name="model/conv2d_10/Conv2D" type="Convolution" version="opset1">
			<data auto_pad="same_upper" dilations="1,1" pads_begin="0,0" pads_end="0,0" strides="1,1"/>
			<input>
				<port id="0">
					<dim>1</dim>
					<dim>192</dim>
					<dim>96</dim>
					<dim>160</dim>
				</port>
				<port id="1">
					<dim>32</dim>
					<dim>192</dim>
					<dim>1</dim>
					<dim>1</dim>
				</port>
			</input>
			<output>
				<port id="2" precision="FP16">
					<dim>1</dim>
					<dim>32</dim>
					<dim>96</dim>
					<dim>160</dim>
				</port>
			</output>
		</layer>
		<layer id="338" name="data_add_166621666717204/EltwiseUnsqueeze17446_const575_const" type="Const" version="opset1">
			<data element_type="f16" offset="141824" shape="1,32,1,1" size="64"/>
			<output>
				<port id="0" precision="FP16">
					<dim>1</dim>
					<dim>32</dim>
					<dim>1</dim>
					<dim>1</dim>
				</port>
			</output>
		</layer>
		<layer id="339" name="model/conv2d_10/BiasAdd/Add/Fused_Add_" type="Add" version="opset1">
			<data auto_broadcast="numpy"/>
			<input>
				<port id="0">
					<dim>1</dim>
					<dim>32</dim>
					<dim>96</dim>
					<dim>160</dim>
				</port>
				<port id="1">
					<dim>1</dim>
					<dim>32</dim>
					<dim>1</dim>
					<dim>1</dim>
				</port>
			</input>
			<output>
				<port id="2" names="model/batch_normalization_15/FusedBatchNorm:0" precision="FP16">
					<dim>1</dim>
					<dim>32</dim>
					<dim>96</dim>
					<dim>160</dim>
				</port>
			</output>
		</layer>
		<layer id="340" name="22632267_const" type="Const" version="opset1">
			<data element_type="f16" offset="141888" shape="" size="2"/>
			<output>
				<port id="0" precision="FP16"/>
			</output>
		</layer>
		<layer id="341" name="22642268_const" type="Const" version="opset1">
			<data element_type="f16" offset="141890" shape="" size="2"/>
			<output>
				<port id="0" precision="FP16"/>
			</output>
		</layer>
		<layer id="342" name="22652269_const" type="Const" version="opset1">
			<data element_type="f16" offset="141888" shape="" size="2"/>
			<output>
				<port id="0" precision="FP16"/>
			</output>
		</layer>
		<layer id="343" name="22662270_const" type="Const" version="opset1">
			<data element_type="f16" offset="141890" shape="" size="2"/>
			<output>
				<port id="0" precision="FP16"/>
			</output>
		</layer>
		<layer id="344" name="model/add_1/add/fq_input_1" type="FakeQuantize" version="opset1">
			<data auto_broadcast="numpy" levels="256"/>
			<input>
				<port id="0">
					<dim>1</dim>
					<dim>32</dim>
					<dim>96</dim>
					<dim>160</dim>
				</port>
				<port id="1"/>
				<port id="2"/>
				<port id="3"/>
				<port id="4"/>
			</input>
			<output>
				<port id="5" precision="FP16">
					<dim>1</dim>
					<dim>32</dim>
					<dim>96</dim>
					<dim>160</dim>
				</port>
			</output>
		</layer>
		<layer id="345" name="model/add_1/add" type="Add" version="opset1">
			<data auto_broadcast="numpy"/>
			<input>
				<port id="0">
					<dim>1</dim>
					<dim>32</dim>
					<dim>96</dim>
					<dim>160</dim>
				</port>
				<port id="1">
					<dim>1</dim>
					<dim>32</dim>
					<dim>96</dim>
					<dim>160</dim>
				</port>
			</input>
			<output>
				<port id="2" names="model/add_1/add:0" precision="FP16">
					<dim>1</dim>
					<dim>32</dim>
					<dim>96</dim>
					<dim>160</dim>
				</port>
			</output>
		</layer>
		<layer id="346" name="31433147_const" type="Const" version="opset1">
			<data element_type="f16" offset="141892" shape="" size="2"/>
			<output>
				<port id="0" precision="FP16"/>
			</output>
		</layer>
		<layer id="347" name="31443148_const" type="Const" version="opset1">
			<data element_type="f16" offset="141894" shape="" size="2"/>
			<output>
				<port id="0" precision="FP16"/>
			</output>
		</layer>
		<layer id="348" name="31453149_const" type="Const" version="opset1">
			<data element_type="f16" offset="141892" shape="" size="2"/>
			<output>
				<port id="0" precision="FP16"/>
			</output>
		</layer>
		<layer id="349" name="31463150_const" type="Const" version="opset1">
			<data element_type="f16" offset="141894" shape="" size="2"/>
			<output>
				<port id="0" precision="FP16"/>
			</output>
		</layer>
		<layer id="350" name="model/add_2/add/fq_input_0" type="FakeQuantize" version="opset1">
			<data auto_broadcast="numpy" levels="256"/>
			<input>
				<port id="0">
					<dim>1</dim>
					<dim>32</dim>
					<dim>96</dim>
					<dim>160</dim>
				</port>
				<port id="1"/>
				<port id="2"/>
				<port id="3"/>
				<port id="4"/>
			</input>
			<output>
				<port id="5" precision="FP16">
					<dim>1</dim>
					<dim>32</dim>
					<dim>96</dim>
					<dim>160</dim>
				</port>
			</output>
		</layer>
		<layer id="351" name="model/conv2d_11/Conv2D/Transpose21584_const5786633/quantized8401_const" type="Const" version="opset1">
			<data element_type="i8" offset="141896" shape="192,32,1,1" size="6144"/>
			<output>
				<port id="0" precision="I8">
					<dim>192</dim>
					<dim>32</dim>
					<dim>1</dim>
					<dim>1</dim>
				</port>
			</output>
		</layer>
		<layer id="352" name="model/conv2d_11/Conv2D/Transpose21584_const5786633/quantized/to_f16" type="Convert" version="opset1">
			<data destination_type="f16"/>
			<input>
				<port id="0">
					<dim>192</dim>
					<dim>32</dim>
					<dim>1</dim>
					<dim>1</dim>
				</port>
			</input>
			<output>
				<port id="1" precision="FP16">
					<dim>192</dim>
					<dim>32</dim>
					<dim>1</dim>
					<dim>1</dim>
				</port>
			</output>
		</layer>
		<layer id="353" name="model/conv2d_11/Conv2D/fq_weights_1/zero_point8414_const" type="Const" version="opset1">
			<data element_type="f16" offset="148040" shape="192,1,1,1" size="384"/>
			<output>
				<port id="0" precision="FP16">
					<dim>192</dim>
					<dim>1</dim>
					<dim>1</dim>
					<dim>1</dim>
				</port>
			</output>
		</layer>
		<layer id="354" name="model/conv2d_11/Conv2D/fq_weights_1/minus_zp" type="Subtract" version="opset1">
			<data auto_broadcast="numpy"/>
			<input>
				<port id="0">
					<dim>192</dim>
					<dim>32</dim>
					<dim>1</dim>
					<dim>1</dim>
				</port>
				<port id="1">
					<dim>192</dim>
					<dim>1</dim>
					<dim>1</dim>
					<dim>1</dim>
				</port>
			</input>
			<output>
				<port id="2" precision="FP16">
					<dim>192</dim>
					<dim>32</dim>
					<dim>1</dim>
					<dim>1</dim>
				</port>
			</output>
		</layer>
		<layer id="355" name="model/conv2d_11/Conv2D/fq_weights_1/scale8409_const" type="Const" version="opset1">
			<data element_type="f16" offset="148424" shape="192,1,1,1" size="384"/>
			<output>
				<port id="0" precision="FP16">
					<dim>192</dim>
					<dim>1</dim>
					<dim>1</dim>
					<dim>1</dim>
				</port>
			</output>
		</layer>
		<layer id="356" name="model/conv2d_11/Conv2D/fq_weights_1/mulpiply_by_scale" type="Multiply" version="opset1">
			<data auto_broadcast="numpy"/>
			<input>
				<port id="0">
					<dim>192</dim>
					<dim>32</dim>
					<dim>1</dim>
					<dim>1</dim>
				</port>
				<port id="1">
					<dim>192</dim>
					<dim>1</dim>
					<dim>1</dim>
					<dim>1</dim>
				</port>
			</input>
			<output>
				<port id="2" precision="FP16">
					<dim>192</dim>
					<dim>32</dim>
					<dim>1</dim>
					<dim>1</dim>
				</port>
			</output>
		</layer>
		<layer id="357" name="model/conv2d_11/Conv2D" type="Convolution" version="opset1">
			<data auto_pad="same_upper" dilations="1,1" pads_begin="0,0" pads_end="0,0" strides="1,1"/>
			<input>
				<port id="0">
					<dim>1</dim>
					<dim>32</dim>
					<dim>96</dim>
					<dim>160</dim>
				</port>
				<port id="1">
					<dim>192</dim>
					<dim>32</dim>
					<dim>1</dim>
					<dim>1</dim>
				</port>
			</input>
			<output>
				<port id="2" precision="FP16">
					<dim>1</dim>
					<dim>192</dim>
					<dim>96</dim>
					<dim>160</dim>
				</port>
			</output>
		</layer>
		<layer id="358" name="data_add_166701667517206/EltwiseUnsqueeze17454_const580_const" type="Const" version="opset1">
			<data element_type="f16" offset="148808" shape="1,192,1,1" size="384"/>
			<output>
				<port id="0" precision="FP16">
					<dim>1</dim>
					<dim>192</dim>
					<dim>1</dim>
					<dim>1</dim>
				</port>
			</output>
		</layer>
		<layer id="359" name="model/conv2d_11/BiasAdd/Add/Fused_Add_" type="Add" version="opset1">
			<data auto_broadcast="numpy"/>
			<input>
				<port id="0">
					<dim>1</dim>
					<dim>192</dim>
					<dim>96</dim>
					<dim>160</dim>
				</port>
				<port id="1">
					<dim>1</dim>
					<dim>192</dim>
					<dim>1</dim>
					<dim>1</dim>
				</port>
			</input>
			<output>
				<port id="2" names="model/batch_normalization_16/FusedBatchNorm:0" precision="FP16">
					<dim>1</dim>
					<dim>192</dim>
					<dim>96</dim>
					<dim>160</dim>
				</port>
			</output>
		</layer>
		<layer id="360" name="model/re_lu_11/Relu6" type="Clamp" version="opset1">
			<data max="6.0" min="0.0"/>
			<input>
				<port id="0">
					<dim>1</dim>
					<dim>192</dim>
					<dim>96</dim>
					<dim>160</dim>
				</port>
			</input>
			<output>
				<port id="1" names="model/re_lu_11/Relu6:0" precision="FP16">
					<dim>1</dim>
					<dim>192</dim>
					<dim>96</dim>
					<dim>160</dim>
				</port>
			</output>
		</layer>
		<layer id="361" name="18031807_const" type="Const" version="opset1">
			<data element_type="f16" offset="93842" shape="1,192,1,1" size="384"/>
			<output>
				<port id="0" precision="FP16">
					<dim>1</dim>
					<dim>192</dim>
					<dim>1</dim>
					<dim>1</dim>
				</port>
			</output>
		</layer>
		<layer id="362" name="18041808_const" type="Const" version="opset1">
			<data element_type="f16" offset="149192" shape="1,192,1,1" size="384"/>
			<output>
				<port id="0" precision="FP16">
					<dim>1</dim>
					<dim>192</dim>
					<dim>1</dim>
					<dim>1</dim>
				</port>
			</output>
		</layer>
		<layer id="363" name="18051809_const" type="Const" version="opset1">
			<data element_type="f16" offset="93842" shape="1,192,1,1" size="384"/>
			<output>
				<port id="0" precision="FP16">
					<dim>1</dim>
					<dim>192</dim>
					<dim>1</dim>
					<dim>1</dim>
				</port>
			</output>
		</layer>
		<layer id="364" name="18061810_const" type="Const" version="opset1">
			<data element_type="f16" offset="149192" shape="1,192,1,1" size="384"/>
			<output>
				<port id="0" precision="FP16">
					<dim>1</dim>
					<dim>192</dim>
					<dim>1</dim>
					<dim>1</dim>
				</port>
			</output>
		</layer>
		<layer id="365" name="model/separable_conv2d_5/separable_conv2d/depthwise/fq_input_0" type="FakeQuantize" version="opset1">
			<data auto_broadcast="numpy" levels="256"/>
			<input>
				<port id="0">
					<dim>1</dim>
					<dim>192</dim>
					<dim>96</dim>
					<dim>160</dim>
				</port>
				<port id="1">
					<dim>1</dim>
					<dim>192</dim>
					<dim>1</dim>
					<dim>1</dim>
				</port>
				<port id="2">
					<dim>1</dim>
					<dim>192</dim>
					<dim>1</dim>
					<dim>1</dim>
				</port>
				<port id="3">
					<dim>1</dim>
					<dim>192</dim>
					<dim>1</dim>
					<dim>1</dim>
				</port>
				<port id="4">
					<dim>1</dim>
					<dim>192</dim>
					<dim>1</dim>
					<dim>1</dim>
				</port>
			</input>
			<output>
				<port id="5" precision="FP16">
					<dim>1</dim>
					<dim>192</dim>
					<dim>96</dim>
					<dim>160</dim>
				</port>
			</output>
		</layer>
		<layer id="366" name="2928829291_const5836635/quantized8569_const" type="Const" version="opset1">
			<data element_type="i8" offset="149576" shape="192,1,3,3" size="1728"/>
			<output>
				<port id="0" precision="I8">
					<dim>192</dim>
					<dim>1</dim>
					<dim>3</dim>
					<dim>3</dim>
				</port>
			</output>
		</layer>
		<layer id="367" name="2928829291_const5836635/quantized/to_f16" type="Convert" version="opset1">
			<data destination_type="f16"/>
			<input>
				<port id="0">
					<dim>192</dim>
					<dim>1</dim>
					<dim>3</dim>
					<dim>3</dim>
				</port>
			</input>
			<output>
				<port id="1" precision="FP16">
					<dim>192</dim>
					<dim>1</dim>
					<dim>3</dim>
					<dim>3</dim>
				</port>
			</output>
		</layer>
		<layer id="368" name="model/separable_conv2d_5/separable_conv2d/depthwise/fq_weights_1/zero_point8582_const" type="Const" version="opset1">
			<data element_type="f16" offset="151304" shape="192,1,1,1" size="384"/>
			<output>
				<port id="0" precision="FP16">
					<dim>192</dim>
					<dim>1</dim>
					<dim>1</dim>
					<dim>1</dim>
				</port>
			</output>
		</layer>
		<layer id="369" name="model/separable_conv2d_5/separable_conv2d/depthwise/fq_weights_1/minus_zp" type="Subtract" version="opset1">
			<data auto_broadcast="numpy"/>
			<input>
				<port id="0">
					<dim>192</dim>
					<dim>1</dim>
					<dim>3</dim>
					<dim>3</dim>
				</port>
				<port id="1">
					<dim>192</dim>
					<dim>1</dim>
					<dim>1</dim>
					<dim>1</dim>
				</port>
			</input>
			<output>
				<port id="2" precision="FP16">
					<dim>192</dim>
					<dim>1</dim>
					<dim>3</dim>
					<dim>3</dim>
				</port>
			</output>
		</layer>
		<layer id="370" name="model/separable_conv2d_5/separable_conv2d/depthwise/fq_weights_1/scale8577_const" type="Const" version="opset1">
			<data element_type="f16" offset="151688" shape="192,1,1,1" size="384"/>
			<output>
				<port id="0" precision="FP16">
					<dim>192</dim>
					<dim>1</dim>
					<dim>1</dim>
					<dim>1</dim>
				</port>
			</output>
		</layer>
		<layer id="371" name="model/separable_conv2d_5/separable_conv2d/depthwise/fq_weights_1/mulpiply_by_scale" type="Multiply" version="opset1">
			<data auto_broadcast="numpy"/>
			<input>
				<port id="0">
					<dim>192</dim>
					<dim>1</dim>
					<dim>3</dim>
					<dim>3</dim>
				</port>
				<port id="1">
					<dim>192</dim>
					<dim>1</dim>
					<dim>1</dim>
					<dim>1</dim>
				</port>
			</input>
			<output>
				<port id="2" precision="FP16">
					<dim>192</dim>
					<dim>1</dim>
					<dim>3</dim>
					<dim>3</dim>
				</port>
			</output>
		</layer>
		<layer id="372" name="11102/value11104_const" type="Const" version="opset1">
			<data element_type="i64" offset="97106" shape="5" size="40"/>
			<output>
				<port id="0" precision="I64">
					<dim>5</dim>
				</port>
			</output>
		</layer>
		<layer id="373" name="11102" type="Reshape" version="opset1">
			<data special_zero="true"/>
			<input>
				<port id="0">
					<dim>192</dim>
					<dim>1</dim>
					<dim>3</dim>
					<dim>3</dim>
				</port>
				<port id="1">
					<dim>5</dim>
				</port>
			</input>
			<output>
				<port id="2" precision="FP16">
					<dim>192</dim>
					<dim>1</dim>
					<dim>1</dim>
					<dim>3</dim>
					<dim>3</dim>
				</port>
			</output>
		</layer>
		<layer id="374" name="model/separable_conv2d_5/separable_conv2d/depthwise" type="GroupConvolution" version="opset1">
			<data auto_pad="same_upper" dilations="1,1" pads_begin="0,0" pads_end="0,0" strides="1,1"/>
			<input>
				<port id="0">
					<dim>1</dim>
					<dim>192</dim>
					<dim>96</dim>
					<dim>160</dim>
				</port>
				<port id="1">
					<dim>192</dim>
					<dim>1</dim>
					<dim>1</dim>
					<dim>3</dim>
					<dim>3</dim>
				</port>
			</input>
			<output>
				<port id="2" names="model/separable_conv2d_5/separable_conv2d/depthwise:0" precision="FP16">
					<dim>1</dim>
					<dim>192</dim>
					<dim>96</dim>
					<dim>160</dim>
				</port>
			</output>
		</layer>
		<layer id="375" name="11941196_const" type="Const" version="opset1">
			<data element_type="f16" offset="152072" shape="1,192,1,1" size="384"/>
			<output>
				<port id="0" precision="FP16">
					<dim>1</dim>
					<dim>192</dim>
					<dim>1</dim>
					<dim>1</dim>
				</port>
			</output>
		</layer>
		<layer id="376" name="model/separable_conv2d_5/separable_conv2d/depthwise/add_" type="Add" version="opset1">
			<data auto_broadcast="numpy"/>
			<input>
				<port id="0">
					<dim>1</dim>
					<dim>192</dim>
					<dim>96</dim>
					<dim>160</dim>
				</port>
				<port id="1">
					<dim>1</dim>
					<dim>192</dim>
					<dim>1</dim>
					<dim>1</dim>
				</port>
			</input>
			<output>
				<port id="2" precision="FP16">
					<dim>1</dim>
					<dim>192</dim>
					<dim>96</dim>
					<dim>160</dim>
				</port>
			</output>
		</layer>
		<layer id="377" name="19831987_const" type="Const" version="opset1">
			<data element_type="f16" offset="152456" shape="" size="2"/>
			<output>
				<port id="0" precision="FP16"/>
			</output>
		</layer>
		<layer id="378" name="19841988_const" type="Const" version="opset1">
			<data element_type="f16" offset="152458" shape="" size="2"/>
			<output>
…
		<edge from-layer="803" from-port="2" to-layer="808" to-port="0"/>
		<edge from-layer="804" from-port="0" to-layer="808" to-port="1"/>
		<edge from-layer="805" from-port="0" to-layer="808" to-port="2"/>
		<edge from-layer="806" from-port="0" to-layer="808" to-port="3"/>
		<edge from-layer="807" from-port="0" to-layer="808" to-port="4"/>
		<edge from-layer="748" from-port="5" to-layer="809" to-port="0"/>
		<edge from-layer="808" from-port="5" to-layer="809" to-port="1"/>
		<edge from-layer="809" from-port="2" to-layer="814" to-port="0"/>
		<edge from-layer="810" from-port="0" to-layer="814" to-port="1"/>
		<edge from-layer="811" from-port="0" to-layer="814" to-port="2"/>
		<edge from-layer="812" from-port="0" to-layer="814" to-port="3"/>
		<edge from-layer="813" from-port="0" to-layer="814" to-port="4"/>
		<edge from-layer="815" from-port="0" to-layer="816" to-port="0"/>
		<edge from-layer="816" from-port="1" to-layer="818" to-port="0"/>
		<edge from-layer="817" from-port="0" to-layer="818" to-port="1"/>
		<edge from-layer="818" from-port="2" to-layer="820" to-port="0"/>
		<edge from-layer="819" from-port="0" to-layer="820" to-port="1"/>
		<edge from-layer="814" from-port="5" to-layer="821" to-port="0"/>
		<edge from-layer="820" from-port="2" to-layer="821" to-port="1"/>
		<edge from-layer="821" from-port="2" to-layer="823" to-port="0"/>
		<edge from-layer="822" from-port="0" to-layer="823" to-port="1"/>
		<edge from-layer="823" from-port="2" to-layer="824" to-port="0"/>
		<edge from-layer="824" from-port="1" to-layer="829" to-port="0"/>
		<edge from-layer="825" from-port="0" to-layer="829" to-port="1"/>
		<edge from-layer="826" from-port="0" to-layer="829" to-port="2"/>
		<edge from-layer="827" from-port="0" to-layer="829" to-port="3"/>
		<edge from-layer="828" from-port="0" to-layer="829" to-port="4"/>
		<edge from-layer="830" from-port="0" to-layer="831" to-port="0"/>
		<edge from-layer="831" from-port="1" to-layer="833" to-port="0"/>
		<edge from-layer="832" from-port="0" to-layer="833" to-port="1"/>
		<edge from-layer="833" from-port="2" to-layer="835" to-port="0"/>
		<edge from-layer="834" from-port="0" to-layer="835" to-port="1"/>
		<edge from-layer="835" from-port="2" to-layer="837" to-port="0"/>
		<edge from-layer="836" from-port="0" to-layer="837" to-port="1"/>
		<edge from-layer="829" from-port="5" to-layer="838" to-port="0"/>
		<edge from-layer="837" from-port="2" to-layer="838" to-port="1"/>
		<edge from-layer="838" from-port="2" to-layer="840" to-port="0"/>
		<edge from-layer="839" from-port="0" to-layer="840" to-port="1"/>
		<edge from-layer="840" from-port="2" to-layer="845" to-port="0"/>
		<edge from-layer="841" from-port="0" to-layer="845" to-port="1"/>
		<edge from-layer="842" from-port="0" to-layer="845" to-port="2"/>
		<edge from-layer="843" from-port="0" to-layer="845" to-port="3"/>
		<edge from-layer="844" from-port="0" to-layer="845" to-port="4"/>
		<edge from-layer="846" from-port="0" to-layer="847" to-port="0"/>
		<edge from-layer="847" from-port="1" to-layer="849" to-port="0"/>
		<edge from-layer="848" from-port="0" to-layer="849" to-port="1"/>
		<edge from-layer="849" from-port="2" to-layer="851" to-port="0"/>
		<edge from-layer="850" from-port="0" to-layer="851" to-port="1"/>
		<edge from-layer="845" from-port="5" to-layer="852" to-port="0"/>
		<edge from-layer="851" from-port="2" to-layer="852" to-port="1"/>
		<edge from-layer="852" from-port="2" to-layer="854" to-port="0"/>
		<edge from-layer="853" from-port="0" to-layer="854" to-port="1"/>
		<edge from-layer="854" from-port="2" to-layer="855" to-port="0"/>
		<edge from-layer="855" from-port="1" to-layer="860" to-port="0"/>
		<edge from-layer="856" from-port="0" to-layer="860" to-port="1"/>
		<edge from-layer="857" from-port="0" to-layer="860" to-port="2"/>
		<edge from-layer="858" from-port="0" to-layer="860" to-port="3"/>
		<edge from-layer="859" from-port="0" to-layer="860" to-port="4"/>
		<edge from-layer="861" from-port="0" to-layer="862" to-port="0"/>
		<edge from-layer="862" from-port="1" to-layer="864" to-port="0"/>
		<edge from-layer="863" from-port="0" to-layer="864" to-port="1"/>
		<edge from-layer="864" from-port="2" to-layer="866" to-port="0"/>
		<edge from-layer="865" from-port="0" to-layer="866" to-port="1"/>
		<edge from-layer="860" from-port="5" to-layer="867" to-port="0"/>
		<edge from-layer="866" from-port="2" to-layer="867" to-port="1"/>
		<edge from-layer="867" from-port="2" to-layer="869" to-port="0"/>
		<edge from-layer="868" from-port="0" to-layer="869" to-port="1"/>
		<edge from-layer="869" from-port="2" to-layer="874" to-port="0"/>
		<edge from-layer="870" from-port="0" to-layer="874" to-port="1"/>
		<edge from-layer="871" from-port="0" to-layer="874" to-port="2"/>
		<edge from-layer="872" from-port="0" to-layer="874" to-port="3"/>
		<edge from-layer="873" from-port="0" to-layer="874" to-port="4"/>
		<edge from-layer="814" from-port="5" to-layer="875" to-port="0"/>
		<edge from-layer="874" from-port="5" to-layer="875" to-port="1"/>
		<edge from-layer="875" from-port="2" to-layer="880" to-port="0"/>
		<edge from-layer="876" from-port="0" to-layer="880" to-port="1"/>
		<edge from-layer="877" from-port="0" to-layer="880" to-port="2"/>
		<edge from-layer="878" from-port="0" to-layer="880" to-port="3"/>
		<edge from-layer="879" from-port="0" to-layer="880" to-port="4"/>
		<edge from-layer="881" from-port="0" to-layer="882" to-port="0"/>
		<edge from-layer="882" from-port="1" to-layer="884" to-port="0"/>
		<edge from-layer="883" from-port="0" to-layer="884" to-port="1"/>
		<edge from-layer="884" from-port="2" to-layer="886" to-port="0"/>
		<edge from-layer="885" from-port="0" to-layer="886" to-port="1"/>
		<edge from-layer="880" from-port="5" to-layer="887" to-port="0"/>
		<edge from-layer="886" from-port="2" to-layer="887" to-port="1"/>
		<edge from-layer="887" from-port="2" to-layer="889" to-port="0"/>
		<edge from-layer="888" from-port="0" to-layer="889" to-port="1"/>
		<edge from-layer="889" from-port="2" to-layer="894" to-port="0"/>
		<edge from-layer="890" from-port="0" to-layer="894" to-port="1"/>
		<edge from-layer="891" from-port="0" to-layer="894" to-port="2"/>
		<edge from-layer="892" from-port="0" to-layer="894" to-port="3"/>
		<edge from-layer="893" from-port="0" to-layer="894" to-port="4"/>
		<edge from-layer="895" from-port="0" to-layer="896" to-port="0"/>
		<edge from-layer="896" from-port="1" to-layer="898" to-port="0"/>
		<edge from-layer="897" from-port="0" to-layer="898" to-port="1"/>
		<edge from-layer="898" from-port="2" to-layer="900" to-port="0"/>
		<edge from-layer="899" from-port="0" to-layer="900" to-port="1"/>
		<edge from-layer="880" from-port="5" to-layer="901" to-port="0"/>
		<edge from-layer="900" from-port="2" to-layer="901" to-port="1"/>
		<edge from-layer="901" from-port="2" to-layer="903" to-port="0"/>
		<edge from-layer="902" from-port="0" to-layer="903" to-port="1"/>
		<edge from-layer="903" from-port="2" to-layer="904" to-port="0"/>
		<edge from-layer="904" from-port="1" to-layer="909" to-port="0"/>
		<edge from-layer="905" from-port="0" to-layer="909" to-port="1"/>
		<edge from-layer="906" from-port="0" to-layer="909" to-port="2"/>
		<edge from-layer="907" from-port="0" to-layer="909" to-port="3"/>
		<edge from-layer="908" from-port="0" to-layer="909" to-port="4"/>
		<edge from-layer="910" from-port="0" to-layer="911" to-port="0"/>
		<edge from-layer="911" from-port="1" to-layer="913" to-port="0"/>
		<edge from-layer="912" from-port="0" to-layer="913" to-port="1"/>
		<edge from-layer="913" from-port="2" to-layer="915" to-port="0"/>
		<edge from-layer="914" from-port="0" to-layer="915" to-port="1"/>
		<edge from-layer="915" from-port="2" to-layer="917" to-port="0"/>
		<edge from-layer="916" from-port="0" to-layer="917" to-port="1"/>
		<edge from-layer="909" from-port="5" to-layer="918" to-port="0"/>
		<edge from-layer="917" from-port="2" to-layer="918" to-port="1"/>
		<edge from-layer="918" from-port="2" to-layer="920" to-port="0"/>
		<edge from-layer="919" from-port="0" to-layer="920" to-port="1"/>
		<edge from-layer="920" from-port="2" to-layer="925" to-port="0"/>
		<edge from-layer="921" from-port="0" to-layer="925" to-port="1"/>
		<edge from-layer="922" from-port="0" to-layer="925" to-port="2"/>
		<edge from-layer="923" from-port="0" to-layer="925" to-port="3"/>
		<edge from-layer="924" from-port="0" to-layer="925" to-port="4"/>
		<edge from-layer="926" from-port="0" to-layer="927" to-port="0"/>
		<edge from-layer="927" from-port="1" to-layer="929" to-port="0"/>
		<edge from-layer="928" from-port="0" to-layer="929" to-port="1"/>
		<edge from-layer="929" from-port="2" to-layer="931" to-port="0"/>
		<edge from-layer="930" from-port="0" to-layer="931" to-port="1"/>
		<edge from-layer="925" from-port="5" to-layer="932" to-port="0"/>
		<edge from-layer="931" from-port="2" to-layer="932" to-port="1"/>
		<edge from-layer="932" from-port="2" to-layer="934" to-port="0"/>
		<edge from-layer="933" from-port="0" to-layer="934" to-port="1"/>
		<edge from-layer="934" from-port="2" to-layer="935" to-port="0"/>
		<edge from-layer="935" from-port="1" to-layer="940" to-port="0"/>
		<edge from-layer="936" from-port="0" to-layer="940" to-port="1"/>
		<edge from-layer="937" from-port="0" to-layer="940" to-port="2"/>
		<edge from-layer="938" from-port="0" to-layer="940" to-port="3"/>
		<edge from-layer="939" from-port="0" to-layer="940" to-port="4"/>
		<edge from-layer="941" from-port="0" to-layer="942" to-port="0"/>
		<edge from-layer="942" from-port="1" to-layer="944" to-port="0"/>
		<edge from-layer="943" from-port="0" to-layer="944" to-port="1"/>
		<edge from-layer="944" from-port="2" to-layer="946" to-port="0"/>
		<edge from-layer="945" from-port="0" to-layer="946" to-port="1"/>
		<edge from-layer="940" from-port="5" to-layer="947" to-port="0"/>
		<edge from-layer="946" from-port="2" to-layer="947" to-port="1"/>
		<edge from-layer="947" from-port="2" to-layer="949" to-port="0"/>
		<edge from-layer="948" from-port="0" to-layer="949" to-port="1"/>
		<edge from-layer="949" from-port="2" to-layer="954" to-port="0"/>
		<edge from-layer="950" from-port="0" to-layer="954" to-port="1"/>
		<edge from-layer="951" from-port="0" to-layer="954" to-port="2"/>
		<edge from-layer="952" from-port="0" to-layer="954" to-port="3"/>
		<edge from-layer="953" from-port="0" to-layer="954" to-port="4"/>
		<edge from-layer="955" from-port="0" to-layer="956" to-port="0"/>
		<edge from-layer="956" from-port="1" to-layer="958" to-port="0"/>
		<edge from-layer="957" from-port="0" to-layer="958" to-port="1"/>
		<edge from-layer="958" from-port="2" to-layer="960" to-port="0"/>
		<edge from-layer="959" from-port="0" to-layer="960" to-port="1"/>
		<edge from-layer="954" from-port="5" to-layer="961" to-port="0"/>
		<edge from-layer="960" from-port="2" to-layer="961" to-port="1"/>
		<edge from-layer="961" from-port="2" to-layer="963" to-port="0"/>
		<edge from-layer="962" from-port="0" to-layer="963" to-port="1"/>
		<edge from-layer="963" from-port="2" to-layer="964" to-port="0"/>
		<edge from-layer="964" from-port="1" to-layer="969" to-port="0"/>
		<edge from-layer="965" from-port="0" to-layer="969" to-port="1"/>
		<edge from-layer="966" from-port="0" to-layer="969" to-port="2"/>
		<edge from-layer="967" from-port="0" to-layer="969" to-port="3"/>
		<edge from-layer="968" from-port="0" to-layer="969" to-port="4"/>
		<edge from-layer="970" from-port="0" to-layer="971" to-port="0"/>
		<edge from-layer="971" from-port="1" to-layer="973" to-port="0"/>
		<edge from-layer="972" from-port="0" to-layer="973" to-port="1"/>
		<edge from-layer="973" from-port="2" to-layer="975" to-port="0"/>
		<edge from-layer="974" from-port="0" to-layer="975" to-port="1"/>
		<edge from-layer="975" from-port="2" to-layer="977" to-port="0"/>
		<edge from-layer="976" from-port="0" to-layer="977" to-port="1"/>
		<edge from-layer="969" from-port="5" to-layer="978" to-port="0"/>
		<edge from-layer="977" from-port="2" to-layer="978" to-port="1"/>
		<edge from-layer="978" from-port="2" to-layer="980" to-port="0"/>
		<edge from-layer="979" from-port="0" to-layer="980" to-port="1"/>
		<edge from-layer="980" from-port="2" to-layer="985" to-port="0"/>
		<edge from-layer="981" from-port="0" to-layer="985" to-port="1"/>
		<edge from-layer="982" from-port="0" to-layer="985" to-port="2"/>
		<edge from-layer="983" from-port="0" to-layer="985" to-port="3"/>
		<edge from-layer="984" from-port="0" to-layer="985" to-port="4"/>
		<edge from-layer="986" from-port="0" to-layer="987" to-port="0"/>
		<edge from-layer="987" from-port="1" to-layer="989" to-port="0"/>
		<edge from-layer="988" from-port="0" to-layer="989" to-port="1"/>
		<edge from-layer="989" from-port="2" to-layer="991" to-port="0"/>
		<edge from-layer="990" from-port="0" to-layer="991" to-port="1"/>
		<edge from-layer="985" from-port="5" to-layer="992" to-port="0"/>
		<edge from-layer="991" from-port="2" to-layer="992" to-port="1"/>
		<edge from-layer="992" from-port="2" to-layer="994" to-port="0"/>
		<edge from-layer="993" from-port="0" to-layer="994" to-port="1"/>
		<edge from-layer="994" from-port="2" to-layer="995" to-port="0"/>
		<edge from-layer="995" from-port="1" to-layer="1000" to-port="0"/>
		<edge from-layer="996" from-port="0" to-layer="1000" to-port="1"/>
		<edge from-layer="997" from-port="0" to-layer="1000" to-port="2"/>
		<edge from-layer="998" from-port="0" to-layer="1000" to-port="3"/>
		<edge from-layer="999" from-port="0" to-layer="1000" to-port="4"/>
		<edge from-layer="1001" from-port="0" to-layer="1002" to-port="0"/>
		<edge from-layer="1002" from-port="1" to-layer="1004" to-port="0"/>
		<edge from-layer="1003" from-port="0" to-layer="1004" to-port="1"/>
		<edge from-layer="1004" from-port="2" to-layer="1006" to-port="0"/>
		<edge from-layer="1005" from-port="0" to-layer="1006" to-port="1"/>
		<edge from-layer="1000" from-port="5" to-layer="1007" to-port="0"/>
		<edge from-layer="1006" from-port="2" to-layer="1007" to-port="1"/>
		<edge from-layer="1007" from-port="2" to-layer="1009" to-port="0"/>
		<edge from-layer="1008" from-port="0" to-layer="1009" to-port="1"/>
		<edge from-layer="1009" from-port="2" to-layer="1014" to-port="0"/>
		<edge from-layer="1010" from-port="0" to-layer="1014" to-port="1"/>
		<edge from-layer="1011" from-port="0" to-layer="1014" to-port="2"/>
		<edge from-layer="1012" from-port="0" to-layer="1014" to-port="3"/>
		<edge from-layer="1013" from-port="0" to-layer="1014" to-port="4"/>
		<edge from-layer="954" from-port="5" to-layer="1015" to-port="0"/>
		<edge from-layer="1014" from-port="5" to-layer="1015" to-port="1"/>
		<edge from-layer="1015" from-port="2" to-layer="1020" to-port="0"/>
		<edge from-layer="1016" from-port="0" to-layer="1020" to-port="1"/>
		<edge from-layer="1017" from-port="0" to-layer="1020" to-port="2"/>
		<edge from-layer="1018" from-port="0" to-layer="1020" to-port="3"/>
		<edge from-layer="1019" from-port="0" to-layer="1020" to-port="4"/>
		<edge from-layer="1021" from-port="0" to-layer="1022" to-port="0"/>
		<edge from-layer="1022" from-port="1" to-layer="1024" to-port="0"/>
		<edge from-layer="1023" from-port="0" to-layer="1024" to-port="1"/>
		<edge from-layer="1024" from-port="2" to-layer="1026" to-port="0"/>
		<edge from-layer="1025" from-port="0" to-layer="1026" to-port="1"/>
		<edge from-layer="1020" from-port="5" to-layer="1027" to-port="0"/>
		<edge from-layer="1026" from-port="2" to-layer="1027" to-port="1"/>
		<edge from-layer="1027" from-port="2" to-layer="1029" to-port="0"/>
		<edge from-layer="1028" from-port="0" to-layer="1029" to-port="1"/>
		<edge from-layer="1029" from-port="2" to-layer="1030" to-port="0"/>
		<edge from-layer="1030" from-port="1" to-layer="1035" to-port="0"/>
		<edge from-layer="1031" from-port="0" to-layer="1035" to-port="1"/>
		<edge from-layer="1032" from-port="0" to-layer="1035" to-port="2"/>
		<edge from-layer="1033" from-port="0" to-layer="1035" to-port="3"/>
		<edge from-layer="1034" from-port="0" to-layer="1035" to-port="4"/>
		<edge from-layer="1036" from-port="0" to-layer="1037" to-port="0"/>
		<edge from-layer="1037" from-port="1" to-layer="1039" to-port="0"/>
		<edge from-layer="1038" from-port="0" to-layer="1039" to-port="1"/>
		<edge from-layer="1039" from-port="2" to-layer="1041" to-port="0"/>
		<edge from-layer="1040" from-port="0" to-layer="1041" to-port="1"/>
		<edge from-layer="1041" from-port="2" to-layer="1043" to-port="0"/>
		<edge from-layer="1042" from-port="0" to-layer="1043" to-port="1"/>
		<edge from-layer="1035" from-port="5" to-layer="1044" to-port="0"/>
		<edge from-layer="1043" from-port="2" to-layer="1044" to-port="1"/>
		<edge from-layer="1044" from-port="2" to-layer="1046" to-port="0"/>
		<edge from-layer="1045" from-port="0" to-layer="1046" to-port="1"/>
		<edge from-layer="1046" from-port="2" to-layer="1051" to-port="0"/>
		<edge from-layer="1047" from-port="0" to-layer="1051" to-port="1"/>
		<edge from-layer="1048" from-port="0" to-layer="1051" to-port="2"/>
		<edge from-layer="1049" from-port="0" to-layer="1051" to-port="3"/>
		<edge from-layer="1050" from-port="0" to-layer="1051" to-port="4"/>
		<edge from-layer="1052" from-port="0" to-layer="1053" to-port="0"/>
		<edge from-layer="1053" from-port="1" to-layer="1055" to-port="0"/>
		<edge from-layer="1054" from-port="0" to-layer="1055" to-port="1"/>
		<edge from-layer="1055" from-port="2" to-layer="1057" to-port="0"/>
		<edge from-layer="1056" from-port="0" to-layer="1057" to-port="1"/>
		<edge from-layer="1051" from-port="5" to-layer="1058" to-port="0"/>
		<edge from-layer="1057" from-port="2" to-layer="1058" to-port="1"/>
		<edge from-layer="1058" from-port="2" to-layer="1060" to-port="0"/>
		<edge from-layer="1059" from-port="0" to-layer="1060" to-port="1"/>
		<edge from-layer="1060" from-port="2" to-layer="1061" to-port="0"/>
		<edge from-layer="1061" from-port="1" to-layer="1066" to-port="0"/>
		<edge from-layer="1062" from-port="0" to-layer="1066" to-port="1"/>
		<edge from-layer="1063" from-port="0" to-layer="1066" to-port="2"/>
		<edge from-layer="1064" from-port="0" to-layer="1066" to-port="3"/>
		<edge from-layer="1065" from-port="0" to-layer="1066" to-port="4"/>
		<edge from-layer="1067" from-port="0" to-layer="1068" to-port="0"/>
		<edge from-layer="1068" from-port="1" to-layer="1070" to-port="0"/>
		<edge from-layer="1069" from-port="0" to-layer="1070" to-port="1"/>
		<edge from-layer="1070" from-port="2" to-layer="1072" to-port="0"/>
		<edge from-layer="1071" from-port="0" to-layer="1072" to-port="1"/>
		<edge from-layer="1066" from-port="5" to-layer="1073" to-port="0"/>
		<edge from-layer="1072" from-port="2" to-layer="1073" to-port="1"/>
		<edge from-layer="1073" from-port="2" to-layer="1075" to-port="0"/>
		<edge from-layer="1074" from-port="0" to-layer="1075" to-port="1"/>
		<edge from-layer="1075" from-port="2" to-layer="1080" to-port="0"/>
		<edge from-layer="1076" from-port="0" to-layer="1080" to-port="1"/>
		<edge from-layer="1077" from-port="0" to-layer="1080" to-port="2"/>
		<edge from-layer="1078" from-port="0" to-layer="1080" to-port="3"/>
		<edge from-layer="1079" from-port="0" to-layer="1080" to-port="4"/>
		<edge from-layer="1020" from-port="5" to-layer="1081" to-port="0"/>
		<edge from-layer="1080" from-port="5" to-layer="1081" to-port="1"/>
		<edge from-layer="1081" from-port="2" to-layer="1086" to-port="0"/>
		<edge from-layer="1082" from-port="0" to-layer="1086" to-port="1"/>
		<edge from-layer="1083" from-port="0" to-layer="1086" to-port="2"/>
		<edge from-layer="1084" from-port="0" to-layer="1086" to-port="3"/>
		<edge from-layer="1085" from-port="0" to-layer="1086" to-port="4"/>
		<edge from-layer="1087" from-port="0" to-layer="1088" to-port="0"/>
		<edge from-layer="1088" from-port="1" to-layer="1090" to-port="0"/>
		<edge from-layer="1089" from-port="0" to-layer="1090" to-port="1"/>
		<edge from-layer="1090" from-port="2" to-layer="1092" to-port="0"/>
		<edge from-layer="1091" from-port="0" to-layer="1092" to-port="1"/>
		<edge from-layer="1086" from-port="5" to-layer="1093" to-port="0"/>
		<edge from-layer="1092" from-port="2" to-layer="1093" to-port="1"/>
		<edge from-layer="1093" from-port="2" to-layer="1095" to-port="0"/>
		<edge from-layer="1094" from-port="0" to-layer="1095" to-port="1"/>
		<edge from-layer="1095" from-port="2" to-layer="1096" to-port="0"/>
		<edge from-layer="1096" from-port="1" to-layer="1101" to-port="0"/>
		<edge from-layer="1097" from-port="0" to-layer="1101" to-port="1"/>
		<edge from-layer="1098" from-port="0" to-layer="1101" to-port="2"/>
		<edge from-layer="1099" from-port="0" to-layer="1101" to-port="3"/>
		<edge from-layer="1100" from-port="0" to-layer="1101" to-port="4"/>
		<edge from-layer="1102" from-port="0" to-layer="1103" to-port="0"/>
		<edge from-layer="1103" from-port="1" to-layer="1105" to-port="0"/>
		<edge from-layer="1104" from-port="0" to-layer="1105" to-port="1"/>
		<edge from-layer="1105" from-port="2" to-layer="1107" to-port="0"/>
		<edge from-layer="1106" from-port="0" to-layer="1107" to-port="1"/>
		<edge from-layer="1107" from-port="2" to-layer="1109" to-port="0"/>
		<edge from-layer="1108" from-port="0" to-layer="1109" to-port="1"/>
		<edge from-layer="1101" from-port="5" to-layer="1110" to-port="0"/>
		<edge from-layer="1109" from-port="2" to-layer="1110" to-port="1"/>
		<edge from-layer="1110" from-port="2" to-layer="1112" to-port="0"/>
		<edge from-layer="1111" from-port="0" to-layer="1112" to-port="1"/>
		<edge from-layer="1112" from-port="2" to-layer="1117" to-port="0"/>
		<edge from-layer="1113" from-port="0" to-layer="1117" to-port="1"/>
		<edge from-layer="1114" from-port="0" to-layer="1117" to-port="2"/>
		<edge from-layer="1115" from-port="0" to-layer="1117" to-port="3"/>
		<edge from-layer="1116" from-port="0" to-layer="1117" to-port="4"/>
		<edge from-layer="1118" from-port="0" to-layer="1119" to-port="0"/>
		<edge from-layer="1119" from-port="1" to-layer="1121" to-port="0"/>
		<edge from-layer="1120" from-port="0" to-layer="1121" to-port="1"/>
		<edge from-layer="1121" from-port="2" to-layer="1123" to-port="0"/>
		<edge from-layer="1122" from-port="0" to-layer="1123" to-port="1"/>
		<edge from-layer="1117" from-port="5" to-layer="1124" to-port="0"/>
		<edge from-layer="1123" from-port="2" to-layer="1124" to-port="1"/>
		<edge from-layer="1124" from-port="2" to-layer="1126" to-port="0"/>
		<edge from-layer="1125" from-port="0" to-layer="1126" to-port="1"/>
		<edge from-layer="1126" from-port="2" to-layer="1127" to-port="0"/>
		<edge from-layer="1127" from-port="1" to-layer="1132" to-port="0"/>
		<edge from-layer="1128" from-port="0" to-layer="1132" to-port="1"/>
		<edge from-layer="1129" from-port="0" to-layer="1132" to-port="2"/>
		<edge from-layer="1130" from-port="0" to-layer="1132" to-port="3"/>
		<edge from-layer="1131" from-port="0" to-layer="1132" to-port="4"/>
		<edge from-layer="1133" from-port="0" to-layer="1134" to-port="0"/>
		<edge from-layer="1134" from-port="1" to-layer="1136" to-port="0"/>
		<edge from-layer="1135" from-port="0" to-layer="1136" to-port="1"/>
		<edge from-layer="1136" from-port="2" to-layer="1138" to-port="0"/>
		<edge from-layer="1137" from-port="0" to-layer="1138" to-port="1"/>
		<edge from-layer="1132" from-port="5" to-layer="1139" to-port="0"/>
		<edge from-layer="1138" from-port="2" to-layer="1139" to-port="1"/>
		<edge from-layer="1139" from-port="2" to-layer="1141" to-port="0"/>
		<edge from-layer="1140" from-port="0" to-layer="1141" to-port="1"/>
		<edge from-layer="1141" from-port="2" to-layer="1146" to-port="0"/>
		<edge from-layer="1142" from-port="0" to-layer="1146" to-port="1"/>
		<edge from-layer="1143" from-port="0" to-layer="1146" to-port="2"/>
		<edge from-layer="1144" from-port="0" to-layer="1146" to-port="3"/>
		<edge from-layer="1145" from-port="0" to-layer="1146" to-port="4"/>
		<edge from-layer="1147" from-port="0" to-layer="1148" to-port="0"/>
		<edge from-layer="1148" from-port="1" to-layer="1150" to-port="0"/>
		<edge from-layer="1149" from-port="0" to-layer="1150" to-port="1"/>
		<edge from-layer="1150" from-port="2" to-layer="1152" to-port="0"/>
		<edge from-layer="1151" from-port="0" to-layer="1152" to-port="1"/>
		<edge from-layer="1146" from-port="5" to-layer="1153" to-port="0"/>
		<edge from-layer="1152" from-port="2" to-layer="1153" to-port="1"/>
		<edge from-layer="1153" from-port="2" to-layer="1155" to-port="0"/>
		<edge from-layer="1154" from-port="0" to-layer="1155" to-port="1"/>
		<edge from-layer="1155" from-port="2" to-layer="1156" to-port="0"/>
		<edge from-layer="1156" from-port="1" to-layer="1161" to-port="0"/>
		<edge from-layer="1157" from-port="0" to-layer="1161" to-port="1"/>
		<edge from-layer="1158" from-port="0" to-layer="1161" to-port="2"/>
		<edge from-layer="1159" from-port="0" to-layer="1161" to-port="3"/>
		<edge from-layer="1160" from-port="0" to-layer="1161" to-port="4"/>
		<edge from-layer="1162" from-port="0" to-layer="1163" to-port="0"/>
		<edge from-layer="1163" from-port="1" to-layer="1165" to-port="0"/>
		<edge from-layer="1164" from-port="0" to-layer="1165" to-port="1"/>
		<edge from-layer="1165" from-port="2" to-layer="1167" to-port="0"/>
		<edge from-layer="1166" from-port="0" to-layer="1167" to-port="1"/>
		<edge from-layer="1161" from-port="5" to-layer="1168" to-port="0"/>
		<edge from-layer="1167" from-port="2" to-layer="1168" to-port="1"/>
		<edge from-layer="1168" from-port="2" to-layer="1170" to-port="0"/>
		<edge from-layer="1169" from-port="0" to-layer="1170" to-port="1"/>
		<edge from-layer="1170" from-port="2" to-layer="1175" to-port="0"/>
		<edge from-layer="1171" from-port="0" to-layer="1175" to-port="1"/>
		<edge from-layer="1172" from-port="0" to-layer="1175" to-port="2"/>
		<edge from-layer="1173" from-port="0" to-layer="1175" to-port="3"/>
		<edge from-layer="1174" from-port="0" to-layer="1175" to-port="4"/>
		<edge from-layer="1170" from-port="2" to-layer="1176" to-port="0"/>
		<edge from-layer="1176" from-port="1" to-layer="1179" to-port="0"/>
		<edge from-layer="1177" from-port="0" to-layer="1179" to-port="1"/>
		<edge from-layer="1178" from-port="0" to-layer="1179" to-port="2"/>
		<edge from-layer="1179" from-port="3" to-layer="1183" to-port="0"/>
		<edge from-layer="1180" from-port="0" to-layer="1183" to-port="1"/>
		<edge from-layer="1181" from-port="0" to-layer="1183" to-port="2"/>
		<edge from-layer="1182" from-port="0" to-layer="1183" to-port="3"/>
		<edge from-layer="1183" from-port="4" to-layer="1185" to-port="0"/>
		<edge from-layer="1184" from-port="0" to-layer="1185" to-port="1"/>
		<edge from-layer="1185" from-port="2" to-layer="1186" to-port="0"/>
		<edge from-layer="1185" from-port="2" to-layer="1187" to-port="0"/>
		<edge from-layer="1170" from-port="2" to-layer="1188" to-port="0"/>
		<edge from-layer="1188" from-port="1" to-layer="1191" to-port="0"/>
		<edge from-layer="1189" from-port="0" to-layer="1191" to-port="1"/>
		<edge from-layer="1190" from-port="0" to-layer="1191" to-port="2"/>
		<edge from-layer="1191" from-port="3" to-layer="1195" to-port="0"/>
		<edge from-layer="1192" from-port="0" to-layer="1195" to-port="1"/>
		<edge from-layer="1193" from-port="0" to-layer="1195" to-port="2"/>
		<edge from-layer="1194" from-port="0" to-layer="1195" to-port="3"/>
		<edge from-layer="1195" from-port="4" to-layer="1196" to-port="0"/>
		<edge from-layer="1187" from-port="1" to-layer="1197" to-port="0"/>
		<edge from-layer="1196" from-port="1" to-layer="1197" to-port="1"/>
		<edge from-layer="1175" from-port="5" to-layer="1199" to-port="0"/>
		<edge from-layer="1186" from-port="1" to-layer="1199" to-port="1"/>
		<edge from-layer="1197" from-port="2" to-layer="1199" to-port="2"/>
		<edge from-layer="1198" from-port="0" to-layer="1199" to-port="3"/>
		<edge from-layer="1199" from-port="4" to-layer="1204" to-port="0"/>
		<edge from-layer="1200" from-port="0" to-layer="1204" to-port="1"/>
		<edge from-layer="1201" from-port="0" to-layer="1204" to-port="2"/>
		<edge from-layer="1202" from-port="0" to-layer="1204" to-port="3"/>
		<edge from-layer="1203" from-port="0" to-layer="1204" to-port="4"/>
		<edge from-layer="894" from-port="5" to-layer="1205" to-port="0"/>
		<edge from-layer="1204" from-port="5" to-layer="1205" to-port="1"/>
		<edge from-layer="1205" from-port="2" to-layer="1210" to-port="0"/>
		<edge from-layer="1206" from-port="0" to-layer="1210" to-port="1"/>
		<edge from-layer="1207" from-port="0" to-layer="1210" to-port="2"/>
		<edge from-layer="1208" from-port="0" to-layer="1210" to-port="3"/>
		<edge from-layer="1209" from-port="0" to-layer="1210" to-port="4"/>
		<edge from-layer="1205" from-port="2" to-layer="1211" to-port="0"/>
		<edge from-layer="1211" from-port="1" to-layer="1214" to-port="0"/>
		<edge from-layer="1212" from-port="0" to-layer="1214" to-port="1"/>
		<edge from-layer="1213" from-port="0" to-layer="1214" to-port="2"/>
		<edge from-layer="1214" from-port="3" to-layer="1218" to-port="0"/>
		<edge from-layer="1215" from-port="0" to-layer="1218" to-port="1"/>
		<edge from-layer="1216" from-port="0" to-layer="1218" to-port="2"/>
		<edge from-layer="1217" from-port="0" to-layer="1218" to-port="3"/>
		<edge from-layer="1218" from-port="4" to-layer="1220" to-port="0"/>
		<edge from-layer="1219" from-port="0" to-layer="1220" to-port="1"/>
		<edge from-layer="1220" from-port="2" to-layer="1221" to-port="0"/>
		<edge from-layer="1220" from-port="2" to-layer="1222" to-port="0"/>
		<edge from-layer="1205" from-port="2" to-layer="1223" to-port="0"/>
		<edge from-layer="1223" from-port="1" to-layer="1226" to-port="0"/>
		<edge from-layer="1224" from-port="0" to-layer="1226" to-port="1"/>
		<edge from-layer="1225" from-port="0" to-layer="1226" to-port="2"/>
		<edge from-layer="1226" from-port="3" to-layer="1230" to-port="0"/>
		<edge from-layer="1227" from-port="0" to-layer="1230" to-port="1"/>
		<edge from-layer="1228" from-port="0" to-layer="1230" to-port="2"/>
		<edge from-layer="1229" from-port="0" to-layer="1230" to-port="3"/>
		<edge from-layer="1230" from-port="4" to-layer="1231" to-port="0"/>
		<edge from-layer="1222" from-port="1" to-layer="1232" to-port="0"/>
		<edge from-layer="1231" from-port="1" to-layer="1232" to-port="1"/>
		<edge from-layer="1210" from-port="5" to-layer="1234" to-port="0"/>
		<edge from-layer="1221" from-port="1" to-layer="1234" to-port="1"/>
		<edge from-layer="1232" from-port="2" to-layer="1234" to-port="2"/>
		<edge from-layer="1233" from-port="0" to-layer="1234" to-port="3"/>
		<edge from-layer="1234" from-port="4" to-layer="1239" to-port="0"/>
		<edge from-layer="1235" from-port="0" to-layer="1239" to-port="1"/>
		<edge from-layer="1236" from-port="0" to-layer="1239" to-port="2"/>
		<edge from-layer="1237" from-port="0" to-layer="1239" to-port="3"/>
		<edge from-layer="1238" from-port="0" to-layer="1239" to-port="4"/>
		<edge from-layer="688" from-port="5" to-layer="1240" to-port="0"/>
		<edge from-layer="1239" from-port="5" to-layer="1240" to-port="1"/>
		<edge from-layer="1240" from-port="2" to-layer="1245" to-port="0"/>
		<edge from-layer="1241" from-port="0" to-layer="1245" to-port="1"/>
		<edge from-layer="1242" from-port="0" to-layer="1245" to-port="2"/>
		<edge from-layer="1243" from-port="0" to-layer="1245" to-port="3"/>
		<edge from-layer="1244" from-port="0" to-layer="1245" to-port="4"/>
		<edge from-layer="1240" from-port="2" to-layer="1246" to-port="0"/>
		<edge from-layer="1246" from-port="1" to-layer="1249" to-port="0"/>
		<edge from-layer="1247" from-port="0" to-layer="1249" to-port="1"/>
		<edge from-layer="1248" from-port="0" to-layer="1249" to-port="2"/>
		<edge from-layer="1249" from-port="3" to-layer="1253" to-port="0"/>
		<edge from-layer="1250" from-port="0" to-layer="1253" to-port="1"/>
		<edge from-layer="1251" from-port="0" to-layer="1253" to-port="2"/>
		<edge from-layer="1252" from-port="0" to-layer="1253" to-port="3"/>
		<edge from-layer="1253" from-port="4" to-layer="1255" to-port="0"/>
		<edge from-layer="1254" from-port="0" to-layer="1255" to-port="1"/>
		<edge from-layer="1255" from-port="2" to-layer="1256" to-port="0"/>
		<edge from-layer="1255" from-port="2" to-layer="1257" to-port="0"/>
		<edge from-layer="1240" from-port="2" to-layer="1258" to-port="0"/>
		<edge from-layer="1258" from-port="1" to-layer="1261" to-port="0"/>
		<edge from-layer="1259" from-port="0" to-layer="1261" to-port="1"/>
		<edge from-layer="1260" from-port="0" to-layer="1261" to-port="2"/>
		<edge from-layer="1261" from-port="3" to-layer="1265" to-port="0"/>
		<edge from-layer="1262" from-port="0" to-layer="1265" to-port="1"/>
		<edge from-layer="1263" from-port="0" to-layer="1265" to-port="2"/>
		<edge from-layer="1264" from-port="0" to-layer="1265" to-port="3"/>
		<edge from-layer="1265" from-port="4" to-layer="1266" to-port="0"/>
		<edge from-layer="1257" from-port="1" to-layer="1267" to-port="0"/>
		<edge from-layer="1266" from-port="1" to-layer="1267" to-port="1"/>
		<edge from-layer="1245" from-port="5" to-layer="1269" to-port="0"/>
		<edge from-layer="1256" from-port="1" to-layer="1269" to-port="1"/>
		<edge from-layer="1267" from-port="2" to-layer="1269" to-port="2"/>
		<edge from-layer="1268" from-port="0" to-layer="1269" to-port="3"/>
		<edge from-layer="1269" from-port="4" to-layer="1274" to-port="0"/>
		<edge from-layer="1270" from-port="0" to-layer="1274" to-port="1"/>
		<edge from-layer="1271" from-port="0" to-layer="1274" to-port="2"/>
		<edge from-layer="1272" from-port="0" to-layer="1274" to-port="3"/>
		<edge from-layer="1273" from-port="0" to-layer="1274" to-port="4"/>
		<edge from-layer="224" from-port="5" to-layer="1275" to-port="0"/>
		<edge from-layer="1274" from-port="5" to-layer="1275" to-port="1"/>
		<edge from-layer="1275" from-port="2" to-layer="1276" to-port="0"/>
		<edge from-layer="1277" from-port="0" to-layer="1278" to-port="0"/>
		<edge from-layer="1278" from-port="1" to-layer="1280" to-port="0"/>
		<edge from-layer="1279" from-port="0" to-layer="1280" to-port="1"/>
		<edge from-layer="1280" from-port="2" to-layer="1282" to-port="0"/>
		<edge from-layer="1281" from-port="0" to-layer="1282" to-port="1"/>
		<edge from-layer="210" from-port="5" to-layer="1283" to-port="0"/>
		<edge from-layer="1282" from-port="2" to-layer="1283" to-port="1"/>
		<edge from-layer="1283" from-port="2" to-layer="1285" to-port="0"/>
		<edge from-layer="1284" from-port="0" to-layer="1285" to-port="1"/>
		<edge from-layer="1285" from-port="2" to-layer="1290" to-port="0"/>
		<edge from-layer="1286" from-port="0" to-layer="1290" to-port="1"/>
		<edge from-layer="1287" from-port="0" to-layer="1290" to-port="2"/>
		<edge from-layer="1288" from-port="0" to-layer="1290" to-port="3"/>
		<edge from-layer="1289" from-port="0" to-layer="1290" to-port="4"/>
		<edge from-layer="1291" from-port="0" to-layer="1292" to-port="0"/>
		<edge from-layer="1292" from-port="1" to-layer="1294" to-port="0"/>
		<edge from-layer="1293" from-port="0" to-layer="1294" to-port="1"/>
		<edge from-layer="1294" from-port="2" to-layer="1296" to-port="0"/>
		<edge from-layer="1295" from-port="0" to-layer="1296" to-port="1"/>
		<edge from-layer="674" from-port="5" to-layer="1297" to-port="0"/>
		<edge from-layer="1296" from-port="2" to-layer="1297" to-port="1"/>
		<edge from-layer="1297" from-port="2" to-layer="1299" to-port="0"/>
		<edge from-layer="1298" from-port="0" to-layer="1299" to-port="1"/>
		<edge from-layer="1299" from-port="2" to-layer="1304" to-port="0"/>
		<edge from-layer="1300" from-port="0" to-layer="1304" to-port="1"/>
		<edge from-layer="1301" from-port="0" to-layer="1304" to-port="2"/>
		<edge from-layer="1302" from-port="0" to-layer="1304" to-port="3"/>
		<edge from-layer="1303" from-port="0" to-layer="1304" to-port="4"/>
		<edge from-layer="1305" from-port="0" to-layer="1306" to-port="0"/>
		<edge from-layer="1306" from-port="1" to-layer="1308" to-port="0"/>
		<edge from-layer="1307" from-port="0" to-layer="1308" to-port="1"/>
		<edge from-layer="1308" from-port="2" to-layer="1310" to-port="0"/>
		<edge from-layer="1309" from-port="0" to-layer="1310" to-port="1"/>
		<edge from-layer="880" from-port="5" to-layer="1311" to-port="0"/>
		<edge from-layer="1310" from-port="2" to-layer="1311" to-port="1"/>
		<edge from-layer="1311" from-port="2" to-layer="1313" to-port="0"/>
		<edge from-layer="1312" from-port="0" to-layer="1313" to-port="1"/>
		<edge from-layer="1313" from-port="2" to-layer="1318" to-port="0"/>
		<edge from-layer="1314" from-port="0" to-layer="1318" to-port="1"/>
		<edge from-layer="1315" from-port="0" to-layer="1318" to-port="2"/>
		<edge from-layer="1316" from-port="0" to-layer="1318" to-port="3"/>
		<edge from-layer="1317" from-port="0" to-layer="1318" to-port="4"/>
		<edge from-layer="1319" from-port="0" to-layer="1320" to-port="0"/>
		<edge from-layer="1320" from-port="1" to-layer="1322" to-port="0"/>
		<edge from-layer="1321" from-port="0" to-layer="1322" to-port="1"/>
		<edge from-layer="1322" from-port="2" to-layer="1324" to-port="0"/>
		<edge from-layer="1323" from-port="0" to-layer="1324" to-port="1"/>
		<edge from-layer="1161" from-port="5" to-layer="1325" to-port="0"/>
		<edge from-layer="1324" from-port="2" to-layer="1325" to-port="1"/>
		<edge from-layer="1325" from-port="2" to-layer="1327" to-port="0"/>
		<edge from-layer="1326" from-port="0" to-layer="1327" to-port="1"/>
		<edge from-layer="1327" from-port="2" to-layer="1332" to-port="0"/>
		<edge from-layer="1328" from-port="0" to-layer="1332" to-port="1"/>
		<edge from-layer="1329" from-port="0" to-layer="1332" to-port="2"/>
		<edge from-layer="1330" from-port="0" to-layer="1332" to-port="3"/>
		<edge from-layer="1331" from-port="0" to-layer="1332" to-port="4"/>
		<edge from-layer="1327" from-port="2" to-layer="1333" to-port="0"/>
		<edge from-layer="1333" from-port="1" to-layer="1336" to-port="0"/>
		<edge from-layer="1334" from-port="0" to-layer="1336" to-port="1"/>
		<edge from-layer="1335" from-port="0" to-layer="1336" to-port="2"/>
		<edge from-layer="1336" from-port="3" to-layer="1340" to-port="0"/>
		<edge from-layer="1337" from-port="0" to-layer="1340" to-port="1"/>
		<edge from-layer="1338" from-port="0" to-layer="1340" to-port="2"/>
		<edge from-layer="1339" from-port="0" to-layer="1340" to-port="3"/>
		<edge from-layer="1340" from-port="4" to-layer="1342" to-port="0"/>
		<edge from-layer="1341" from-port="0" to-layer="1342" to-port="1"/>
		<edge from-layer="1342" from-port="2" to-layer="1343" to-port="0"/>
		<edge from-layer="1342" from-port="2" to-layer="1344" to-port="0"/>
		<edge from-layer="1327" from-port="2" to-layer="1345" to-port="0"/>
		<edge from-layer="1345" from-port="1" to-layer="1348" to-port="0"/>
		<edge from-layer="1346" from-port="0" to-layer="1348" to-port="1"/>
		<edge from-layer="1347" from-port="0" to-layer="1348" to-port="2"/>
		<edge from-layer="1348" from-port="3" to-layer="1352" to-port="0"/>
		<edge from-layer="1349" from-port="0" to-layer="1352" to-port="1"/>
		<edge from-layer="1350" from-port="0" to-layer="1352" to-port="2"/>
		<edge from-layer="1351" from-port="0" to-layer="1352" to-port="3"/>
		<edge from-layer="1352" from-port="4" to-layer="1353" to-port="0"/>
		<edge from-layer="1344" from-port="1" to-layer="1354" to-port="0"/>
		<edge from-layer="1353" from-port="1" to-layer="1354" to-port="1"/>
		<edge from-layer="1332" from-port="5" to-layer="1356" to-port="0"/>
		<edge from-layer="1343" from-port="1" to-layer="1356" to-port="1"/>
		<edge from-layer="1354" from-port="2" to-layer="1356" to-port="2"/>
		<edge from-layer="1355" from-port="0" to-layer="1356" to-port="3"/>
		<edge from-layer="1356" from-port="4" to-layer="1361" to-port="0"/>
		<edge from-layer="1357" from-port="0" to-layer="1361" to-port="1"/>
		<edge from-layer="1358" from-port="0" to-layer="1361" to-port="2"/>
		<edge from-layer="1359" from-port="0" to-layer="1361" to-port="3"/>
		<edge from-layer="1360" from-port="0" to-layer="1361" to-port="4"/>
		<edge from-layer="1318" from-port="5" to-layer="1362" to-port="0"/>
		<edge from-layer="1361" from-port="5" to-layer="1362" to-port="1"/>
		<edge from-layer="1362" from-port="2" to-layer="1367" to-port="0"/>
		<edge from-layer="1363" from-port="0" to-layer="1367" to-port="1"/>
		<edge from-layer="1364" from-port="0" to-layer="1367" to-port="2"/>
		<edge from-layer="1365" from-port="0" to-layer="1367" to-port="3"/>
		<edge from-layer="1366" from-port="0" to-layer="1367" to-port="4"/>
		<edge from-layer="1362" from-port="2" to-layer="1368" to-port="0"/>
		<edge from-layer="1368" from-port="1" to-layer="1371" to-port="0"/>
		<edge from-layer="1369" from-port="0" to-layer="1371" to-port="1"/>
		<edge from-layer="1370" from-port="0" to-layer="1371" to-port="2"/>
		<edge from-layer="1371" from-port="3" to-layer="1375" to-port="0"/>
		<edge from-layer="1372" from-port="0" to-layer="1375" to-port="1"/>
		<edge from-layer="1373" from-port="0" to-layer="1375" to-port="2"/>
		<edge from-layer="1374" from-port="0" to-layer="1375" to-port="3"/>
		<edge from-layer="1375" from-port="4" to-layer="1377" to-port="0"/>
		<edge from-layer="1376" from-port="0" to-layer="1377" to-port="1"/>
		<edge from-layer="1377" from-port="2" to-layer="1378" to-port="0"/>
		<edge from-layer="1377" from-port="2" to-layer="1379" to-port="0"/>
		<edge from-layer="1362" from-port="2" to-layer="1380" to-port="0"/>
		<edge from-layer="1380" from-port="1" to-layer="1383" to-port="0"/>
		<edge from-layer="1381" from-port="0" to-layer="1383" to-port="1"/>
		<edge from-layer="1382" from-port="0" to-layer="1383" to-port="2"/>
		<edge from-layer="1383" from-port="3" to-layer="1387" to-port="0"/>
		<edge from-layer="1384" from-port="0" to-layer="1387" to-port="1"/>
		<edge from-layer="1385" from-port="0" to-layer="1387" to-port="2"/>
		<edge from-layer="1386" from-port="0" to-layer="1387" to-port="3"/>
		<edge from-layer="1387" from-port="4" to-layer="1388" to-port="0"/>
		<edge from-layer="1379" from-port="1" to-layer="1389" to-port="0"/>
		<edge from-layer="1388" from-port="1" to-layer="1389" to-port="1"/>
		<edge from-layer="1367" from-port="5" to-layer="1391" to-port="0"/>
		<edge from-layer="1378" from-port="1" to-layer="1391" to-port="1"/>
		<edge from-layer="1389" from-port="2" to-layer="1391" to-port="2"/>
		<edge from-layer="1390" from-port="0" to-layer="1391" to-port="3"/>
		<edge from-layer="1391" from-port="4" to-layer="1396" to-port="0"/>
		<edge from-layer="1392" from-port="0" to-layer="1396" to-port="1"/>
		<edge from-layer="1393" from-port="0" to-layer="1396" to-port="2"/>
		<edge from-layer="1394" from-port="0" to-layer="1396" to-port="3"/>
		<edge from-layer="1395" from-port="0" to-layer="1396" to-port="4"/>
		<edge from-layer="1304" from-port="5" to-layer="1397" to-port="0"/>
		<edge from-layer="1396" from-port="5" to-layer="1397" to-port="1"/>
		<edge from-layer="1397" from-port="2" to-layer="1402" to-port="0"/>
		<edge from-layer="1398" from-port="0" to-layer="1402" to-port="1"/>
		<edge from-layer="1399" from-port="0" to-layer="1402" to-port="2"/>
		<edge from-layer="1400" from-port="0" to-layer="1402" to-port="3"/>
		<edge from-layer="1401" from-port="0" to-layer="1402" to-port="4"/>
		<edge from-layer="1397" from-port="2" to-layer="1403" to-port="0"/>
		<edge from-layer="1403" from-port="1" to-layer="1406" to-port="0"/>
		<edge from-layer="1404" from-port="0" to-layer="1406" to-port="1"/>
		<edge from-layer="1405" from-port="0" to-layer="1406" to-port="2"/>
		<edge from-layer="1406" from-port="3" to-layer="1410" to-port="0"/>
		<edge from-layer="1407" from-port="0" to-layer="1410" to-port="1"/>
		<edge from-layer="1408" from-port="0" to-layer="1410" to-port="2"/>
		<edge from-layer="1409" from-port="0" to-layer="1410" to-port="3"/>
		<edge from-layer="1410" from-port="4" to-layer="1412" to-port="0"/>
		<edge from-layer="1411" from-port="0" to-layer="1412" to-port="1"/>
		<edge from-layer="1412" from-port="2" to-layer="1413" to-port="0"/>
		<edge from-layer="1412" from-port="2" to-layer="1414" to-port="0"/>
		<edge from-layer="1397" from-port="2" to-layer="1415" to-port="0"/>
		<edge from-layer="1415" from-port="1" to-layer="1418" to-port="0"/>
		<edge from-layer="1416" from-port="0" to-layer="1418" to-port="1"/>
		<edge from-layer="1417" from-port="0" to-layer="1418" to-port="2"/>
		<edge from-layer="1418" from-port="3" to-layer="1422" to-port="0"/>
		<edge from-layer="1419" from-port="0" to-layer="1422" to-port="1"/>
		<edge from-layer="1420" from-port="0" to-layer="1422" to-port="2"/>
		<edge from-layer="1421" from-port="0" to-layer="1422" to-port="3"/>
		<edge from-layer="1422" from-port="4" to-layer="1423" to-port="0"/>
		<edge from-layer="1414" from-port="1" to-layer="1424" to-port="0"/>
		<edge from-layer="1423" from-port="1" to-layer="1424" to-port="1"/>
		<edge from-layer="1402" from-port="5" to-layer="1426" to-port="0"/>
		<edge from-layer="1413" from-port="1" to-layer="1426" to-port="1"/>
		<edge from-layer="1424" from-port="2" to-layer="1426" to-port="2"/>
		<edge from-layer="1425" from-port="0" to-layer="1426" to-port="3"/>
		<edge from-layer="1426" from-port="4" to-layer="1431" to-port="0"/>
		<edge from-layer="1427" from-port="0" to-layer="1431" to-port="1"/>
		<edge from-layer="1428" from-port="0" to-layer="1431" to-port="2"/>
		<edge from-layer="1429" from-port="0" to-layer="1431" to-port="3"/>
		<edge from-layer="1430" from-port="0" to-layer="1431" to-port="4"/>
		<edge from-layer="1290" from-port="5" to-layer="1432" to-port="0"/>
		<edge from-layer="1431" from-port="5" to-layer="1432" to-port="1"/>
		<edge from-layer="1432" from-port="2" to-layer="1433" to-port="0"/>
	</edges>
	<meta_data>
		<MO_version value="unknown version"/>
		<cli_parameters>
			<caffe_parser_path value="DIR"/>
			<data_type value="FP16"/>
			<disable_nhwc_to_nchw value="False"/>
			<disable_omitting_optional value="False"/>
			<disable_resnet_optimization value="False"/>
			<disable_weights_compression value="False"/>
			<enable_concat_optimization value="False"/>
			<enable_flattening_nested_params value="False"/>
			<enable_ssd_gluoncv value="False"/>
			<extensions value="DIR"/>
			<framework value="tf"/>
			<freeze_placeholder_with_value value="{}"/>
			<generate_deprecated_IR_V7 value="False"/>
			<input value="Placeholder"/>
			<input_model value="DIR/pixel_link_mobilenet_v2.pb"/>
			<input_model_is_text value="False"/>
			<input_shape value="[1,768,1280,3]"/>
			<k value="DIR/CustomLayersMapping.xml"/>
			<keep_shape_ops value="True"/>
			<legacy_mxnet_model value="False"/>
			<log_level value="ERROR"/>
			<mean_scale_values value="{}"/>
			<mean_values value="()"/>
			<model_name value="text-detection-0003"/>
			<output value="['model/segm_logits/add', 'model/link_logits_/add']"/>
			<output_dir value="DIR"/>
			<placeholder_data_types value="{}"/>
			<placeholder_shapes value="{'Placeholder': array([   1,  768, 1280,    3])}"/>
			<progress value="False"/>
			<remove_memory value="False"/>
			<remove_output_softmax value="False"/>
			<reverse_input_channels value="True"/>
			<save_params_from_nd value="False"/>
			<scale_values value="()"/>
			<silent value="False"/>
			<static_shape value="False"/>
			<stream_output value="False"/>
			<unset unset_cli_parameters="batch, counts, disable_fusing, disable_gfusing, finegrain_fusing, input_checkpoint, input_meta_graph, input_proto, input_symbol, mean_file, mean_file_offsets, move_to_preprocess, nd_prefix_name, pretrained_model_name, saved_model_dir, saved_model_tags, scale, tensorboard_logdir, tensorflow_custom_layer_libraries, tensorflow_custom_operations_config_update, tensorflow_object_detection_api_pipeline_config, tensorflow_use_custom_operations_config, transformations_config"/>
		</cli_parameters>
	</meta_data>
	<quantization_parameters>
		<config>{
		'compression': {
			'algorithms': [
				{
					'name': 'DefaultQuantization',
					'params': {
						'num_samples_for_tuning': 2000,
						'preset': 'performance',
						'stat_subset_size': 300,
						'use_layerwise_tuning': false
					}
				}
			],
			'dump_intermediate_model': true,
			'target_device': 'ANY'
		},
		'engine': {
			'models': [
				{
					'name': 'text-detection-0003',
					'launchers': [
						{
							'framework': 'dlsdk',
							'adapter': {
								'type': 'pixel_link_text_detection',
								'pixel_link_out': 'model/link_logits_/add',
								'pixel_class_out': 'model/segm_logits/add',
								'pixel_class_confidence_threshold': 0.8,
								'pixel_link_confidence_threshold': 0.8,
								'min_area': 300,
								'min_height': 10
							},
							'device': 'CPU'
						}
					],
					'datasets': [
						{
							'name': 'ICDAR2015',
							'data_source': 'PATH',
							'annotation_conversion': {
								'converter': 'icdar_detection',
								'data_dir': 'PATH'
							},
							'annotation': 'icdar15_detection.pickle',
							'preprocessing': [
								{
									'type': 'resize',
									'dst_width': 1280,
									'dst_height': 768
								}
							],
							'postprocessing': [
								{
									'type': 'cast_to_int'
								},
								{
									'type': 'filter',
									'area_range': '300, 980993',
									'height_range': 10,
									'width_range': 10,
									'apply_to': 'prediction',
									'remove_filtered': true
								},
								{
									'type': 'clip_points',
									'apply_to': 'prediction'
								}
							],
							'metrics': [
								{
									'type': 'incidental_text_hmean',
									'name': 'f-measure',
									'ignore_difficult': true
								}
							],
							'_command_line_mapping': {
								'data_dir': 'PATH'
							}
						}
					]
				}
			],
			'stat_requests_number': null,
			'eval_requests_number': null,
			'type': 'accuracy_checker'
		}
	}</config>
		<version value="1.0"/>
		<cli_params value="{'evaluate': False, 'output_dir': 'PATH', 'direct_dump': True, 'log_level': 'INFO', 'pbar': False, 'stream_output': False, 'keep_uncompressed_weights': False}"/>
	</quantization_parameters>
</net>
